{"format": "graph-model", "generatedBy": "2.11.0", "convertedBy": "TensorFlow.js Converter v4.2.0", "signature": {"inputs": {"conv_lstm1d_3_input": {"name": "conv_lstm1d_3_input:0", "dtype": "DT_FLOAT", "tensorShape": {"dim": [{"size": "-1"}, {"size": "30"}, {"size": "1662"}, {"size": "1"}]}}}, "outputs": {"dense_3": {"name": "Identity:0", "dtype": "DT_FLOAT", "tensorShape": {"dim": [{"size": "-1"}, {"size": "9"}]}}}}, "modelTopology": {"node": [{"name": "StatefulPartitionedCall/sequential_2/conv_lstm1d_5/TensorArrayV2Stack/TensorListStack/element_shape", "op": "Const", "attr": {"dtype": {"type": "DT_INT32"}, "value": {"tensor": {"dtype": "DT_INT32", "tensorShape": {"dim": [{"size": "3"}]}}}}}, {"name": "StatefulPartitionedCall/sequential_2/conv_lstm1d_5/transpose_1/perm", "op": "Const", "attr": {"value": {"tensor": {"dtype": "DT_INT32", "tensorShape": {"dim": [{"size": "4"}]}}}, "dtype": {"type": "DT_INT32"}}}, {"name": "StatefulPartitionedCall/sequential_2/flatten_2/Const", "op": "Const", "attr": {"value": {"tensor": {"dtype": "DT_INT32", "tensorShape": {"dim": [{"size": "2"}]}}}, "dtype": {"type": "DT_INT32"}}}, {"name": "StatefulPartitionedCall/sequential_2/dense_3/MatMul/ReadVariableOp", "op": "Const", "attr": {"value": {"tensor": {"dtype": "DT_FLOAT", "tensorShape": {"dim": [{"size": "86520"}, {"size": "9"}]}}}, "dtype": {"type": "DT_FLOAT"}}}, {"name": "StatefulPartitionedCall/sequential_2/dense_3/BiasAdd/ReadVariableOp", "op": "Const", "attr": {"dtype": {"type": "DT_FLOAT"}, "value": {"tensor": {"dtype": "DT_FLOAT", "tensorShape": {"dim": [{"size": "9"}]}}}}}, {"name": "StatefulPartitionedCall/sequential_2/conv_lstm1d_5/time", "op": "Const", "attr": {"_has_manual_control_dependencies": {"b": true}, "value": {"tensor": {"dtype": "DT_INT32", "tensorShape": {}}}, "dtype": {"type": "DT_INT32"}}}, {"name": "StatefulPartitionedCall/sequential_2/conv_lstm1d_5/while/loop_counter", "op": "Const", "attr": {"dtype": {"type": "DT_INT32"}, "_has_manual_control_dependencies": {"b": true}, "value": {"tensor": {"dtype": "DT_INT32", "tensorShape": {}}}}}, {"name": "StatefulPartitionedCall/sequential_2/conv_lstm1d_5/while/maximum_iterations", "op": "Const", "attr": {"value": {"tensor": {"dtype": "DT_INT32", "tensorShape": {}}}, "_has_manual_control_dependencies": {"b": true}, "dtype": {"type": "DT_INT32"}}}, {"name": "Func/StatefulPartitionedCall/input/_7", "op": "Const", "attr": {"dtype": {"type": "DT_FLOAT"}, "value": {"tensor": {"dtype": "DT_FLOAT", "tensorShape": {"dim": [{"size": "3"}, {"size": "8"}, {"size": "56"}]}}}}}, {"name": "Func/StatefulPartitionedCall/input/_8", "op": "Const", "attr": {"dtype": {"type": "DT_FLOAT"}, "value": {"tensor": {"dtype": "DT_FLOAT", "tensorShape": {"dim": [{"size": "3"}, {"size": "14"}, {"size": "56"}]}}}}}, {"name": "Func/StatefulPartitionedCall/input/_9", "op": "Const", "attr": {"value": {"tensor": {"dtype": "DT_FLOAT", "tensorShape": {"dim": [{"size": "56"}]}}}, "dtype": {"type": "DT_FLOAT"}}}, {"name": "StatefulPartitionedCall/sequential_2/conv_lstm1d_5/TensorArrayUnstack/TensorListFromTensor/element_shape", "op": "Const", "attr": {"dtype": {"type": "DT_INT32"}, "value": {"tensor": {"dtype": "DT_INT32", "tensorShape": {"dim": [{"size": "3"}]}}}}}, {"name": "StatefulPartitionedCall/sequential_2/conv_lstm1d_5/TensorArrayV2_1/element_shape", "op": "Const", "attr": {"dtype": {"type": "DT_INT32"}, "value": {"tensor": {"dtype": "DT_INT32", "tensorShape": {"dim": [{"size": "3"}]}}}}}, {"name": "StatefulPartitionedCall/sequential_2/conv_lstm1d_5/transpose/perm", "op": "Const", "attr": {"value": {"tensor": {"dtype": "DT_INT32", "tensorShape": {"dim": [{"size": "4"}]}}}, "dtype": {"type": "DT_INT32"}}}, {"name": "StatefulPartitionedCall/sequential_2/conv_lstm1d_5/strided_slice/stack", "op": "Const", "attr": {"value": {"tensor": {"dtype": "DT_INT32", "tensorShape": {"dim": [{"size": "1"}]}}}, "dtype": {"type": "DT_INT32"}}}, {"name": "StatefulPartitionedCall/sequential_2/conv_lstm1d_5/strided_slice/stack_1", "op": "Const", "attr": {"value": {"tensor": {"dtype": "DT_INT32", "tensorShape": {"dim": [{"size": "1"}]}}}, "dtype": {"type": "DT_INT32"}}}, {"name": "StatefulPartitionedCall/sequential_2/conv_lstm1d_5/strided_slice/stack_2", "op": "Const", "attr": {"value": {"tensor": {"dtype": "DT_INT32", "tensorShape": {"dim": [{"size": "1"}]}}}, "dtype": {"type": "DT_INT32"}}}, {"name": "StatefulPartitionedCall/sequential_2/conv_lstm1d_4/TensorArrayV2Stack/TensorListStack/element_shape", "op": "Const", "attr": {"dtype": {"type": "DT_INT32"}, "value": {"tensor": {"dtype": "DT_INT32", "tensorShape": {"dim": [{"size": "3"}]}}}}}, {"name": "StatefulPartitionedCall/sequential_2/conv_lstm1d_4/transpose_1/perm", "op": "Const", "attr": {"dtype": {"type": "DT_INT32"}, "value": {"tensor": {"dtype": "DT_INT32", "tensorShape": {"dim": [{"size": "4"}]}}}}}, {"name": "StatefulPartitionedCall/sequential_2/time_distributed_6/Reshape_1/shape", "op": "Const", "attr": {"value": {"tensor": {"dtype": "DT_INT32", "tensorShape": {"dim": [{"size": "4"}]}}}, "dtype": {"type": "DT_INT32"}}}, {"name": "StatefulPartitionedCall/sequential_2/conv_lstm1d_5/Sum/reduction_indices", "op": "Const", "attr": {"value": {"tensor": {"dtype": "DT_INT32", "tensorShape": {}}}, "dtype": {"type": "DT_INT32"}}}, {"name": "StatefulPartitionedCall/sequential_2/conv_lstm1d_5/convolution/ExpandDims/dim", "op": "Const", "attr": {"value": {"tensor": {"dtype": "DT_INT32", "tensorShape": {}}}, "dtype": {"type": "DT_INT32"}}}, {"name": "StatefulPartitionedCall/sequential_2/conv_lstm1d_5/convolution/ExpandDims_1", "op": "Const", "attr": {"dtype": {"type": "DT_FLOAT"}, "value": {"tensor": {"dtype": "DT_FLOAT", "tensorShape": {"dim": [{"size": "1"}, {"size": "3"}, {"size": "8"}, {"size": "14"}]}}}}}, {"name": "StatefulPartitionedCall/sequential_2/conv_lstm1d_4/time", "op": "Const", "attr": {"dtype": {"type": "DT_INT32"}, "value": {"tensor": {"dtype": "DT_INT32", "tensorShape": {}}}, "_has_manual_control_dependencies": {"b": true}}}, {"name": "StatefulPartitionedCall/sequential_2/conv_lstm1d_4/while/loop_counter", "op": "Const", "attr": {"value": {"tensor": {"dtype": "DT_INT32", "tensorShape": {}}}, "_has_manual_control_dependencies": {"b": true}, "dtype": {"type": "DT_INT32"}}}, {"name": "StatefulPartitionedCall/sequential_2/conv_lstm1d_4/while/maximum_iterations", "op": "Const", "attr": {"value": {"tensor": {"dtype": "DT_INT32", "tensorShape": {}}}, "dtype": {"type": "DT_INT32"}, "_has_manual_control_dependencies": {"b": true}}}, {"name": "Func/StatefulPartitionedCall/input/_4", "op": "Const", "attr": {"value": {"tensor": {"dtype": "DT_FLOAT", "tensorShape": {"dim": [{"size": "3"}, {"size": "4"}, {"size": "32"}]}}}, "dtype": {"type": "DT_FLOAT"}}}, {"name": "Func/StatefulPartitionedCall/input/_5", "op": "Const", "attr": {"dtype": {"type": "DT_FLOAT"}, "value": {"tensor": {"dtype": "DT_FLOAT", "tensorShape": {"dim": [{"size": "3"}, {"size": "8"}, {"size": "32"}]}}}}}, {"name": "Func/StatefulPartitionedCall/input/_6", "op": "Const", "attr": {"dtype": {"type": "DT_FLOAT"}, "value": {"tensor": {"dtype": "DT_FLOAT", "tensorShape": {"dim": [{"size": "32"}]}}}}}, {"name": "StatefulPartitionedCall/sequential_2/conv_lstm1d_4/TensorArrayUnstack/TensorListFromTensor/element_shape", "op": "Const", "attr": {"value": {"tensor": {"dtype": "DT_INT32", "tensorShape": {"dim": [{"size": "3"}]}}}, "dtype": {"type": "DT_INT32"}}}, {"name": "StatefulPartitionedCall/sequential_2/conv_lstm1d_4/TensorArrayV2_1/element_shape", "op": "Const", "attr": {"dtype": {"type": "DT_INT32"}, "value": {"tensor": {"dtype": "DT_INT32", "tensorShape": {"dim": [{"size": "3"}]}}}}}, {"name": "StatefulPartitionedCall/sequential_2/conv_lstm1d_4/transpose/perm", "op": "Const", "attr": {"value": {"tensor": {"dtype": "DT_INT32", "tensorShape": {"dim": [{"size": "4"}]}}}, "dtype": {"type": "DT_INT32"}}}, {"name": "StatefulPartitionedCall/sequential_2/conv_lstm1d_4/strided_slice/stack", "op": "Const", "attr": {"dtype": {"type": "DT_INT32"}, "value": {"tensor": {"dtype": "DT_INT32", "tensorShape": {"dim": [{"size": "1"}]}}}}}, {"name": "StatefulPartitionedCall/sequential_2/conv_lstm1d_4/strided_slice/stack_1", "op": "Const", "attr": {"dtype": {"type": "DT_INT32"}, "value": {"tensor": {"dtype": "DT_INT32", "tensorShape": {"dim": [{"size": "1"}]}}}}}, {"name": "StatefulPartitionedCall/sequential_2/conv_lstm1d_4/strided_slice/stack_2", "op": "Const", "attr": {"dtype": {"type": "DT_INT32"}, "value": {"tensor": {"dtype": "DT_INT32", "tensorShape": {"dim": [{"size": "1"}]}}}}}, {"name": "StatefulPartitionedCall/sequential_2/conv_lstm1d_3/time", "op": "Const", "attr": {"_has_manual_control_dependencies": {"b": true}, "dtype": {"type": "DT_INT32"}, "value": {"tensor": {"dtype": "DT_INT32", "tensorShape": {}}}}}, {"name": "StatefulPartitionedCall/sequential_2/conv_lstm1d_3/while/loop_counter", "op": "Const", "attr": {"value": {"tensor": {"dtype": "DT_INT32", "tensorShape": {}}}, "_has_manual_control_dependencies": {"b": true}, "dtype": {"type": "DT_INT32"}}}, {"name": "StatefulPartitionedCall/sequential_2/conv_lstm1d_3/while/maximum_iterations", "op": "Const", "attr": {"value": {"tensor": {"dtype": "DT_INT32", "tensorShape": {}}}, "dtype": {"type": "DT_INT32"}, "_has_manual_control_dependencies": {"b": true}}}, {"name": "Func/StatefulPartitionedCall/input/_1", "op": "Const", "attr": {"dtype": {"type": "DT_FLOAT"}, "value": {"tensor": {"dtype": "DT_FLOAT", "tensorShape": {"dim": [{"size": "3"}, {"size": "1"}, {"size": "16"}]}}}}}, {"name": "Func/StatefulPartitionedCall/input/_2", "op": "Const", "attr": {"value": {"tensor": {"dtype": "DT_FLOAT", "tensorShape": {"dim": [{"size": "3"}, {"size": "4"}, {"size": "16"}]}}}, "dtype": {"type": "DT_FLOAT"}}}, {"name": "Func/StatefulPartitionedCall/input/_3", "op": "Const", "attr": {"value": {"tensor": {"dtype": "DT_FLOAT", "tensorShape": {"dim": [{"size": "16"}]}}}, "dtype": {"type": "DT_FLOAT"}}}, {"name": "StatefulPartitionedCall/sequential_2/conv_lstm1d_3/TensorArrayUnstack/TensorListFromTensor/element_shape", "op": "Const", "attr": {"dtype": {"type": "DT_INT32"}, "value": {"tensor": {"dtype": "DT_INT32", "tensorShape": {"dim": [{"size": "3"}]}}}}}, {"name": "StatefulPartitionedCall/sequential_2/conv_lstm1d_3/TensorArrayV2_1/element_shape", "op": "Const", "attr": {"dtype": {"type": "DT_INT32"}, "value": {"tensor": {"dtype": "DT_INT32", "tensorShape": {"dim": [{"size": "3"}]}}}}}, {"name": "StatefulPartitionedCall/sequential_2/conv_lstm1d_3/transpose/perm", "op": "Const", "attr": {"dtype": {"type": "DT_INT32"}, "value": {"tensor": {"dtype": "DT_INT32", "tensorShape": {"dim": [{"size": "4"}]}}}}}, {"name": "StatefulPartitionedCall/sequential_2/conv_lstm1d_3/strided_slice/stack", "op": "Const", "attr": {"value": {"tensor": {"dtype": "DT_INT32", "tensorShape": {"dim": [{"size": "1"}]}}}, "dtype": {"type": "DT_INT32"}}}, {"name": "StatefulPartitionedCall/sequential_2/conv_lstm1d_3/strided_slice/stack_1", "op": "Const", "attr": {"dtype": {"type": "DT_INT32"}, "value": {"tensor": {"dtype": "DT_INT32", "tensorShape": {"dim": [{"size": "1"}]}}}}}, {"name": "StatefulPartitionedCall/sequential_2/conv_lstm1d_3/strided_slice/stack_2", "op": "Const", "attr": {"value": {"tensor": {"dtype": "DT_INT32", "tensorShape": {"dim": [{"size": "1"}]}}}, "dtype": {"type": "DT_INT32"}}}, {"name": "StatefulPartitionedCall/sequential_2/conv_lstm1d_3/Sum/reduction_indices", "op": "Const", "attr": {"dtype": {"type": "DT_INT32"}, "value": {"tensor": {"dtype": "DT_INT32", "tensorShape": {}}}}}, {"name": "StatefulPartitionedCall/sequential_2/conv_lstm1d_3/convolution/ExpandDims/dim", "op": "Const", "attr": {"value": {"tensor": {"dtype": "DT_INT32", "tensorShape": {}}}, "dtype": {"type": "DT_INT32"}}}, {"name": "StatefulPartitionedCall/sequential_2/conv_lstm1d_3/convolution/ExpandDims_1", "op": "Const", "attr": {"value": {"tensor": {"dtype": "DT_FLOAT", "tensorShape": {"dim": [{"size": "1"}, {"size": "3"}, {"size": "1"}, {"size": "4"}]}}}, "dtype": {"type": "DT_FLOAT"}}}, {"name": "StatefulPartitionedCall/sequential_2/conv_lstm1d_3/TensorArrayV2Stack/TensorListStack/element_shape", "op": "Const", "attr": {"value": {"tensor": {"dtype": "DT_INT32", "tensorShape": {"dim": [{"size": "3"}]}}}, "dtype": {"type": "DT_INT32"}}}, {"name": "StatefulPartitionedCall/sequential_2/conv_lstm1d_3/transpose_1/perm", "op": "Const", "attr": {"dtype": {"type": "DT_INT32"}, "value": {"tensor": {"dtype": "DT_INT32", "tensorShape": {"dim": [{"size": "4"}]}}}}}, {"name": "StatefulPartitionedCall/sequential_2/time_distributed_5/Reshape_1/shape", "op": "Const", "attr": {"value": {"tensor": {"dtype": "DT_INT32", "tensorShape": {"dim": [{"size": "4"}]}}}, "dtype": {"type": "DT_INT32"}}}, {"name": "StatefulPartitionedCall/sequential_2/conv_lstm1d_4/Sum/reduction_indices", "op": "Const", "attr": {"value": {"tensor": {"dtype": "DT_INT32", "tensorShape": {}}}, "dtype": {"type": "DT_INT32"}}}, {"name": "StatefulPartitionedCall/sequential_2/conv_lstm1d_4/convolution/ExpandDims/dim", "op": "Const", "attr": {"value": {"tensor": {"dtype": "DT_INT32", "tensorShape": {}}}, "dtype": {"type": "DT_INT32"}}}, {"name": "StatefulPartitionedCall/sequential_2/conv_lstm1d_4/convolution/ExpandDims_1", "op": "Const", "attr": {"dtype": {"type": "DT_FLOAT"}, "value": {"tensor": {"dtype": "DT_FLOAT", "tensorShape": {"dim": [{"size": "1"}, {"size": "3"}, {"size": "4"}, {"size": "8"}]}}}}}, {"name": "conv_lstm1d_3_input", "op": "Placeholder", "attr": {"shape": {"shape": {"dim": [{"size": "-1"}, {"size": "30"}, {"size": "1662"}, {"size": "1"}]}}, "dtype": {"type": "DT_FLOAT"}}}, {"name": "StatefulPartitionedCall/sequential_2/conv_lstm1d_3/transpose", "op": "Transpose", "input": ["conv_lstm1d_3_input", "StatefulPartitionedCall/sequential_2/conv_lstm1d_3/transpose/perm"], "attr": {"Tperm": {"type": "DT_INT32"}, "T": {"type": "DT_FLOAT"}}}, {"name": "StatefulPartitionedCall/sequential_2/conv_lstm1d_3/zeros_like", "op": "ZerosLike", "input": ["conv_lstm1d_3_input"], "attr": {"T": {"type": "DT_FLOAT"}}}, {"name": "StatefulPartitionedCall/sequential_2/conv_lstm1d_3/TensorArrayUnstack/TensorListFromTensor", "op": "TensorListFromTensor", "input": ["StatefulPartitionedCall/sequential_2/conv_lstm1d_3/transpose", "StatefulPartitionedCall/sequential_2/conv_lstm1d_3/TensorArrayUnstack/TensorListFromTensor/element_shape"], "attr": {"element_dtype": {"type": "DT_FLOAT"}, "_has_manual_control_dependencies": {"b": true}, "shape_type": {"type": "DT_INT32"}}, "experimentalType": {"typeId": "TFT_PRODUCT", "args": [{"typeId": "TFT_ARRAY", "args": [{"typeId": "TFT_TENSOR", "args": [{"typeId": "TFT_FLOAT"}]}]}]}}, {"name": "StatefulPartitionedCall/sequential_2/conv_lstm1d_3/Shape", "op": "Shape", "input": ["StatefulPartitionedCall/sequential_2/conv_lstm1d_3/transpose"], "attr": {"T": {"type": "DT_FLOAT"}, "out_type": {"type": "DT_INT32"}}}, {"name": "StatefulPartitionedCall/sequential_2/conv_lstm1d_3/Sum", "op": "Sum", "input": ["StatefulPartitionedCall/sequential_2/conv_lstm1d_3/zeros_like", "StatefulPartitionedCall/sequential_2/conv_lstm1d_3/Sum/reduction_indices"], "attr": {"keep_dims": {"b": false}, "T": {"type": "DT_FLOAT"}, "Tidx": {"type": "DT_INT32"}}}, {"name": "StatefulPartitionedCall/sequential_2/conv_lstm1d_3/strided_slice", "op": "StridedSlice", "input": ["StatefulPartitionedCall/sequential_2/conv_lstm1d_3/Shape", "StatefulPartitionedCall/sequential_2/conv_lstm1d_3/strided_slice/stack", "StatefulPartitionedCall/sequential_2/conv_lstm1d_3/strided_slice/stack_1", "StatefulPartitionedCall/sequential_2/conv_lstm1d_3/strided_slice/stack_2"], "attr": {"new_axis_mask": {"i": "0"}, "T": {"type": "DT_INT32"}, "Index": {"type": "DT_INT32"}, "shrink_axis_mask": {"i": "1"}, "begin_mask": {"i": "0"}, "end_mask": {"i": "0"}, "ellipsis_mask": {"i": "0"}, "_has_manual_control_dependencies": {"b": true}}}, {"name": "StatefulPartitionedCall/sequential_2/conv_lstm1d_3/convolution/ExpandDims", "op": "ExpandDims", "input": ["StatefulPartitionedCall/sequential_2/conv_lstm1d_3/Sum", "StatefulPartitionedCall/sequential_2/conv_lstm1d_3/convolution/ExpandDims/dim"], "attr": {"Tdim": {"type": "DT_INT32"}, "T": {"type": "DT_FLOAT"}}}, {"name": "StatefulPartitionedCall/sequential_2/conv_lstm1d_3/TensorArrayV2_1", "op": "TensorListReserve", "input": ["StatefulPartitionedCall/sequential_2/conv_lstm1d_3/TensorArrayV2_1/element_shape", "StatefulPartitionedCall/sequential_2/conv_lstm1d_3/strided_slice"], "attr": {"shape_type": {"type": "DT_INT32"}, "element_dtype": {"type": "DT_FLOAT"}}, "experimentalType": {"typeId": "TFT_PRODUCT", "args": [{"typeId": "TFT_ARRAY", "args": [{"typeId": "TFT_TENSOR", "args": [{"typeId": "TFT_FLOAT"}]}]}]}}, {"name": "StatefulPartitionedCall/sequential_2/conv_lstm1d_3/convolution", "op": "Conv2D", "input": ["StatefulPartitionedCall/sequential_2/conv_lstm1d_3/convolution/ExpandDims", "StatefulPartitionedCall/sequential_2/conv_lstm1d_3/convolution/ExpandDims_1"], "device": "/device:CPU:0", "attr": {"use_cudnn_on_gpu": {"b": true}, "strides": {"list": {"i": ["1", "1", "1", "1"]}}, "dilations": {"list": {"i": ["1", "1", "1", "1"]}}, "padding": {"s": "VkFMSUQ="}, "data_format": {"s": "TkhXQw=="}, "T": {"type": "DT_FLOAT"}, "explicit_paddings": {"list": {}}}}, {"name": "StatefulPartitionedCall/sequential_2/conv_lstm1d_3/convolution/Squeeze", "op": "Squeeze", "input": ["StatefulPartitionedCall/sequential_2/conv_lstm1d_3/convolution"], "attr": {"squeeze_dims": {"list": {"i": ["-3"]}}, "_has_manual_control_dependencies": {"b": true}, "T": {"type": "DT_FLOAT"}}}, {"name": "StatefulPartitionedCall/sequential_2/conv_lstm1d_3/while/LoopControlInputs/_27", "op": "NoOp", "input": ["^StatefulPartitionedCall/sequential_2/conv_lstm1d_3/TensorArrayUnstack/TensorListFromTensor", "^StatefulPartitionedCall/sequential_2/conv_lstm1d_3/TensorArrayV2_1", "^StatefulPartitionedCall/sequential_2/conv_lstm1d_3/convolution/Squeeze"], "attr": {"_has_manual_control_dependencies": {"b": true}}}, {"name": "StatefulPartitionedCall/sequential_2/conv_lstm1d_3/while/enter/_19", "op": "Enter", "input": ["StatefulPartitionedCall/sequential_2/conv_lstm1d_3/TensorArrayV2_1", "^StatefulPartitionedCall/sequential_2/conv_lstm1d_3/while/LoopControlInputs/_27"], "attr": {"frame_name": {"s": "U3RhdGVmdWxQYXJ0aXRpb25lZENhbGwvc2VxdWVudGlhbF8yL2NvbnZfbHN0bTFkXzMvd2hpbGU="}, "T": {"type": "DT_VARIANT"}, "is_constant": {"b": false}, "parallel_iterations": {"i": "32"}}}, {"name": "StatefulPartitionedCall/sequential_2/conv_lstm1d_3/while/enter/_21", "op": "Enter", "input": ["StatefulPartitionedCall/sequential_2/conv_lstm1d_3/convolution/Squeeze", "^StatefulPartitionedCall/sequential_2/conv_lstm1d_3/while/LoopControlInputs/_27"], "attr": {"frame_name": {"s": "U3RhdGVmdWxQYXJ0aXRpb25lZENhbGwvc2VxdWVudGlhbF8yL2NvbnZfbHN0bTFkXzMvd2hpbGU="}, "parallel_iterations": {"i": "32"}, "T": {"type": "DT_FLOAT"}, "is_constant": {"b": false}}}, {"name": "StatefulPartitionedCall/sequential_2/conv_lstm1d_3/while/enter/_20", "op": "Enter", "input": ["StatefulPartitionedCall/sequential_2/conv_lstm1d_3/convolution/Squeeze", "^StatefulPartitionedCall/sequential_2/conv_lstm1d_3/while/LoopControlInputs/_27"], "attr": {"parallel_iterations": {"i": "32"}, "frame_name": {"s": "U3RhdGVmdWxQYXJ0aXRpb25lZENhbGwvc2VxdWVudGlhbF8yL2NvbnZfbHN0bTFkXzMvd2hpbGU="}, "T": {"type": "DT_FLOAT"}, "is_constant": {"b": false}}}, {"name": "StatefulPartitionedCall/sequential_2/conv_lstm1d_3/while/enter/_23", "op": "Enter", "input": ["StatefulPartitionedCall/sequential_2/conv_lstm1d_3/TensorArrayUnstack/TensorListFromTensor", "^StatefulPartitionedCall/sequential_2/conv_lstm1d_3/while/LoopControlInputs/_27"], "attr": {"parallel_iterations": {"i": "32"}, "T": {"type": "DT_VARIANT"}, "is_constant": {"b": false}, "frame_name": {"s": "U3RhdGVmdWxQYXJ0aXRpb25lZENhbGwvc2VxdWVudGlhbF8yL2NvbnZfbHN0bTFkXzMvd2hpbGU="}}}, {"name": "StatefulPartitionedCall/sequential_2/conv_lstm1d_3/while/enter/_22", "op": "Enter", "input": ["StatefulPartitionedCall/sequential_2/conv_lstm1d_3/strided_slice", "^StatefulPartitionedCall/sequential_2/conv_lstm1d_3/while/LoopControlInputs/_27"], "attr": {"frame_name": {"s": "U3RhdGVmdWxQYXJ0aXRpb25lZENhbGwvc2VxdWVudGlhbF8yL2NvbnZfbHN0bTFkXzMvd2hpbGU="}, "is_constant": {"b": false}, "T": {"type": "DT_INT32"}, "parallel_iterations": {"i": "32"}}}, {"name": "StatefulPartitionedCall/sequential_2/conv_lstm1d_3/while/enter/_18", "op": "Enter", "input": ["StatefulPartitionedCall/sequential_2/conv_lstm1d_3/time", "^StatefulPartitionedCall/sequential_2/conv_lstm1d_3/while/LoopControlInputs/_27"], "attr": {"frame_name": {"s": "U3RhdGVmdWxQYXJ0aXRpb25lZENhbGwvc2VxdWVudGlhbF8yL2NvbnZfbHN0bTFkXzMvd2hpbGU="}, "T": {"type": "DT_INT32"}, "is_constant": {"b": false}, "parallel_iterations": {"i": "32"}}}, {"name": "StatefulPartitionedCall/sequential_2/conv_lstm1d_3/while/enter/_16", "op": "Enter", "input": ["StatefulPartitionedCall/sequential_2/conv_lstm1d_3/while/loop_counter", "^StatefulPartitionedCall/sequential_2/conv_lstm1d_3/while/LoopControlInputs/_27"], "attr": {"parallel_iterations": {"i": "32"}, "is_constant": {"b": false}, "T": {"type": "DT_INT32"}, "frame_name": {"s": "U3RhdGVmdWxQYXJ0aXRpb25lZENhbGwvc2VxdWVudGlhbF8yL2NvbnZfbHN0bTFkXzMvd2hpbGU="}}}, {"name": "StatefulPartitionedCall/sequential_2/conv_lstm1d_3/while/enter/_17", "op": "Enter", "input": ["StatefulPartitionedCall/sequential_2/conv_lstm1d_3/while/maximum_iterations", "^StatefulPartitionedCall/sequential_2/conv_lstm1d_3/while/LoopControlInputs/_27"], "attr": {"parallel_iterations": {"i": "32"}, "is_constant": {"b": false}, "frame_name": {"s": "U3RhdGVmdWxQYXJ0aXRpb25lZENhbGwvc2VxdWVudGlhbF8yL2NvbnZfbHN0bTFkXzMvd2hpbGU="}, "T": {"type": "DT_INT32"}}}, {"name": "StatefulPartitionedCall/sequential_2/conv_lstm1d_3/while/enter/_24", "op": "Enter", "input": ["Func/StatefulPartitionedCall/input/_1", "^StatefulPartitionedCall/sequential_2/conv_lstm1d_3/while/LoopControlInputs/_27"], "attr": {"_has_manual_control_dependencies": {"b": true}, "parallel_iterations": {"i": "32"}, "is_constant": {"b": true}, "T": {"type": "DT_FLOAT"}, "frame_name": {"s": "U3RhdGVmdWxQYXJ0aXRpb25lZENhbGwvc2VxdWVudGlhbF8yL2NvbnZfbHN0bTFkXzMvd2hpbGU="}}}, {"name": "StatefulPartitionedCall/sequential_2/conv_lstm1d_3/while/enter/_25", "op": "Enter", "input": ["Func/StatefulPartitionedCall/input/_2", "^StatefulPartitionedCall/sequential_2/conv_lstm1d_3/while/LoopControlInputs/_27"], "attr": {"_has_manual_control_dependencies": {"b": true}, "T": {"type": "DT_FLOAT"}, "frame_name": {"s": "U3RhdGVmdWxQYXJ0aXRpb25lZENhbGwvc2VxdWVudGlhbF8yL2NvbnZfbHN0bTFkXzMvd2hpbGU="}, "parallel_iterations": {"i": "32"}, "is_constant": {"b": true}}}, {"name": "StatefulPartitionedCall/sequential_2/conv_lstm1d_3/while/enter/_26", "op": "Enter", "input": ["Func/StatefulPartitionedCall/input/_3", "^StatefulPartitionedCall/sequential_2/conv_lstm1d_3/while/LoopControlInputs/_27"], "attr": {"is_constant": {"b": true}, "frame_name": {"s": "U3RhdGVmdWxQYXJ0aXRpb25lZENhbGwvc2VxdWVudGlhbF8yL2NvbnZfbHN0bTFkXzMvd2hpbGU="}, "_has_manual_control_dependencies": {"b": true}, "parallel_iterations": {"i": "32"}, "T": {"type": "DT_FLOAT"}}}, {"name": "StatefulPartitionedCall/sequential_2/conv_lstm1d_3/while/merge/_31", "op": "Merge", "input": ["StatefulPartitionedCall/sequential_2/conv_lstm1d_3/while/enter/_19", "StatefulPartitionedCall/sequential_2/conv_lstm1d_3/while/next_iteration/_58"], "attr": {"T": {"type": "DT_VARIANT"}, "N": {"i": "2"}, "_has_manual_control_dependencies": {"b": true}}}, {"name": "StatefulPartitionedCall/sequential_2/conv_lstm1d_3/while/merge/_33", "op": "Merge", "input": ["StatefulPartitionedCall/sequential_2/conv_lstm1d_3/while/enter/_21", "StatefulPartitionedCall/sequential_2/conv_lstm1d_3/while/next_iteration/_60"], "attr": {"_has_manual_control_dependencies": {"b": true}, "T": {"type": "DT_FLOAT"}, "N": {"i": "2"}}}, {"name": "StatefulPartitionedCall/sequential_2/conv_lstm1d_3/while/merge/_32", "op": "Merge", "input": ["StatefulPartitionedCall/sequential_2/conv_lstm1d_3/while/enter/_20", "StatefulPartitionedCall/sequential_2/conv_lstm1d_3/while/next_iteration/_59"], "attr": {"T": {"type": "DT_FLOAT"}, "N": {"i": "2"}, "_has_manual_control_dependencies": {"b": true}}}, {"name": "StatefulPartitionedCall/sequential_2/conv_lstm1d_3/while/merge/_35", "op": "Merge", "input": ["StatefulPartitionedCall/sequential_2/conv_lstm1d_3/while/enter/_23", "StatefulPartitionedCall/sequential_2/conv_lstm1d_3/while/next_iteration/_62"], "attr": {"_has_manual_control_dependencies": {"b": true}, "N": {"i": "2"}, "T": {"type": "DT_VARIANT"}}}, {"name": "StatefulPartitionedCall/sequential_2/conv_lstm1d_3/while/merge/_34", "op": "Merge", "input": ["StatefulPartitionedCall/sequential_2/conv_lstm1d_3/while/enter/_22", "StatefulPartitionedCall/sequential_2/conv_lstm1d_3/while/next_iteration/_61"], "attr": {"_has_manual_control_dependencies": {"b": true}, "T": {"type": "DT_INT32"}, "N": {"i": "2"}}}, {"name": "StatefulPartitionedCall/sequential_2/conv_lstm1d_3/while/merge/_30", "op": "Merge", "input": ["StatefulPartitionedCall/sequential_2/conv_lstm1d_3/while/enter/_18", "StatefulPartitionedCall/sequential_2/conv_lstm1d_3/while/next_iteration/_57"], "attr": {"N": {"i": "2"}, "_has_manual_control_dependencies": {"b": true}, "T": {"type": "DT_INT32"}}}, {"name": "StatefulPartitionedCall/sequential_2/conv_lstm1d_3/while/merge/_28", "op": "Merge", "input": ["StatefulPartitionedCall/sequential_2/conv_lstm1d_3/while/enter/_16", "StatefulPartitionedCall/sequential_2/conv_lstm1d_3/while/next_iteration/_55"], "attr": {"_has_manual_control_dependencies": {"b": true}, "T": {"type": "DT_INT32"}, "N": {"i": "2"}}}, {"name": "StatefulPartitionedCall/sequential_2/conv_lstm1d_3/while/merge/_29", "op": "Merge", "input": ["StatefulPartitionedCall/sequential_2/conv_lstm1d_3/while/enter/_17", "StatefulPartitionedCall/sequential_2/conv_lstm1d_3/while/next_iteration/_56"], "attr": {"T": {"type": "DT_INT32"}, "_has_manual_control_dependencies": {"b": true}, "N": {"i": "2"}}}, {"name": "StatefulPartitionedCall/sequential_2/conv_lstm1d_3/while/cond/_14/sequential_2/conv_lstm1d_3/while/Less", "op": "Less", "input": ["StatefulPartitionedCall/sequential_2/conv_lstm1d_3/while/merge/_30", "StatefulPartitionedCall/sequential_2/conv_lstm1d_3/while/merge/_34", "^StatefulPartitionedCall/sequential_2/conv_lstm1d_3/while/merge/_35", "^StatefulPartitionedCall/sequential_2/conv_lstm1d_3/while/enter/_24", "^StatefulPartitionedCall/sequential_2/conv_lstm1d_3/while/enter/_25", "^StatefulPartitionedCall/sequential_2/conv_lstm1d_3/while/enter/_26", "^StatefulPartitionedCall/sequential_2/conv_lstm1d_3/while/merge/_28", "^StatefulPartitionedCall/sequential_2/conv_lstm1d_3/while/merge/_29", "^StatefulPartitionedCall/sequential_2/conv_lstm1d_3/while/merge/_31", "^StatefulPartitionedCall/sequential_2/conv_lstm1d_3/while/merge/_32", "^StatefulPartitionedCall/sequential_2/conv_lstm1d_3/while/merge/_33"], "attr": {"T": {"type": "DT_INT32"}}}, {"name": "StatefulPartitionedCall/sequential_2/conv_lstm1d_3/while/LoopCond/_36", "op": "LoopCond", "input": ["StatefulPartitionedCall/sequential_2/conv_lstm1d_3/while/cond/_14/sequential_2/conv_lstm1d_3/while/Less"]}, {"name": "StatefulPartitionedCall/sequential_2/conv_lstm1d_3/while/StatefulPartitionedCall/sequential_2/conv_lstm1d_3/TensorArrayUnstack/TensorListFromTensor_switch/_44", "op": "Switch", "input": ["StatefulPartitionedCall/sequential_2/conv_lstm1d_3/while/merge/_35", "StatefulPartitionedCall/sequential_2/conv_lstm1d_3/while/LoopCond/_36"], "attr": {"_has_manual_control_dependencies": {"b": true}, "T": {"type": "DT_VARIANT"}}}, {"name": "StatefulPartitionedCall/sequential_2/conv_lstm1d_3/while/StatefulPartitionedCall/sequential_2/conv_lstm1d_3/convolution/Squeeze_switch/_41", "op": "Switch", "input": ["StatefulPartitionedCall/sequential_2/conv_lstm1d_3/while/merge/_32", "StatefulPartitionedCall/sequential_2/conv_lstm1d_3/while/LoopCond/_36"], "attr": {"_has_manual_control_dependencies": {"b": true}, "T": {"type": "DT_FLOAT"}}}, {"name": "StatefulPartitionedCall/sequential_2/conv_lstm1d_3/while/StatefulPartitionedCall/sequential_2/conv_lstm1d_3/convolution/Squeeze_switch/_42", "op": "Switch", "input": ["StatefulPartitionedCall/sequential_2/conv_lstm1d_3/while/merge/_33", "StatefulPartitionedCall/sequential_2/conv_lstm1d_3/while/LoopCond/_36"], "attr": {"_has_manual_control_dependencies": {"b": true}, "T": {"type": "DT_FLOAT"}}}, {"name": "StatefulPartitionedCall/sequential_2/conv_lstm1d_3/while/StatefulPartitionedCall/sequential_2/conv_lstm1d_3/strided_slice_switch/_43", "op": "Switch", "input": ["StatefulPartitionedCall/sequential_2/conv_lstm1d_3/while/merge/_34", "StatefulPartitionedCall/sequential_2/conv_lstm1d_3/while/LoopCond/_36"], "attr": {"T": {"type": "DT_INT32"}, "_has_manual_control_dependencies": {"b": true}}}, {"name": "StatefulPartitionedCall/sequential_2/conv_lstm1d_3/while/StatefulPartitionedCall/sequential_2/conv_lstm1d_3/time_switch/_39", "op": "Switch", "input": ["StatefulPartitionedCall/sequential_2/conv_lstm1d_3/while/merge/_30", "StatefulPartitionedCall/sequential_2/conv_lstm1d_3/while/LoopCond/_36"], "attr": {"T": {"type": "DT_INT32"}, "_has_manual_control_dependencies": {"b": true}}}, {"name": "StatefulPartitionedCall/sequential_2/conv_lstm1d_3/while/StatefulPartitionedCall/sequential_2/conv_lstm1d_3/while/loop_counter_switch/_37", "op": "Switch", "input": ["StatefulPartitionedCall/sequential_2/conv_lstm1d_3/while/merge/_28", "StatefulPartitionedCall/sequential_2/conv_lstm1d_3/while/LoopCond/_36"], "attr": {"T": {"type": "DT_INT32"}}}, {"name": "StatefulPartitionedCall/sequential_2/conv_lstm1d_3/while/StatefulPartitionedCall/sequential_2/conv_lstm1d_3/while/maximum_iterations_switch/_38", "op": "Switch", "input": ["StatefulPartitionedCall/sequential_2/conv_lstm1d_3/while/merge/_29", "StatefulPartitionedCall/sequential_2/conv_lstm1d_3/while/LoopCond/_36"], "attr": {"T": {"type": "DT_INT32"}}}, {"name": "StatefulPartitionedCall/sequential_2/conv_lstm1d_3/while/StatefulPartitionedCall/sequential_2/conv_lstm1d_3/TensorArrayV2_1_switch/_40", "op": "Switch", "input": ["StatefulPartitionedCall/sequential_2/conv_lstm1d_3/while/merge/_31", "StatefulPartitionedCall/sequential_2/conv_lstm1d_3/while/LoopCond/_36"], "attr": {"_has_manual_control_dependencies": {"b": true}, "T": {"type": "DT_VARIANT"}}}, {"name": "StatefulPartitionedCall/sequential_2/conv_lstm1d_3/while/exit/_53", "op": "Exit", "input": ["StatefulPartitionedCall/sequential_2/conv_lstm1d_3/while/StatefulPartitionedCall/sequential_2/conv_lstm1d_3/TensorArrayUnstack/TensorListFromTensor_switch/_44"], "attr": {"T": {"type": "DT_VARIANT"}, "_has_manual_control_dependencies": {"b": true}}}, {"name": "StatefulPartitionedCall/sequential_2/conv_lstm1d_3/while/exit/_50", "op": "Exit", "input": ["StatefulPartitionedCall/sequential_2/conv_lstm1d_3/while/StatefulPartitionedCall/sequential_2/conv_lstm1d_3/convolution/Squeeze_switch/_41"], "attr": {"_has_manual_control_dependencies": {"b": true}, "T": {"type": "DT_FLOAT"}}}, {"name": "StatefulPartitionedCall/sequential_2/conv_lstm1d_3/while/exit/_51", "op": "Exit", "input": ["StatefulPartitionedCall/sequential_2/conv_lstm1d_3/while/StatefulPartitionedCall/sequential_2/conv_lstm1d_3/convolution/Squeeze_switch/_42"], "attr": {"_has_manual_control_dependencies": {"b": true}, "T": {"type": "DT_FLOAT"}}}, {"name": "StatefulPartitionedCall/sequential_2/conv_lstm1d_3/while/exit/_52", "op": "Exit", "input": ["StatefulPartitionedCall/sequential_2/conv_lstm1d_3/while/StatefulPartitionedCall/sequential_2/conv_lstm1d_3/strided_slice_switch/_43"], "attr": {"_has_manual_control_dependencies": {"b": true}, "T": {"type": "DT_INT32"}}}, {"name": "StatefulPartitionedCall/sequential_2/conv_lstm1d_3/while/exit/_48", "op": "Exit", "input": ["StatefulPartitionedCall/sequential_2/conv_lstm1d_3/while/StatefulPartitionedCall/sequential_2/conv_lstm1d_3/time_switch/_39"], "attr": {"T": {"type": "DT_INT32"}, "_has_manual_control_dependencies": {"b": true}}}, {"name": "StatefulPartitionedCall/sequential_2/conv_lstm1d_3/while/exit/_46", "op": "Exit", "input": ["StatefulPartitionedCall/sequential_2/conv_lstm1d_3/while/StatefulPartitionedCall/sequential_2/conv_lstm1d_3/while/loop_counter_switch/_37"], "attr": {"T": {"type": "DT_INT32"}, "_has_manual_control_dependencies": {"b": true}}}, {"name": "StatefulPartitionedCall/sequential_2/conv_lstm1d_3/while/loop_body_control/_45", "op": "Identity", "input": ["StatefulPartitionedCall/sequential_2/conv_lstm1d_3/while/StatefulPartitionedCall/sequential_2/conv_lstm1d_3/while/loop_counter_switch/_37:1"], "attr": {"_has_manual_control_dependencies": {"b": true}, "T": {"type": "DT_INT32"}}}, {"name": "StatefulPartitionedCall/sequential_2/conv_lstm1d_3/while/exit/_47", "op": "Exit", "input": ["StatefulPartitionedCall/sequential_2/conv_lstm1d_3/while/StatefulPartitionedCall/sequential_2/conv_lstm1d_3/while/maximum_iterations_switch/_38"], "attr": {"_has_manual_control_dependencies": {"b": true}, "T": {"type": "DT_INT32"}}}, {"name": "StatefulPartitionedCall/sequential_2/conv_lstm1d_3/while/exit/_49", "op": "Exit", "input": ["StatefulPartitionedCall/sequential_2/conv_lstm1d_3/while/StatefulPartitionedCall/sequential_2/conv_lstm1d_3/TensorArrayV2_1_switch/_40"], "attr": {"T": {"type": "DT_VARIANT"}, "_has_manual_control_dependencies": {"b": true}}}, {"name": "Func/StatefulPartitionedCall/sequential_2/conv_lstm1d_3/while/body/_15/input_control_node/_174", "op": "NoOp", "input": ["^StatefulPartitionedCall/sequential_2/conv_lstm1d_3/while/StatefulPartitionedCall/sequential_2/conv_lstm1d_3/TensorArrayUnstack/TensorListFromTensor_switch/_44", "^StatefulPartitionedCall/sequential_2/conv_lstm1d_3/while/StatefulPartitionedCall/sequential_2/conv_lstm1d_3/TensorArrayV2_1_switch/_40", "^StatefulPartitionedCall/sequential_2/conv_lstm1d_3/while/StatefulPartitionedCall/sequential_2/conv_lstm1d_3/convolution/Squeeze_switch/_41", "^StatefulPartitionedCall/sequential_2/conv_lstm1d_3/while/StatefulPartitionedCall/sequential_2/conv_lstm1d_3/convolution/Squeeze_switch/_42", "^StatefulPartitionedCall/sequential_2/conv_lstm1d_3/while/StatefulPartitionedCall/sequential_2/conv_lstm1d_3/strided_slice_switch/_43", "^StatefulPartitionedCall/sequential_2/conv_lstm1d_3/while/StatefulPartitionedCall/sequential_2/conv_lstm1d_3/time_switch/_39", "^StatefulPartitionedCall/sequential_2/conv_lstm1d_3/while/loop_body_control/_45", "^StatefulPartitionedCall/sequential_2/conv_lstm1d_3/while/StatefulPartitionedCall/sequential_2/conv_lstm1d_3/while/maximum_iterations_switch/_38", "^StatefulPartitionedCall/sequential_2/conv_lstm1d_3/while/enter/_24", "^StatefulPartitionedCall/sequential_2/conv_lstm1d_3/while/enter/_25", "^StatefulPartitionedCall/sequential_2/conv_lstm1d_3/while/enter/_26"], "attr": {"_has_manual_control_dependencies": {"b": true}}}, {"name": "StatefulPartitionedCall/sequential_2/conv_lstm1d_3/TensorArrayV2Stack/TensorListStack", "op": "TensorListStack", "input": ["StatefulPartitionedCall/sequential_2/conv_lstm1d_3/while/exit/_49", "StatefulPartitionedCall/sequential_2/conv_lstm1d_3/TensorArrayV2Stack/TensorListStack/element_shape"], "attr": {"element_dtype": {"type": "DT_FLOAT"}, "num_elements": {"i": "-1"}}}, {"name": "StatefulPartitionedCall/sequential_2/conv_lstm1d_3/while/body/_15/sequential_2/conv_lstm1d_3/while/convolution_3/ExpandDims/dim", "op": "Const", "input": ["^Func/StatefulPartitionedCall/sequential_2/conv_lstm1d_3/while/body/_15/input_control_node/_174"], "attr": {"value": {"tensor": {"dtype": "DT_INT32", "tensorShape": {}}}, "dtype": {"type": "DT_INT32"}}}, {"name": "StatefulPartitionedCall/sequential_2/conv_lstm1d_3/while/body/_15/sequential_2/conv_lstm1d_3/while/convolution_3/ExpandDims_1", "op": "Const", "input": ["^Func/StatefulPartitionedCall/sequential_2/conv_lstm1d_3/while/body/_15/input_control_node/_174", "^StatefulPartitionedCall/sequential_2/conv_lstm1d_3/while/enter/_24"], "attr": {"value": {"tensor": {"dtype": "DT_FLOAT", "tensorShape": {"dim": [{"size": "1"}, {"size": "3"}, {"size": "1"}, {"size": "4"}]}}}, "dtype": {"type": "DT_FLOAT"}}}, {"name": "StatefulPartitionedCall/sequential_2/conv_lstm1d_3/while/body/_15/sequential_2/conv_lstm1d_3/while/convolution_7/ExpandDims/dim", "op": "Const", "input": ["^Func/StatefulPartitionedCall/sequential_2/conv_lstm1d_3/while/body/_15/input_control_node/_174"], "attr": {"value": {"tensor": {"dtype": "DT_INT32", "tensorShape": {}}}, "dtype": {"type": "DT_INT32"}}}, {"name": "StatefulPartitionedCall/sequential_2/conv_lstm1d_3/while/body/_15/sequential_2/conv_lstm1d_3/while/convolution_7/ExpandDims_1", "op": "Const", "input": ["^Func/StatefulPartitionedCall/sequential_2/conv_lstm1d_3/while/body/_15/input_control_node/_174", "^StatefulPartitionedCall/sequential_2/conv_lstm1d_3/while/enter/_25"], "attr": {"dtype": {"type": "DT_FLOAT"}, "value": {"tensor": {"dtype": "DT_FLOAT", "tensorShape": {"dim": [{"size": "1"}, {"size": "3"}, {"size": "4"}, {"size": "4"}]}}}}}, {"name": "StatefulPartitionedCall/sequential_2/conv_lstm1d_3/while/body/_15/sequential_2/conv_lstm1d_3/while/Const_4", "op": "Const", "input": ["^Func/StatefulPartitionedCall/sequential_2/conv_lstm1d_3/while/body/_15/input_control_node/_174"], "attr": {"dtype": {"type": "DT_FLOAT"}, "value": {"tensor": {"dtype": "DT_FLOAT", "tensorShape": {}}}}}, {"name": "StatefulPartitionedCall/sequential_2/conv_lstm1d_3/while/body/_15/sequential_2/conv_lstm1d_3/while/Const_5", "op": "Const", "input": ["^Func/StatefulPartitionedCall/sequential_2/conv_lstm1d_3/while/body/_15/input_control_node/_174"], "attr": {"value": {"tensor": {"dtype": "DT_FLOAT", "tensorShape": {}}}, "dtype": {"type": "DT_FLOAT"}}}, {"name": "StatefulPartitionedCall/sequential_2/conv_lstm1d_3/while/body/_15/sequential_2/conv_lstm1d_3/while/clip_by_value_2/Minimum/y", "op": "Const", "input": ["^Func/StatefulPartitionedCall/sequential_2/conv_lstm1d_3/while/body/_15/input_control_node/_174"], "attr": {"value": {"tensor": {"dtype": "DT_FLOAT", "tensorShape": {}}}, "dtype": {"type": "DT_FLOAT"}}}, {"name": "StatefulPartitionedCall/sequential_2/conv_lstm1d_3/while/body/_15/sequential_2/conv_lstm1d_3/while/clip_by_value_2/y", "op": "Const", "input": ["^Func/StatefulPartitionedCall/sequential_2/conv_lstm1d_3/while/body/_15/input_control_node/_174"], "attr": {"dtype": {"type": "DT_FLOAT"}, "value": {"tensor": {"dtype": "DT_FLOAT", "tensorShape": {}}}}}, {"name": "StatefulPartitionedCall/sequential_2/conv_lstm1d_3/while/body/_15/sequential_2/conv_lstm1d_3/while/convolution_1/ExpandDims/dim", "op": "Const", "input": ["^Func/StatefulPartitionedCall/sequential_2/conv_lstm1d_3/while/body/_15/input_control_node/_174"], "attr": {"dtype": {"type": "DT_INT32"}, "value": {"tensor": {"dtype": "DT_INT32", "tensorShape": {}}}}}, {"name": "StatefulPartitionedCall/sequential_2/conv_lstm1d_3/while/body/_15/sequential_2/conv_lstm1d_3/while/convolution_1/ExpandDims_1", "op": "Const", "input": ["^Func/StatefulPartitionedCall/sequential_2/conv_lstm1d_3/while/body/_15/input_control_node/_174", "^StatefulPartitionedCall/sequential_2/conv_lstm1d_3/while/enter/_24"], "attr": {"value": {"tensor": {"dtype": "DT_FLOAT", "tensorShape": {"dim": [{"size": "1"}, {"size": "3"}, {"size": "1"}, {"size": "4"}]}}}, "dtype": {"type": "DT_FLOAT"}}}, {"name": "StatefulPartitionedCall/sequential_2/conv_lstm1d_3/while/body/_15/sequential_2/conv_lstm1d_3/while/convolution_5/ExpandDims/dim", "op": "Const", "input": ["^Func/StatefulPartitionedCall/sequential_2/conv_lstm1d_3/while/body/_15/input_control_node/_174"], "attr": {"dtype": {"type": "DT_INT32"}, "value": {"tensor": {"dtype": "DT_INT32", "tensorShape": {}}}}}, {"name": "StatefulPartitionedCall/sequential_2/conv_lstm1d_3/while/body/_15/sequential_2/conv_lstm1d_3/while/convolution_5/ExpandDims_1", "op": "Const", "input": ["^Func/StatefulPartitionedCall/sequential_2/conv_lstm1d_3/while/body/_15/input_control_node/_174", "^StatefulPartitionedCall/sequential_2/conv_lstm1d_3/while/enter/_25"], "attr": {"dtype": {"type": "DT_FLOAT"}, "value": {"tensor": {"dtype": "DT_FLOAT", "tensorShape": {"dim": [{"size": "1"}, {"size": "3"}, {"size": "4"}, {"size": "4"}]}}}}}, {"name": "StatefulPartitionedCall/sequential_2/conv_lstm1d_3/while/body/_15/sequential_2/conv_lstm1d_3/while/Const_2", "op": "Const", "input": ["^Func/StatefulPartitionedCall/sequential_2/conv_lstm1d_3/while/body/_15/input_control_node/_174"], "attr": {"value": {"tensor": {"dtype": "DT_FLOAT", "tensorShape": {}}}, "dtype": {"type": "DT_FLOAT"}}}, {"name": "StatefulPartitionedCall/sequential_2/conv_lstm1d_3/while/body/_15/sequential_2/conv_lstm1d_3/while/Const_3", "op": "Const", "input": ["^Func/StatefulPartitionedCall/sequential_2/conv_lstm1d_3/while/body/_15/input_control_node/_174"], "attr": {"value": {"tensor": {"dtype": "DT_FLOAT", "tensorShape": {}}}, "dtype": {"type": "DT_FLOAT"}}}, {"name": "StatefulPartitionedCall/sequential_2/conv_lstm1d_3/while/body/_15/sequential_2/conv_lstm1d_3/while/clip_by_value_1/Minimum/y", "op": "Const", "input": ["^Func/StatefulPartitionedCall/sequential_2/conv_lstm1d_3/while/body/_15/input_control_node/_174"], "attr": {"value": {"tensor": {"dtype": "DT_FLOAT", "tensorShape": {}}}, "dtype": {"type": "DT_FLOAT"}}}, {"name": "StatefulPartitionedCall/sequential_2/conv_lstm1d_3/while/body/_15/sequential_2/conv_lstm1d_3/while/clip_by_value_1/y", "op": "Const", "input": ["^Func/StatefulPartitionedCall/sequential_2/conv_lstm1d_3/while/body/_15/input_control_node/_174"], "attr": {"value": {"tensor": {"dtype": "DT_FLOAT", "tensorShape": {}}}, "dtype": {"type": "DT_FLOAT"}}}, {"name": "StatefulPartitionedCall/sequential_2/conv_lstm1d_3/while/body/_15/sequential_2/conv_lstm1d_3/while/convolution/ExpandDims/dim", "op": "Const", "input": ["^Func/StatefulPartitionedCall/sequential_2/conv_lstm1d_3/while/body/_15/input_control_node/_174"], "attr": {"value": {"tensor": {"dtype": "DT_INT32", "tensorShape": {}}}, "dtype": {"type": "DT_INT32"}}}, {"name": "StatefulPartitionedCall/sequential_2/conv_lstm1d_3/while/body/_15/sequential_2/conv_lstm1d_3/while/convolution/ExpandDims_1", "op": "Const", "input": ["^Func/StatefulPartitionedCall/sequential_2/conv_lstm1d_3/while/body/_15/input_control_node/_174", "^StatefulPartitionedCall/sequential_2/conv_lstm1d_3/while/enter/_24"], "attr": {"value": {"tensor": {"dtype": "DT_FLOAT", "tensorShape": {"dim": [{"size": "1"}, {"size": "3"}, {"size": "1"}, {"size": "4"}]}}}, "dtype": {"type": "DT_FLOAT"}}}, {"name": "StatefulPartitionedCall/sequential_2/conv_lstm1d_3/while/body/_15/sequential_2/conv_lstm1d_3/while/convolution_4/ExpandDims/dim", "op": "Const", "input": ["^Func/StatefulPartitionedCall/sequential_2/conv_lstm1d_3/while/body/_15/input_control_node/_174"], "attr": {"dtype": {"type": "DT_INT32"}, "value": {"tensor": {"dtype": "DT_INT32", "tensorShape": {}}}}}, {"name": "StatefulPartitionedCall/sequential_2/conv_lstm1d_3/while/body/_15/sequential_2/conv_lstm1d_3/while/convolution_4/ExpandDims_1", "op": "Const", "input": ["^Func/StatefulPartitionedCall/sequential_2/conv_lstm1d_3/while/body/_15/input_control_node/_174", "^StatefulPartitionedCall/sequential_2/conv_lstm1d_3/while/enter/_25"], "attr": {"dtype": {"type": "DT_FLOAT"}, "value": {"tensor": {"dtype": "DT_FLOAT", "tensorShape": {"dim": [{"size": "1"}, {"size": "3"}, {"size": "4"}, {"size": "4"}]}}}}}, {"name": "StatefulPartitionedCall/sequential_2/conv_lstm1d_3/while/body/_15/sequential_2/conv_lstm1d_3/while/Const", "op": "Const", "input": ["^Func/StatefulPartitionedCall/sequential_2/conv_lstm1d_3/while/body/_15/input_control_node/_174"], "attr": {"dtype": {"type": "DT_FLOAT"}, "value": {"tensor": {"dtype": "DT_FLOAT", "tensorShape": {}}}}}, {"name": "StatefulPartitionedCall/sequential_2/conv_lstm1d_3/while/body/_15/sequential_2/conv_lstm1d_3/while/Const_1", "op": "Const", "input": ["^Func/StatefulPartitionedCall/sequential_2/conv_lstm1d_3/while/body/_15/input_control_node/_174"], "attr": {"value": {"tensor": {"dtype": "DT_FLOAT", "tensorShape": {}}}, "dtype": {"type": "DT_FLOAT"}}}, {"name": "StatefulPartitionedCall/sequential_2/conv_lstm1d_3/while/body/_15/sequential_2/conv_lstm1d_3/while/clip_by_value/Minimum/y", "op": "Const", "input": ["^Func/StatefulPartitionedCall/sequential_2/conv_lstm1d_3/while/body/_15/input_control_node/_174"], "attr": {"dtype": {"type": "DT_FLOAT"}, "value": {"tensor": {"dtype": "DT_FLOAT", "tensorShape": {}}}}}, {"name": "StatefulPartitionedCall/sequential_2/conv_lstm1d_3/while/body/_15/sequential_2/conv_lstm1d_3/while/clip_by_value/y", "op": "Const", "input": ["^Func/StatefulPartitionedCall/sequential_2/conv_lstm1d_3/while/body/_15/input_control_node/_174"], "attr": {"dtype": {"type": "DT_FLOAT"}, "value": {"tensor": {"dtype": "DT_FLOAT", "tensorShape": {}}}}}, {"name": "StatefulPartitionedCall/sequential_2/conv_lstm1d_3/while/body/_15/sequential_2/conv_lstm1d_3/while/TensorArrayV2Read/TensorListGetItem/element_shape", "op": "Const", "input": ["^Func/StatefulPartitionedCall/sequential_2/conv_lstm1d_3/while/body/_15/input_control_node/_174"], "attr": {"dtype": {"type": "DT_INT32"}, "value": {"tensor": {"dtype": "DT_INT32", "tensorShape": {"dim": [{"size": "3"}]}}}}}, {"name": "StatefulPartitionedCall/sequential_2/conv_lstm1d_3/while/body/_15/sequential_2/conv_lstm1d_3/while/convolution_2/ExpandDims/dim", "op": "Const", "input": ["^Func/StatefulPartitionedCall/sequential_2/conv_lstm1d_3/while/body/_15/input_control_node/_174"], "attr": {"dtype": {"type": "DT_INT32"}, "value": {"tensor": {"dtype": "DT_INT32", "tensorShape": {}}}}}, {"name": "StatefulPartitionedCall/sequential_2/conv_lstm1d_3/while/body/_15/sequential_2/conv_lstm1d_3/while/convolution_2/ExpandDims_1", "op": "Const", "input": ["^Func/StatefulPartitionedCall/sequential_2/conv_lstm1d_3/while/body/_15/input_control_node/_174", "^StatefulPartitionedCall/sequential_2/conv_lstm1d_3/while/enter/_24"], "attr": {"value": {"tensor": {"dtype": "DT_FLOAT", "tensorShape": {"dim": [{"size": "1"}, {"size": "3"}, {"size": "1"}, {"size": "4"}]}}}, "dtype": {"type": "DT_FLOAT"}}}, {"name": "Func/StatefulPartitionedCall/sequential_2/conv_lstm1d_3/while/body/_15/input/_179", "op": "Identity", "input": ["StatefulPartitionedCall/sequential_2/conv_lstm1d_3/while/StatefulPartitionedCall/sequential_2/conv_lstm1d_3/convolution/Squeeze_switch/_41:1", "^Func/StatefulPartitionedCall/sequential_2/conv_lstm1d_3/while/body/_15/input_control_node/_174"], "attr": {"T": {"type": "DT_FLOAT"}}}, {"name": "StatefulPartitionedCall/sequential_2/conv_lstm1d_3/while/body/_15/sequential_2/conv_lstm1d_3/while/convolution_6/ExpandDims/dim", "op": "Const", "input": ["^Func/StatefulPartitionedCall/sequential_2/conv_lstm1d_3/while/body/_15/input_control_node/_174"], "attr": {"value": {"tensor": {"dtype": "DT_INT32", "tensorShape": {}}}, "dtype": {"type": "DT_INT32"}}}, {"name": "StatefulPartitionedCall/sequential_2/conv_lstm1d_3/while/body/_15/sequential_2/conv_lstm1d_3/while/convolution_6/ExpandDims_1", "op": "Const", "input": ["^Func/StatefulPartitionedCall/sequential_2/conv_lstm1d_3/while/body/_15/input_control_node/_174", "^StatefulPartitionedCall/sequential_2/conv_lstm1d_3/while/enter/_25"], "attr": {"dtype": {"type": "DT_FLOAT"}, "value": {"tensor": {"dtype": "DT_FLOAT", "tensorShape": {"dim": [{"size": "1"}, {"size": "3"}, {"size": "4"}, {"size": "4"}]}}}}}, {"name": "Func/StatefulPartitionedCall/sequential_2/conv_lstm1d_3/while/body/_15/input/_177", "op": "Identity", "input": ["StatefulPartitionedCall/sequential_2/conv_lstm1d_3/while/StatefulPartitionedCall/sequential_2/conv_lstm1d_3/time_switch/_39:1", "^Func/StatefulPartitionedCall/sequential_2/conv_lstm1d_3/while/body/_15/input_control_node/_174"], "attr": {"T": {"type": "DT_INT32"}}}, {"name": "StatefulPartitionedCall/sequential_2/conv_lstm1d_3/while/body/_15/sequential_2/conv_lstm1d_3/while/add_8/y", "op": "Const", "input": ["^Func/StatefulPartitionedCall/sequential_2/conv_lstm1d_3/while/body/_15/input_control_node/_174"], "attr": {"value": {"tensor": {"dtype": "DT_INT32", "tensorShape": {}}}, "dtype": {"type": "DT_INT32"}}}, {"name": "StatefulPartitionedCall/sequential_2/conv_lstm1d_3/while/body/_15/sequential_2/conv_lstm1d_3/while/add_9/y", "op": "Const", "input": ["^Func/StatefulPartitionedCall/sequential_2/conv_lstm1d_3/while/body/_15/input_control_node/_174"], "attr": {"dtype": {"type": "DT_INT32"}, "value": {"tensor": {"dtype": "DT_INT32", "tensorShape": {}}}}}, {"name": "ConstantFolding/StatefulPartitionedCall/sequential_2/conv_lstm1d_3/while/body/_15/sequential_2/conv_lstm1d_3/while/split_2-folded-3", "op": "Const", "input": ["^Func/StatefulPartitionedCall/sequential_2/conv_lstm1d_3/while/body/_15/input_control_node/_174", "^StatefulPartitionedCall/sequential_2/conv_lstm1d_3/while/enter/_26"], "attr": {"value": {"tensor": {"dtype": "DT_FLOAT", "tensorShape": {"dim": [{"size": "4"}]}}}, "dtype": {"type": "DT_FLOAT"}}}, {"name": "ConstantFolding/StatefulPartitionedCall/sequential_2/conv_lstm1d_3/while/body/_15/sequential_2/conv_lstm1d_3/while/split_2-folded-1", "op": "Const", "input": ["^Func/StatefulPartitionedCall/sequential_2/conv_lstm1d_3/while/body/_15/input_control_node/_174", "^StatefulPartitionedCall/sequential_2/conv_lstm1d_3/while/enter/_26"], "attr": {"value": {"tensor": {"dtype": "DT_FLOAT", "tensorShape": {"dim": [{"size": "4"}]}}}, "dtype": {"type": "DT_FLOAT"}}}, {"name": "ConstantFolding/StatefulPartitionedCall/sequential_2/conv_lstm1d_3/while/body/_15/sequential_2/conv_lstm1d_3/while/split_2-folded-0", "op": "Const", "input": ["^Func/StatefulPartitionedCall/sequential_2/conv_lstm1d_3/while/body/_15/input_control_node/_174", "^StatefulPartitionedCall/sequential_2/conv_lstm1d_3/while/enter/_26"], "attr": {"value": {"tensor": {"dtype": "DT_FLOAT", "tensorShape": {"dim": [{"size": "4"}]}}}, "dtype": {"type": "DT_FLOAT"}}}, {"name": "ConstantFolding/StatefulPartitionedCall/sequential_2/conv_lstm1d_3/while/body/_15/sequential_2/conv_lstm1d_3/while/split_2-folded-2", "op": "Const", "input": ["^Func/StatefulPartitionedCall/sequential_2/conv_lstm1d_3/while/body/_15/input_control_node/_174", "^StatefulPartitionedCall/sequential_2/conv_lstm1d_3/while/enter/_26"], "attr": {"dtype": {"type": "DT_FLOAT"}, "value": {"tensor": {"dtype": "DT_FLOAT", "tensorShape": {"dim": [{"size": "4"}]}}}}}, {"name": "Func/StatefulPartitionedCall/sequential_2/conv_lstm1d_3/while/body/_15/output_control_node/_197", "op": "NoOp", "input": ["^StatefulPartitionedCall/sequential_2/conv_lstm1d_3/while/enter/_24", "^StatefulPartitionedCall/sequential_2/conv_lstm1d_3/while/enter/_25", "^Func/StatefulPartitionedCall/sequential_2/conv_lstm1d_3/while/body/_15/input_control_node/_174", "^StatefulPartitionedCall/sequential_2/conv_lstm1d_3/while/enter/_26"], "attr": {"_has_manual_control_dependencies": {"b": true}}}, {"name": "StatefulPartitionedCall/sequential_2/conv_lstm1d_3/while/body/_15/sequential_2/conv_lstm1d_3/while/NoOp", "op": "NoOp", "input": ["^StatefulPartitionedCall/sequential_2/conv_lstm1d_3/while/enter/_24", "^StatefulPartitionedCall/sequential_2/conv_lstm1d_3/while/enter/_25", "^Func/StatefulPartitionedCall/sequential_2/conv_lstm1d_3/while/body/_15/input_control_node/_174", "^StatefulPartitionedCall/sequential_2/conv_lstm1d_3/while/enter/_26"], "attr": {"_acd_function_control_output": {"b": true}, "_has_manual_control_dependencies": {"b": true}}}, {"name": "StatefulPartitionedCall/sequential_2/conv_lstm1d_3/transpose_1", "op": "Transpose", "input": ["StatefulPartitionedCall/sequential_2/conv_lstm1d_3/TensorArrayV2Stack/TensorListStack", "StatefulPartitionedCall/sequential_2/conv_lstm1d_3/transpose_1/perm"], "attr": {"T": {"type": "DT_FLOAT"}, "Tperm": {"type": "DT_INT32"}}}, {"name": "StatefulPartitionedCall/sequential_2/conv_lstm1d_3/while/body/_15/sequential_2/conv_lstm1d_3/while/convolution_7/ExpandDims", "op": "ExpandDims", "input": ["Func/StatefulPartitionedCall/sequential_2/conv_lstm1d_3/while/body/_15/input/_179", "StatefulPartitionedCall/sequential_2/conv_lstm1d_3/while/body/_15/sequential_2/conv_lstm1d_3/while/convolution_7/ExpandDims/dim"], "attr": {"Tdim": {"type": "DT_INT32"}, "T": {"type": "DT_FLOAT"}}}, {"name": "StatefulPartitionedCall/sequential_2/conv_lstm1d_3/while/body/_15/sequential_2/conv_lstm1d_3/while/convolution_5/ExpandDims", "op": "ExpandDims", "input": ["Func/StatefulPartitionedCall/sequential_2/conv_lstm1d_3/while/body/_15/input/_179", "StatefulPartitionedCall/sequential_2/conv_lstm1d_3/while/body/_15/sequential_2/conv_lstm1d_3/while/convolution_5/ExpandDims/dim"], "attr": {"Tdim": {"type": "DT_INT32"}, "T": {"type": "DT_FLOAT"}}}, {"name": "StatefulPartitionedCall/sequential_2/conv_lstm1d_3/while/body/_15/sequential_2/conv_lstm1d_3/while/convolution_4/ExpandDims", "op": "ExpandDims", "input": ["Func/StatefulPartitionedCall/sequential_2/conv_lstm1d_3/while/body/_15/input/_179", "StatefulPartitionedCall/sequential_2/conv_lstm1d_3/while/body/_15/sequential_2/conv_lstm1d_3/while/convolution_4/ExpandDims/dim"], "attr": {"Tdim": {"type": "DT_INT32"}, "T": {"type": "DT_FLOAT"}}}, {"name": "StatefulPartitionedCall/sequential_2/conv_lstm1d_3/while/body/_15/sequential_2/conv_lstm1d_3/while/convolution_6/ExpandDims", "op": "ExpandDims", "input": ["Func/StatefulPartitionedCall/sequential_2/conv_lstm1d_3/while/body/_15/input/_179", "StatefulPartitionedCall/sequential_2/conv_lstm1d_3/while/body/_15/sequential_2/conv_lstm1d_3/while/convolution_6/ExpandDims/dim"], "attr": {"T": {"type": "DT_FLOAT"}, "Tdim": {"type": "DT_INT32"}}}, {"name": "StatefulPartitionedCall/sequential_2/conv_lstm1d_3/while/body/_15/sequential_2/conv_lstm1d_3/while/TensorArrayV2Read/TensorListGetItem", "op": "TensorListGetItem", "input": ["StatefulPartitionedCall/sequential_2/conv_lstm1d_3/while/StatefulPartitionedCall/sequential_2/conv_lstm1d_3/TensorArrayUnstack/TensorListFromTensor_switch/_44:1", "Func/StatefulPartitionedCall/sequential_2/conv_lstm1d_3/while/body/_15/input/_177", "StatefulPartitionedCall/sequential_2/conv_lstm1d_3/while/body/_15/sequential_2/conv_lstm1d_3/while/TensorArrayV2Read/TensorListGetItem/element_shape"], "attr": {"element_dtype": {"type": "DT_FLOAT"}}}, {"name": "StatefulPartitionedCall/sequential_2/conv_lstm1d_3/while/body/_15/sequential_2/conv_lstm1d_3/while/add_8", "op": "AddV2", "input": ["Func/StatefulPartitionedCall/sequential_2/conv_lstm1d_3/while/body/_15/input/_177", "StatefulPartitionedCall/sequential_2/conv_lstm1d_3/while/body/_15/sequential_2/conv_lstm1d_3/while/add_8/y"], "attr": {"T": {"type": "DT_INT32"}}}, {"name": "StatefulPartitionedCall/sequential_2/conv_lstm1d_3/while/body/_15/sequential_2/conv_lstm1d_3/while/add_9", "op": "AddV2", "input": ["StatefulPartitionedCall/sequential_2/conv_lstm1d_3/while/StatefulPartitionedCall/sequential_2/conv_lstm1d_3/while/loop_counter_switch/_37:1", "StatefulPartitionedCall/sequential_2/conv_lstm1d_3/while/body/_15/sequential_2/conv_lstm1d_3/while/add_9/y"], "attr": {"T": {"type": "DT_INT32"}}}, {"name": "StatefulPartitionedCall/sequential_2/conv_lstm1d_3/while/next_iteration/_62", "op": "NextIteration", "input": ["StatefulPartitionedCall/sequential_2/conv_lstm1d_3/while/StatefulPartitionedCall/sequential_2/conv_lstm1d_3/TensorArrayUnstack/TensorListFromTensor_switch/_44:1", "^Func/StatefulPartitionedCall/sequential_2/conv_lstm1d_3/while/body/_15/output_control_node/_197", "^Func/StatefulPartitionedCall/sequential_2/conv_lstm1d_3/while/body/_15/input_control_node/_174"], "attr": {"T": {"type": "DT_VARIANT"}}}, {"name": "StatefulPartitionedCall/sequential_2/conv_lstm1d_3/while/next_iteration/_61", "op": "NextIteration", "input": ["StatefulPartitionedCall/sequential_2/conv_lstm1d_3/while/StatefulPartitionedCall/sequential_2/conv_lstm1d_3/strided_slice_switch/_43:1", "^Func/StatefulPartitionedCall/sequential_2/conv_lstm1d_3/while/body/_15/output_control_node/_197", "^Func/StatefulPartitionedCall/sequential_2/conv_lstm1d_3/while/body/_15/input_control_node/_174"], "attr": {"T": {"type": "DT_INT32"}}}, {"name": "StatefulPartitionedCall/sequential_2/conv_lstm1d_3/while/next_iteration/_56", "op": "NextIteration", "input": ["StatefulPartitionedCall/sequential_2/conv_lstm1d_3/while/StatefulPartitionedCall/sequential_2/conv_lstm1d_3/while/maximum_iterations_switch/_38:1", "^Func/StatefulPartitionedCall/sequential_2/conv_lstm1d_3/while/body/_15/output_control_node/_197", "^StatefulPartitionedCall/sequential_2/conv_lstm1d_3/while/body/_15/sequential_2/conv_lstm1d_3/while/NoOp", "^Func/StatefulPartitionedCall/sequential_2/conv_lstm1d_3/while/body/_15/input_control_node/_174"], "attr": {"T": {"type": "DT_INT32"}}}, {"name": "StatefulPartitionedCall/sequential_2/max_pooling2d_4/MaxPool", "op": "MaxPool", "input": ["StatefulPartitionedCall/sequential_2/conv_lstm1d_3/transpose_1"], "attr": {"padding": {"s": "U0FNRQ=="}, "T": {"type": "DT_FLOAT"}, "explicit_paddings": {"list": {}}, "strides": {"list": {"i": ["1", "1", "2", "1"]}}, "data_format": {"s": "TkhXQw=="}, "ksize": {"list": {"i": ["1", "1", "2", "1"]}}}}, {"name": "StatefulPartitionedCall/sequential_2/conv_lstm1d_3/while/body/_15/sequential_2/conv_lstm1d_3/while/convolution_7", "op": "Conv2D", "input": ["StatefulPartitionedCall/sequential_2/conv_lstm1d_3/while/body/_15/sequential_2/conv_lstm1d_3/while/convolution_7/ExpandDims", "StatefulPartitionedCall/sequential_2/conv_lstm1d_3/while/body/_15/sequential_2/conv_lstm1d_3/while/convolution_7/ExpandDims_1"], "device": "/device:CPU:0", "attr": {"data_format": {"s": "TkhXQw=="}, "explicit_paddings": {"list": {}}, "padding": {"s": "U0FNRQ=="}, "dilations": {"list": {"i": ["1", "1", "1", "1"]}}, "use_cudnn_on_gpu": {"b": true}, "strides": {"list": {"i": ["1", "1", "1", "1"]}}, "T": {"type": "DT_FLOAT"}}}, {"name": "StatefulPartitionedCall/sequential_2/conv_lstm1d_3/while/body/_15/sequential_2/conv_lstm1d_3/while/convolution_5", "op": "Conv2D", "input": ["StatefulPartitionedCall/sequential_2/conv_lstm1d_3/while/body/_15/sequential_2/conv_lstm1d_3/while/convolution_5/ExpandDims", "StatefulPartitionedCall/sequential_2/conv_lstm1d_3/while/body/_15/sequential_2/conv_lstm1d_3/while/convolution_5/ExpandDims_1"], "device": "/device:CPU:0", "attr": {"explicit_paddings": {"list": {}}, "strides": {"list": {"i": ["1", "1", "1", "1"]}}, "use_cudnn_on_gpu": {"b": true}, "data_format": {"s": "TkhXQw=="}, "T": {"type": "DT_FLOAT"}, "padding": {"s": "U0FNRQ=="}, "dilations": {"list": {"i": ["1", "1", "1", "1"]}}}}, {"name": "StatefulPartitionedCall/sequential_2/conv_lstm1d_3/while/body/_15/sequential_2/conv_lstm1d_3/while/convolution_4", "op": "Conv2D", "input": ["StatefulPartitionedCall/sequential_2/conv_lstm1d_3/while/body/_15/sequential_2/conv_lstm1d_3/while/convolution_4/ExpandDims", "StatefulPartitionedCall/sequential_2/conv_lstm1d_3/while/body/_15/sequential_2/conv_lstm1d_3/while/convolution_4/ExpandDims_1"], "device": "/device:CPU:0", "attr": {"explicit_paddings": {"list": {}}, "T": {"type": "DT_FLOAT"}, "padding": {"s": "U0FNRQ=="}, "data_format": {"s": "TkhXQw=="}, "strides": {"list": {"i": ["1", "1", "1", "1"]}}, "use_cudnn_on_gpu": {"b": true}, "dilations": {"list": {"i": ["1", "1", "1", "1"]}}}}, {"name": "StatefulPartitionedCall/sequential_2/conv_lstm1d_3/while/body/_15/sequential_2/conv_lstm1d_3/while/convolution_6", "op": "Conv2D", "input": ["StatefulPartitionedCall/sequential_2/conv_lstm1d_3/while/body/_15/sequential_2/conv_lstm1d_3/while/convolution_6/ExpandDims", "StatefulPartitionedCall/sequential_2/conv_lstm1d_3/while/body/_15/sequential_2/conv_lstm1d_3/while/convolution_6/ExpandDims_1"], "device": "/device:CPU:0", "attr": {"padding": {"s": "U0FNRQ=="}, "T": {"type": "DT_FLOAT"}, "strides": {"list": {"i": ["1", "1", "1", "1"]}}, "dilations": {"list": {"i": ["1", "1", "1", "1"]}}, "use_cudnn_on_gpu": {"b": true}, "explicit_paddings": {"list": {}}, "data_format": {"s": "TkhXQw=="}}}, {"name": "StatefulPartitionedCall/sequential_2/conv_lstm1d_3/while/body/_15/sequential_2/conv_lstm1d_3/while/convolution_3/ExpandDims", "op": "ExpandDims", "input": ["StatefulPartitionedCall/sequential_2/conv_lstm1d_3/while/body/_15/sequential_2/conv_lstm1d_3/while/TensorArrayV2Read/TensorListGetItem", "StatefulPartitionedCall/sequential_2/conv_lstm1d_3/while/body/_15/sequential_2/conv_lstm1d_3/while/convolution_3/ExpandDims/dim"], "attr": {"T": {"type": "DT_FLOAT"}, "Tdim": {"type": "DT_INT32"}}}, {"name": "StatefulPartitionedCall/sequential_2/conv_lstm1d_3/while/body/_15/sequential_2/conv_lstm1d_3/while/convolution_1/ExpandDims", "op": "ExpandDims", "input": ["StatefulPartitionedCall/sequential_2/conv_lstm1d_3/while/body/_15/sequential_2/conv_lstm1d_3/while/TensorArrayV2Read/TensorListGetItem", "StatefulPartitionedCall/sequential_2/conv_lstm1d_3/while/body/_15/sequential_2/conv_lstm1d_3/while/convolution_1/ExpandDims/dim"], "attr": {"Tdim": {"type": "DT_INT32"}, "T": {"type": "DT_FLOAT"}}}, {"name": "StatefulPartitionedCall/sequential_2/conv_lstm1d_3/while/body/_15/sequential_2/conv_lstm1d_3/while/convolution/ExpandDims", "op": "ExpandDims", "input": ["StatefulPartitionedCall/sequential_2/conv_lstm1d_3/while/body/_15/sequential_2/conv_lstm1d_3/while/TensorArrayV2Read/TensorListGetItem", "StatefulPartitionedCall/sequential_2/conv_lstm1d_3/while/body/_15/sequential_2/conv_lstm1d_3/while/convolution/ExpandDims/dim"], "attr": {"Tdim": {"type": "DT_INT32"}, "T": {"type": "DT_FLOAT"}}}, {"name": "StatefulPartitionedCall/sequential_2/conv_lstm1d_3/while/body/_15/sequential_2/conv_lstm1d_3/while/convolution_2/ExpandDims", "op": "ExpandDims", "input": ["StatefulPartitionedCall/sequential_2/conv_lstm1d_3/while/body/_15/sequential_2/conv_lstm1d_3/while/TensorArrayV2Read/TensorListGetItem", "StatefulPartitionedCall/sequential_2/conv_lstm1d_3/while/body/_15/sequential_2/conv_lstm1d_3/while/convolution_2/ExpandDims/dim"], "attr": {"T": {"type": "DT_FLOAT"}, "Tdim": {"type": "DT_INT32"}}}, {"name": "StatefulPartitionedCall/sequential_2/conv_lstm1d_3/while/next_iteration/_57", "op": "NextIteration", "input": ["StatefulPartitionedCall/sequential_2/conv_lstm1d_3/while/body/_15/sequential_2/conv_lstm1d_3/while/add_8", "^Func/StatefulPartitionedCall/sequential_2/conv_lstm1d_3/while/body/_15/output_control_node/_197", "^StatefulPartitionedCall/sequential_2/conv_lstm1d_3/while/body/_15/sequential_2/conv_lstm1d_3/while/NoOp"], "attr": {"T": {"type": "DT_INT32"}}}, {"name": "StatefulPartitionedCall/sequential_2/conv_lstm1d_3/while/next_iteration/_55", "op": "NextIteration", "input": ["StatefulPartitionedCall/sequential_2/conv_lstm1d_3/while/body/_15/sequential_2/conv_lstm1d_3/while/add_9", "^Func/StatefulPartitionedCall/sequential_2/conv_lstm1d_3/while/body/_15/output_control_node/_197", "^StatefulPartitionedCall/sequential_2/conv_lstm1d_3/while/body/_15/sequential_2/conv_lstm1d_3/while/NoOp"], "attr": {"T": {"type": "DT_INT32"}}}, {"name": "StatefulPartitionedCall/sequential_2/time_distributed_5/Reshape_1", "op": "Reshape", "input": ["StatefulPartitionedCall/sequential_2/max_pooling2d_4/MaxPool", "StatefulPartitionedCall/sequential_2/time_distributed_5/Reshape_1/shape"], "attr": {"Tshape": {"type": "DT_INT32"}, "T": {"type": "DT_FLOAT"}}}, {"name": "StatefulPartitionedCall/sequential_2/conv_lstm1d_3/while/body/_15/sequential_2/conv_lstm1d_3/while/convolution_7/Squeeze", "op": "Squeeze", "input": ["StatefulPartitionedCall/sequential_2/conv_lstm1d_3/while/body/_15/sequential_2/conv_lstm1d_3/while/convolution_7"], "attr": {"squeeze_dims": {"list": {"i": ["-3"]}}, "T": {"type": "DT_FLOAT"}}}, {"name": "StatefulPartitionedCall/sequential_2/conv_lstm1d_3/while/body/_15/sequential_2/conv_lstm1d_3/while/convolution_5/Squeeze", "op": "Squeeze", "input": ["StatefulPartitionedCall/sequential_2/conv_lstm1d_3/while/body/_15/sequential_2/conv_lstm1d_3/while/convolution_5"], "attr": {"T": {"type": "DT_FLOAT"}, "squeeze_dims": {"list": {"i": ["-3"]}}}}, {"name": "StatefulPartitionedCall/sequential_2/conv_lstm1d_3/while/body/_15/sequential_2/conv_lstm1d_3/while/convolution_4/Squeeze", "op": "Squeeze", "input": ["StatefulPartitionedCall/sequential_2/conv_lstm1d_3/while/body/_15/sequential_2/conv_lstm1d_3/while/convolution_4"], "attr": {"squeeze_dims": {"list": {"i": ["-3"]}}, "T": {"type": "DT_FLOAT"}}}, {"name": "StatefulPartitionedCall/sequential_2/conv_lstm1d_3/while/body/_15/sequential_2/conv_lstm1d_3/while/convolution_6/Squeeze", "op": "Squeeze", "input": ["StatefulPartitionedCall/sequential_2/conv_lstm1d_3/while/body/_15/sequential_2/conv_lstm1d_3/while/convolution_6"], "attr": {"T": {"type": "DT_FLOAT"}, "squeeze_dims": {"list": {"i": ["-3"]}}}}, {"name": "StatefulPartitionedCall/sequential_2/conv_lstm1d_3/while/body/_15/sequential_2/conv_lstm1d_3/while/convolution_3", "op": "_FusedConv2D", "input": ["StatefulPartitionedCall/sequential_2/conv_lstm1d_3/while/body/_15/sequential_2/conv_lstm1d_3/while/convolution_3/ExpandDims", "StatefulPartitionedCall/sequential_2/conv_lstm1d_3/while/body/_15/sequential_2/conv_lstm1d_3/while/convolution_3/ExpandDims_1", "ConstantFolding/StatefulPartitionedCall/sequential_2/conv_lstm1d_3/while/body/_15/sequential_2/conv_lstm1d_3/while/split_2-folded-3"], "device": "/device:CPU:0", "attr": {"leakyrelu_alpha": {"f": 0.2}, "data_format": {"s": "TkhXQw=="}, "dilations": {"list": {"i": ["1", "1", "1", "1"]}}, "TArgs": {"list": {"type": ["DT_FLOAT"]}}, "explicit_paddings": {"list": {}}, "num_host_args": {"i": "0"}, "padding": {"s": "VkFMSUQ="}, "use_cudnn_on_gpu": {"b": true}, "fused_ops": {"list": {"s": ["Qmlhc0FkZA=="]}}, "num_args": {"i": "1"}, "strides": {"list": {"i": ["1", "1", "1", "1"]}}, "filter_format": {"s": "SFdJTw=="}, "T": {"type": "DT_FLOAT"}, "epsilon": {"f": 0.0}}}, {"name": "StatefulPartitionedCall/sequential_2/conv_lstm1d_3/while/body/_15/sequential_2/conv_lstm1d_3/while/convolution_1", "op": "_FusedConv2D", "input": ["StatefulPartitionedCall/sequential_2/conv_lstm1d_3/while/body/_15/sequential_2/conv_lstm1d_3/while/convolution_1/ExpandDims", "StatefulPartitionedCall/sequential_2/conv_lstm1d_3/while/body/_15/sequential_2/conv_lstm1d_3/while/convolution_1/ExpandDims_1", "ConstantFolding/StatefulPartitionedCall/sequential_2/conv_lstm1d_3/while/body/_15/sequential_2/conv_lstm1d_3/while/split_2-folded-1"], "device": "/device:CPU:0", "attr": {"num_args": {"i": "1"}, "fused_ops": {"list": {"s": ["Qmlhc0FkZA=="]}}, "data_format": {"s": "TkhXQw=="}, "leakyrelu_alpha": {"f": 0.2}, "explicit_paddings": {"list": {}}, "padding": {"s": "VkFMSUQ="}, "use_cudnn_on_gpu": {"b": true}, "dilations": {"list": {"i": ["1", "1", "1", "1"]}}, "num_host_args": {"i": "0"}, "TArgs": {"list": {"type": ["DT_FLOAT"]}}, "strides": {"list": {"i": ["1", "1", "1", "1"]}}, "filter_format": {"s": "SFdJTw=="}, "T": {"type": "DT_FLOAT"}, "epsilon": {"f": 0.0}}}, {"name": "StatefulPartitionedCall/sequential_2/conv_lstm1d_3/while/body/_15/sequential_2/conv_lstm1d_3/while/convolution", "op": "_FusedConv2D", "input": ["StatefulPartitionedCall/sequential_2/conv_lstm1d_3/while/body/_15/sequential_2/conv_lstm1d_3/while/convolution/ExpandDims", "StatefulPartitionedCall/sequential_2/conv_lstm1d_3/while/body/_15/sequential_2/conv_lstm1d_3/while/convolution/ExpandDims_1", "ConstantFolding/StatefulPartitionedCall/sequential_2/conv_lstm1d_3/while/body/_15/sequential_2/conv_lstm1d_3/while/split_2-folded-0"], "device": "/device:CPU:0", "attr": {"filter_format": {"s": "SFdJTw=="}, "epsilon": {"f": 0.0}, "use_cudnn_on_gpu": {"b": true}, "num_host_args": {"i": "0"}, "strides": {"list": {"i": ["1", "1", "1", "1"]}}, "leakyrelu_alpha": {"f": 0.2}, "T": {"type": "DT_FLOAT"}, "dilations": {"list": {"i": ["1", "1", "1", "1"]}}, "TArgs": {"list": {"type": ["DT_FLOAT"]}}, "data_format": {"s": "TkhXQw=="}, "fused_ops": {"list": {"s": ["Qmlhc0FkZA=="]}}, "padding": {"s": "VkFMSUQ="}, "num_args": {"i": "1"}, "explicit_paddings": {"list": {}}}}, {"name": "StatefulPartitionedCall/sequential_2/conv_lstm1d_3/while/body/_15/sequential_2/conv_lstm1d_3/while/convolution_2", "op": "_FusedConv2D", "input": ["StatefulPartitionedCall/sequential_2/conv_lstm1d_3/while/body/_15/sequential_2/conv_lstm1d_3/while/convolution_2/ExpandDims", "StatefulPartitionedCall/sequential_2/conv_lstm1d_3/while/body/_15/sequential_2/conv_lstm1d_3/while/convolution_2/ExpandDims_1", "ConstantFolding/StatefulPartitionedCall/sequential_2/conv_lstm1d_3/while/body/_15/sequential_2/conv_lstm1d_3/while/split_2-folded-2"], "device": "/device:CPU:0", "attr": {"use_cudnn_on_gpu": {"b": true}, "num_args": {"i": "1"}, "dilations": {"list": {"i": ["1", "1", "1", "1"]}}, "leakyrelu_alpha": {"f": 0.2}, "T": {"type": "DT_FLOAT"}, "epsilon": {"f": 0.0}, "explicit_paddings": {"list": {}}, "filter_format": {"s": "SFdJTw=="}, "fused_ops": {"list": {"s": ["Qmlhc0FkZA=="]}}, "strides": {"list": {"i": ["1", "1", "1", "1"]}}, "num_host_args": {"i": "0"}, "TArgs": {"list": {"type": ["DT_FLOAT"]}}, "data_format": {"s": "TkhXQw=="}, "padding": {"s": "VkFMSUQ="}}}, {"name": "StatefulPartitionedCall/sequential_2/conv_lstm1d_4/transpose", "op": "Transpose", "input": ["StatefulPartitionedCall/sequential_2/time_distributed_5/Reshape_1", "StatefulPartitionedCall/sequential_2/conv_lstm1d_4/transpose/perm"], "attr": {"T": {"type": "DT_FLOAT"}, "Tperm": {"type": "DT_INT32"}}}, {"name": "StatefulPartitionedCall/sequential_2/conv_lstm1d_4/zeros_like", "op": "ZerosLike", "input": ["StatefulPartitionedCall/sequential_2/time_distributed_5/Reshape_1"], "attr": {"T": {"type": "DT_FLOAT"}}}, {"name": "StatefulPartitionedCall/sequential_2/conv_lstm1d_3/while/body/_15/sequential_2/conv_lstm1d_3/while/BiasAdd_3", "op": "Squeeze", "input": ["StatefulPartitionedCall/sequential_2/conv_lstm1d_3/while/body/_15/sequential_2/conv_lstm1d_3/while/convolution_3"], "attr": {"T": {"type": "DT_FLOAT"}, "squeeze_dims": {"list": {"i": ["-3"]}}}}, {"name": "StatefulPartitionedCall/sequential_2/conv_lstm1d_3/while/body/_15/sequential_2/conv_lstm1d_3/while/BiasAdd_1", "op": "Squeeze", "input": ["StatefulPartitionedCall/sequential_2/conv_lstm1d_3/while/body/_15/sequential_2/conv_lstm1d_3/while/convolution_1"], "attr": {"T": {"type": "DT_FLOAT"}, "squeeze_dims": {"list": {"i": ["-3"]}}}}, {"name": "StatefulPartitionedCall/sequential_2/conv_lstm1d_3/while/body/_15/sequential_2/conv_lstm1d_3/while/BiasAdd", "op": "Squeeze", "input": ["StatefulPartitionedCall/sequential_2/conv_lstm1d_3/while/body/_15/sequential_2/conv_lstm1d_3/while/convolution"], "attr": {"T": {"type": "DT_FLOAT"}, "squeeze_dims": {"list": {"i": ["-3"]}}}}, {"name": "StatefulPartitionedCall/sequential_2/conv_lstm1d_3/while/body/_15/sequential_2/conv_lstm1d_3/while/BiasAdd_2", "op": "Squeeze", "input": ["StatefulPartitionedCall/sequential_2/conv_lstm1d_3/while/body/_15/sequential_2/conv_lstm1d_3/while/convolution_2"], "attr": {"squeeze_dims": {"list": {"i": ["-3"]}}, "T": {"type": "DT_FLOAT"}}}, {"name": "StatefulPartitionedCall/sequential_2/conv_lstm1d_4/TensorArrayUnstack/TensorListFromTensor", "op": "TensorListFromTensor", "input": ["StatefulPartitionedCall/sequential_2/conv_lstm1d_4/transpose", "StatefulPartitionedCall/sequential_2/conv_lstm1d_4/TensorArrayUnstack/TensorListFromTensor/element_shape"], "attr": {"_has_manual_control_dependencies": {"b": true}, "element_dtype": {"type": "DT_FLOAT"}, "shape_type": {"type": "DT_INT32"}}, "experimentalType": {"typeId": "TFT_PRODUCT", "args": [{"typeId": "TFT_ARRAY", "args": [{"typeId": "TFT_TENSOR", "args": [{"typeId": "TFT_FLOAT"}]}]}]}}, {"name": "StatefulPartitionedCall/sequential_2/conv_lstm1d_4/Shape", "op": "Shape", "input": ["StatefulPartitionedCall/sequential_2/conv_lstm1d_4/transpose"], "attr": {"out_type": {"type": "DT_INT32"}, "T": {"type": "DT_FLOAT"}}}, {"name": "StatefulPartitionedCall/sequential_2/conv_lstm1d_4/Sum", "op": "Sum", "input": ["StatefulPartitionedCall/sequential_2/conv_lstm1d_4/zeros_like", "StatefulPartitionedCall/sequential_2/conv_lstm1d_4/Sum/reduction_indices"], "attr": {"keep_dims": {"b": false}, "Tidx": {"type": "DT_INT32"}, "T": {"type": "DT_FLOAT"}}}, {"name": "StatefulPartitionedCall/sequential_2/conv_lstm1d_3/while/body/_15/sequential_2/conv_lstm1d_3/while/add_6", "op": "AddV2", "input": ["StatefulPartitionedCall/sequential_2/conv_lstm1d_3/while/body/_15/sequential_2/conv_lstm1d_3/while/BiasAdd_3", "StatefulPartitionedCall/sequential_2/conv_lstm1d_3/while/body/_15/sequential_2/conv_lstm1d_3/while/convolution_7/Squeeze"], "attr": {"T": {"type": "DT_FLOAT"}}}, {"name": "StatefulPartitionedCall/sequential_2/conv_lstm1d_3/while/body/_15/sequential_2/conv_lstm1d_3/while/add_2", "op": "AddV2", "input": ["StatefulPartitionedCall/sequential_2/conv_lstm1d_3/while/body/_15/sequential_2/conv_lstm1d_3/while/BiasAdd_1", "StatefulPartitionedCall/sequential_2/conv_lstm1d_3/while/body/_15/sequential_2/conv_lstm1d_3/while/convolution_5/Squeeze"], "attr": {"T": {"type": "DT_FLOAT"}}}, {"name": "StatefulPartitionedCall/sequential_2/conv_lstm1d_3/while/body/_15/sequential_2/conv_lstm1d_3/while/add", "op": "AddV2", "input": ["StatefulPartitionedCall/sequential_2/conv_lstm1d_3/while/body/_15/sequential_2/conv_lstm1d_3/while/BiasAdd", "StatefulPartitionedCall/sequential_2/conv_lstm1d_3/while/body/_15/sequential_2/conv_lstm1d_3/while/convolution_4/Squeeze"], "attr": {"T": {"type": "DT_FLOAT"}}}, {"name": "StatefulPartitionedCall/sequential_2/conv_lstm1d_3/while/body/_15/sequential_2/conv_lstm1d_3/while/add_4", "op": "AddV2", "input": ["StatefulPartitionedCall/sequential_2/conv_lstm1d_3/while/body/_15/sequential_2/conv_lstm1d_3/while/BiasAdd_2", "StatefulPartitionedCall/sequential_2/conv_lstm1d_3/while/body/_15/sequential_2/conv_lstm1d_3/while/convolution_6/Squeeze"], "attr": {"T": {"type": "DT_FLOAT"}}}, {"name": "StatefulPartitionedCall/sequential_2/conv_lstm1d_4/strided_slice", "op": "StridedSlice", "input": ["StatefulPartitionedCall/sequential_2/conv_lstm1d_4/Shape", "StatefulPartitionedCall/sequential_2/conv_lstm1d_4/strided_slice/stack", "StatefulPartitionedCall/sequential_2/conv_lstm1d_4/strided_slice/stack_1", "StatefulPartitionedCall/sequential_2/conv_lstm1d_4/strided_slice/stack_2"], "attr": {"T": {"type": "DT_INT32"}, "ellipsis_mask": {"i": "0"}, "end_mask": {"i": "0"}, "_has_manual_control_dependencies": {"b": true}, "begin_mask": {"i": "0"}, "shrink_axis_mask": {"i": "1"}, "new_axis_mask": {"i": "0"}, "Index": {"type": "DT_INT32"}}}, {"name": "StatefulPartitionedCall/sequential_2/conv_lstm1d_4/convolution/ExpandDims", "op": "ExpandDims", "input": ["StatefulPartitionedCall/sequential_2/conv_lstm1d_4/Sum", "StatefulPartitionedCall/sequential_2/conv_lstm1d_4/convolution/ExpandDims/dim"], "attr": {"Tdim": {"type": "DT_INT32"}, "T": {"type": "DT_FLOAT"}}}, {"name": "StatefulPartitionedCall/sequential_2/conv_lstm1d_3/while/body/_15/sequential_2/conv_lstm1d_3/while/Mul_8", "op": "Mul", "input": ["StatefulPartitionedCall/sequential_2/conv_lstm1d_3/while/body/_15/sequential_2/conv_lstm1d_3/while/add_6", "StatefulPartitionedCall/sequential_2/conv_lstm1d_3/while/body/_15/sequential_2/conv_lstm1d_3/while/Const_4"], "attr": {"T": {"type": "DT_FLOAT"}}}, {"name": "StatefulPartitionedCall/sequential_2/conv_lstm1d_3/while/body/_15/sequential_2/conv_lstm1d_3/while/Mul_5", "op": "Mul", "input": ["StatefulPartitionedCall/sequential_2/conv_lstm1d_3/while/body/_15/sequential_2/conv_lstm1d_3/while/add_2", "StatefulPartitionedCall/sequential_2/conv_lstm1d_3/while/body/_15/sequential_2/conv_lstm1d_3/while/Const_2"], "attr": {"T": {"type": "DT_FLOAT"}}}, {"name": "StatefulPartitionedCall/sequential_2/conv_lstm1d_3/while/body/_15/sequential_2/conv_lstm1d_3/while/Mul_4", "op": "Mul", "input": ["StatefulPartitionedCall/sequential_2/conv_lstm1d_3/while/body/_15/sequential_2/conv_lstm1d_3/while/add", "StatefulPartitionedCall/sequential_2/conv_lstm1d_3/while/body/_15/sequential_2/conv_lstm1d_3/while/Const"], "attr": {"T": {"type": "DT_FLOAT"}}}, {"name": "StatefulPartitionedCall/sequential_2/conv_lstm1d_3/while/body/_15/sequential_2/conv_lstm1d_3/while/Tanh", "op": "Tanh", "input": ["StatefulPartitionedCall/sequential_2/conv_lstm1d_3/while/body/_15/sequential_2/conv_lstm1d_3/while/add_4"], "attr": {"T": {"type": "DT_FLOAT"}}}, {"name": "StatefulPartitionedCall/sequential_2/conv_lstm1d_4/TensorArrayV2_1", "op": "TensorListReserve", "input": ["StatefulPartitionedCall/sequential_2/conv_lstm1d_4/TensorArrayV2_1/element_shape", "StatefulPartitionedCall/sequential_2/conv_lstm1d_4/strided_slice"], "attr": {"element_dtype": {"type": "DT_FLOAT"}, "_has_manual_control_dependencies": {"b": true}, "shape_type": {"type": "DT_INT32"}}, "experimentalType": {"typeId": "TFT_PRODUCT", "args": [{"typeId": "TFT_ARRAY", "args": [{"typeId": "TFT_TENSOR", "args": [{"typeId": "TFT_FLOAT"}]}]}]}}, {"name": "StatefulPartitionedCall/sequential_2/conv_lstm1d_4/convolution", "op": "Conv2D", "input": ["StatefulPartitionedCall/sequential_2/conv_lstm1d_4/convolution/ExpandDims", "StatefulPartitionedCall/sequential_2/conv_lstm1d_4/convolution/ExpandDims_1"], "device": "/device:CPU:0", "attr": {"strides": {"list": {"i": ["1", "1", "1", "1"]}}, "T": {"type": "DT_FLOAT"}, "use_cudnn_on_gpu": {"b": true}, "dilations": {"list": {"i": ["1", "1", "1", "1"]}}, "explicit_paddings": {"list": {}}, "data_format": {"s": "TkhXQw=="}, "padding": {"s": "VkFMSUQ="}}}, {"name": "StatefulPartitionedCall/sequential_2/conv_lstm1d_3/while/body/_15/sequential_2/conv_lstm1d_3/while/Add_7", "op": "AddV2", "input": ["StatefulPartitionedCall/sequential_2/conv_lstm1d_3/while/body/_15/sequential_2/conv_lstm1d_3/while/Mul_8", "StatefulPartitionedCall/sequential_2/conv_lstm1d_3/while/body/_15/sequential_2/conv_lstm1d_3/while/Const_5"], "attr": {"T": {"type": "DT_FLOAT"}}}, {"name": "StatefulPartitionedCall/sequential_2/conv_lstm1d_3/while/body/_15/sequential_2/conv_lstm1d_3/while/Add_3", "op": "AddV2", "input": ["StatefulPartitionedCall/sequential_2/conv_lstm1d_3/while/body/_15/sequential_2/conv_lstm1d_3/while/Mul_5", "StatefulPartitionedCall/sequential_2/conv_lstm1d_3/while/body/_15/sequential_2/conv_lstm1d_3/while/Const_3"], "attr": {"T": {"type": "DT_FLOAT"}}}, {"name": "StatefulPartitionedCall/sequential_2/conv_lstm1d_3/while/body/_15/sequential_2/conv_lstm1d_3/while/Add_1", "op": "AddV2", "input": ["StatefulPartitionedCall/sequential_2/conv_lstm1d_3/while/body/_15/sequential_2/conv_lstm1d_3/while/Mul_4", "StatefulPartitionedCall/sequential_2/conv_lstm1d_3/while/body/_15/sequential_2/conv_lstm1d_3/while/Const_1"], "attr": {"T": {"type": "DT_FLOAT"}}}, {"name": "StatefulPartitionedCall/sequential_2/conv_lstm1d_4/convolution/Squeeze", "op": "Squeeze", "input": ["StatefulPartitionedCall/sequential_2/conv_lstm1d_4/convolution"], "attr": {"squeeze_dims": {"list": {"i": ["-3"]}}, "_has_manual_control_dependencies": {"b": true}, "T": {"type": "DT_FLOAT"}}}, {"name": "StatefulPartitionedCall/sequential_2/conv_lstm1d_3/while/body/_15/sequential_2/conv_lstm1d_3/while/clip_by_value_2/Minimum", "op": "Minimum", "input": ["StatefulPartitionedCall/sequential_2/conv_lstm1d_3/while/body/_15/sequential_2/conv_lstm1d_3/while/Add_7", "StatefulPartitionedCall/sequential_2/conv_lstm1d_3/while/body/_15/sequential_2/conv_lstm1d_3/while/clip_by_value_2/Minimum/y"], "attr": {"T": {"type": "DT_FLOAT"}}}, {"name": "StatefulPartitionedCall/sequential_2/conv_lstm1d_3/while/body/_15/sequential_2/conv_lstm1d_3/while/clip_by_value_1/Minimum", "op": "Minimum", "input": ["StatefulPartitionedCall/sequential_2/conv_lstm1d_3/while/body/_15/sequential_2/conv_lstm1d_3/while/Add_3", "StatefulPartitionedCall/sequential_2/conv_lstm1d_3/while/body/_15/sequential_2/conv_lstm1d_3/while/clip_by_value_1/Minimum/y"], "attr": {"T": {"type": "DT_FLOAT"}}}, {"name": "StatefulPartitionedCall/sequential_2/conv_lstm1d_3/while/body/_15/sequential_2/conv_lstm1d_3/while/clip_by_value/Minimum", "op": "Minimum", "input": ["StatefulPartitionedCall/sequential_2/conv_lstm1d_3/while/body/_15/sequential_2/conv_lstm1d_3/while/Add_1", "StatefulPartitionedCall/sequential_2/conv_lstm1d_3/while/body/_15/sequential_2/conv_lstm1d_3/while/clip_by_value/Minimum/y"], "attr": {"T": {"type": "DT_FLOAT"}}}, {"name": "StatefulPartitionedCall/sequential_2/conv_lstm1d_4/while/LoopControlInputs/_76", "op": "NoOp", "input": ["^StatefulPartitionedCall/sequential_2/conv_lstm1d_4/TensorArrayUnstack/TensorListFromTensor", "^StatefulPartitionedCall/sequential_2/conv_lstm1d_4/TensorArrayV2_1", "^StatefulPartitionedCall/sequential_2/conv_lstm1d_4/convolution/Squeeze"], "attr": {"_has_manual_control_dependencies": {"b": true}}}, {"name": "StatefulPartitionedCall/sequential_2/conv_lstm1d_3/while/body/_15/sequential_2/conv_lstm1d_3/while/clip_by_value_2", "op": "Maximum", "input": ["StatefulPartitionedCall/sequential_2/conv_lstm1d_3/while/body/_15/sequential_2/conv_lstm1d_3/while/clip_by_value_2/Minimum", "StatefulPartitionedCall/sequential_2/conv_lstm1d_3/while/body/_15/sequential_2/conv_lstm1d_3/while/clip_by_value_2/y"], "attr": {"T": {"type": "DT_FLOAT"}}}, {"name": "StatefulPartitionedCall/sequential_2/conv_lstm1d_3/while/body/_15/sequential_2/conv_lstm1d_3/while/clip_by_value_1", "op": "Maximum", "input": ["StatefulPartitionedCall/sequential_2/conv_lstm1d_3/while/body/_15/sequential_2/conv_lstm1d_3/while/clip_by_value_1/Minimum", "StatefulPartitionedCall/sequential_2/conv_lstm1d_3/while/body/_15/sequential_2/conv_lstm1d_3/while/clip_by_value_1/y"], "attr": {"T": {"type": "DT_FLOAT"}}}, {"name": "StatefulPartitionedCall/sequential_2/conv_lstm1d_3/while/body/_15/sequential_2/conv_lstm1d_3/while/clip_by_value", "op": "Maximum", "input": ["StatefulPartitionedCall/sequential_2/conv_lstm1d_3/while/body/_15/sequential_2/conv_lstm1d_3/while/clip_by_value/Minimum", "StatefulPartitionedCall/sequential_2/conv_lstm1d_3/while/body/_15/sequential_2/conv_lstm1d_3/while/clip_by_value/y"], "attr": {"T": {"type": "DT_FLOAT"}}}, {"name": "StatefulPartitionedCall/sequential_2/conv_lstm1d_4/while/enter/_72", "op": "Enter", "input": ["StatefulPartitionedCall/sequential_2/conv_lstm1d_4/TensorArrayUnstack/TensorListFromTensor", "^StatefulPartitionedCall/sequential_2/conv_lstm1d_4/while/LoopControlInputs/_76"], "attr": {"T": {"type": "DT_VARIANT"}, "frame_name": {"s": "U3RhdGVmdWxQYXJ0aXRpb25lZENhbGwvc2VxdWVudGlhbF8yL2NvbnZfbHN0bTFkXzQvd2hpbGU="}, "parallel_iterations": {"i": "32"}, "is_constant": {"b": false}}}, {"name": "StatefulPartitionedCall/sequential_2/conv_lstm1d_4/while/enter/_70", "op": "Enter", "input": ["StatefulPartitionedCall/sequential_2/conv_lstm1d_4/convolution/Squeeze", "^StatefulPartitionedCall/sequential_2/conv_lstm1d_4/while/LoopControlInputs/_76"], "attr": {"T": {"type": "DT_FLOAT"}, "frame_name": {"s": "U3RhdGVmdWxQYXJ0aXRpb25lZENhbGwvc2VxdWVudGlhbF8yL2NvbnZfbHN0bTFkXzQvd2hpbGU="}, "parallel_iterations": {"i": "32"}, "is_constant": {"b": false}}}, {"name": "StatefulPartitionedCall/sequential_2/conv_lstm1d_4/while/enter/_68", "op": "Enter", "input": ["StatefulPartitionedCall/sequential_2/conv_lstm1d_4/TensorArrayV2_1", "^StatefulPartitionedCall/sequential_2/conv_lstm1d_4/while/LoopControlInputs/_76"], "attr": {"T": {"type": "DT_VARIANT"}, "is_constant": {"b": false}, "parallel_iterations": {"i": "32"}, "frame_name": {"s": "U3RhdGVmdWxQYXJ0aXRpb25lZENhbGwvc2VxdWVudGlhbF8yL2NvbnZfbHN0bTFkXzQvd2hpbGU="}}}, {"name": "StatefulPartitionedCall/sequential_2/conv_lstm1d_4/while/enter/_69", "op": "Enter", "input": ["StatefulPartitionedCall/sequential_2/conv_lstm1d_4/convolution/Squeeze", "^StatefulPartitionedCall/sequential_2/conv_lstm1d_4/while/LoopControlInputs/_76"], "attr": {"is_constant": {"b": false}, "T": {"type": "DT_FLOAT"}, "frame_name": {"s": "U3RhdGVmdWxQYXJ0aXRpb25lZENhbGwvc2VxdWVudGlhbF8yL2NvbnZfbHN0bTFkXzQvd2hpbGU="}, "parallel_iterations": {"i": "32"}}}, {"name": "StatefulPartitionedCall/sequential_2/conv_lstm1d_4/while/enter/_71", "op": "Enter", "input": ["StatefulPartitionedCall/sequential_2/conv_lstm1d_4/strided_slice", "^StatefulPartitionedCall/sequential_2/conv_lstm1d_4/while/LoopControlInputs/_76"], "attr": {"is_constant": {"b": false}, "T": {"type": "DT_INT32"}, "parallel_iterations": {"i": "32"}, "frame_name": {"s": "U3RhdGVmdWxQYXJ0aXRpb25lZENhbGwvc2VxdWVudGlhbF8yL2NvbnZfbHN0bTFkXzQvd2hpbGU="}}}, {"name": "StatefulPartitionedCall/sequential_2/conv_lstm1d_4/while/enter/_67", "op": "Enter", "input": ["StatefulPartitionedCall/sequential_2/conv_lstm1d_4/time", "^StatefulPartitionedCall/sequential_2/conv_lstm1d_4/while/LoopControlInputs/_76"], "attr": {"parallel_iterations": {"i": "32"}, "T": {"type": "DT_INT32"}, "frame_name": {"s": "U3RhdGVmdWxQYXJ0aXRpb25lZENhbGwvc2VxdWVudGlhbF8yL2NvbnZfbHN0bTFkXzQvd2hpbGU="}, "is_constant": {"b": false}}}, {"name": "StatefulPartitionedCall/sequential_2/conv_lstm1d_4/while/enter/_65", "op": "Enter", "input": ["StatefulPartitionedCall/sequential_2/conv_lstm1d_4/while/loop_counter", "^StatefulPartitionedCall/sequential_2/conv_lstm1d_4/while/LoopControlInputs/_76"], "attr": {"parallel_iterations": {"i": "32"}, "is_constant": {"b": false}, "T": {"type": "DT_INT32"}, "frame_name": {"s": "U3RhdGVmdWxQYXJ0aXRpb25lZENhbGwvc2VxdWVudGlhbF8yL2NvbnZfbHN0bTFkXzQvd2hpbGU="}}}, {"name": "StatefulPartitionedCall/sequential_2/conv_lstm1d_4/while/enter/_66", "op": "Enter", "input": ["StatefulPartitionedCall/sequential_2/conv_lstm1d_4/while/maximum_iterations", "^StatefulPartitionedCall/sequential_2/conv_lstm1d_4/while/LoopControlInputs/_76"], "attr": {"parallel_iterations": {"i": "32"}, "is_constant": {"b": false}, "T": {"type": "DT_INT32"}, "frame_name": {"s": "U3RhdGVmdWxQYXJ0aXRpb25lZENhbGwvc2VxdWVudGlhbF8yL2NvbnZfbHN0bTFkXzQvd2hpbGU="}}}, {"name": "StatefulPartitionedCall/sequential_2/conv_lstm1d_4/while/enter/_73", "op": "Enter", "input": ["Func/StatefulPartitionedCall/input/_4", "^StatefulPartitionedCall/sequential_2/conv_lstm1d_4/while/LoopControlInputs/_76"], "attr": {"frame_name": {"s": "U3RhdGVmdWxQYXJ0aXRpb25lZENhbGwvc2VxdWVudGlhbF8yL2NvbnZfbHN0bTFkXzQvd2hpbGU="}, "T": {"type": "DT_FLOAT"}, "parallel_iterations": {"i": "32"}, "is_constant": {"b": true}, "_has_manual_control_dependencies": {"b": true}}}, {"name": "StatefulPartitionedCall/sequential_2/conv_lstm1d_4/while/enter/_74", "op": "Enter", "input": ["Func/StatefulPartitionedCall/input/_5", "^StatefulPartitionedCall/sequential_2/conv_lstm1d_4/while/LoopControlInputs/_76"], "attr": {"frame_name": {"s": "U3RhdGVmdWxQYXJ0aXRpb25lZENhbGwvc2VxdWVudGlhbF8yL2NvbnZfbHN0bTFkXzQvd2hpbGU="}, "is_constant": {"b": true}, "parallel_iterations": {"i": "32"}, "T": {"type": "DT_FLOAT"}, "_has_manual_control_dependencies": {"b": true}}}, {"name": "StatefulPartitionedCall/sequential_2/conv_lstm1d_4/while/enter/_75", "op": "Enter", "input": ["Func/StatefulPartitionedCall/input/_6", "^StatefulPartitionedCall/sequential_2/conv_lstm1d_4/while/LoopControlInputs/_76"], "attr": {"frame_name": {"s": "U3RhdGVmdWxQYXJ0aXRpb25lZENhbGwvc2VxdWVudGlhbF8yL2NvbnZfbHN0bTFkXzQvd2hpbGU="}, "_has_manual_control_dependencies": {"b": true}, "parallel_iterations": {"i": "32"}, "is_constant": {"b": true}, "T": {"type": "DT_FLOAT"}}}, {"name": "StatefulPartitionedCall/sequential_2/conv_lstm1d_3/while/body/_15/sequential_2/conv_lstm1d_3/while/mul_6", "op": "Mul", "input": ["StatefulPartitionedCall/sequential_2/conv_lstm1d_3/while/body/_15/sequential_2/conv_lstm1d_3/while/clip_by_value_1", "StatefulPartitionedCall/sequential_2/conv_lstm1d_3/while/StatefulPartitionedCall/sequential_2/conv_lstm1d_3/convolution/Squeeze_switch/_42:1"], "attr": {"T": {"type": "DT_FLOAT"}}}, {"name": "StatefulPartitionedCall/sequential_2/conv_lstm1d_3/while/body/_15/sequential_2/conv_lstm1d_3/while/mul_7", "op": "Mul", "input": ["StatefulPartitionedCall/sequential_2/conv_lstm1d_3/while/body/_15/sequential_2/conv_lstm1d_3/while/clip_by_value", "StatefulPartitionedCall/sequential_2/conv_lstm1d_3/while/body/_15/sequential_2/conv_lstm1d_3/while/Tanh"], "attr": {"T": {"type": "DT_FLOAT"}}}, {"name": "StatefulPartitionedCall/sequential_2/conv_lstm1d_4/while/merge/_84", "op": "Merge", "input": ["StatefulPartitionedCall/sequential_2/conv_lstm1d_4/while/enter/_72", "StatefulPartitionedCall/sequential_2/conv_lstm1d_4/while/next_iteration/_111"], "attr": {"T": {"type": "DT_VARIANT"}, "N": {"i": "2"}, "_has_manual_control_dependencies": {"b": true}}}, {"name": "StatefulPartitionedCall/sequential_2/conv_lstm1d_4/while/merge/_82", "op": "Merge", "input": ["StatefulPartitionedCall/sequential_2/conv_lstm1d_4/while/enter/_70", "StatefulPartitionedCall/sequential_2/conv_lstm1d_4/while/next_iteration/_109"], "attr": {"_has_manual_control_dependencies": {"b": true}, "T": {"type": "DT_FLOAT"}, "N": {"i": "2"}}}, {"name": "StatefulPartitionedCall/sequential_2/conv_lstm1d_4/while/merge/_80", "op": "Merge", "input": ["StatefulPartitionedCall/sequential_2/conv_lstm1d_4/while/enter/_68", "StatefulPartitionedCall/sequential_2/conv_lstm1d_4/while/next_iteration/_107"], "attr": {"_has_manual_control_dependencies": {"b": true}, "N": {"i": "2"}, "T": {"type": "DT_VARIANT"}}}, {"name": "StatefulPartitionedCall/sequential_2/conv_lstm1d_4/while/merge/_81", "op": "Merge", "input": ["StatefulPartitionedCall/sequential_2/conv_lstm1d_4/while/enter/_69", "StatefulPartitionedCall/sequential_2/conv_lstm1d_4/while/next_iteration/_108"], "attr": {"T": {"type": "DT_FLOAT"}, "N": {"i": "2"}, "_has_manual_control_dependencies": {"b": true}}}, {"name": "StatefulPartitionedCall/sequential_2/conv_lstm1d_4/while/merge/_83", "op": "Merge", "input": ["StatefulPartitionedCall/sequential_2/conv_lstm1d_4/while/enter/_71", "StatefulPartitionedCall/sequential_2/conv_lstm1d_4/while/next_iteration/_110"], "attr": {"N": {"i": "2"}, "T": {"type": "DT_INT32"}, "_has_manual_control_dependencies": {"b": true}}}, {"name": "StatefulPartitionedCall/sequential_2/conv_lstm1d_4/while/merge/_79", "op": "Merge", "input": ["StatefulPartitionedCall/sequential_2/conv_lstm1d_4/while/enter/_67", "StatefulPartitionedCall/sequential_2/conv_lstm1d_4/while/next_iteration/_106"], "attr": {"T": {"type": "DT_INT32"}, "_has_manual_control_dependencies": {"b": true}, "N": {"i": "2"}}}, {"name": "StatefulPartitionedCall/sequential_2/conv_lstm1d_4/while/merge/_77", "op": "Merge", "input": ["StatefulPartitionedCall/sequential_2/conv_lstm1d_4/while/enter/_65", "StatefulPartitionedCall/sequential_2/conv_lstm1d_4/while/next_iteration/_104"], "attr": {"T": {"type": "DT_INT32"}, "N": {"i": "2"}}}, {"name": "StatefulPartitionedCall/sequential_2/conv_lstm1d_4/while/merge/_78", "op": "Merge", "input": ["StatefulPartitionedCall/sequential_2/conv_lstm1d_4/while/enter/_66", "StatefulPartitionedCall/sequential_2/conv_lstm1d_4/while/next_iteration/_105"], "attr": {"N": {"i": "2"}, "T": {"type": "DT_INT32"}}}, {"name": "StatefulPartitionedCall/sequential_2/conv_lstm1d_3/while/body/_15/sequential_2/conv_lstm1d_3/while/add_5", "op": "AddV2", "input": ["StatefulPartitionedCall/sequential_2/conv_lstm1d_3/while/body/_15/sequential_2/conv_lstm1d_3/while/mul_6", "StatefulPartitionedCall/sequential_2/conv_lstm1d_3/while/body/_15/sequential_2/conv_lstm1d_3/while/mul_7"], "attr": {"T": {"type": "DT_FLOAT"}}}, {"name": "StatefulPartitionedCall/sequential_2/conv_lstm1d_4/while/cond/_63/sequential_2/conv_lstm1d_4/while/Less", "op": "Less", "input": ["StatefulPartitionedCall/sequential_2/conv_lstm1d_4/while/merge/_79", "StatefulPartitionedCall/sequential_2/conv_lstm1d_4/while/merge/_83", "^StatefulPartitionedCall/sequential_2/conv_lstm1d_4/while/merge/_84", "^StatefulPartitionedCall/sequential_2/conv_lstm1d_4/while/enter/_73", "^StatefulPartitionedCall/sequential_2/conv_lstm1d_4/while/enter/_74", "^StatefulPartitionedCall/sequential_2/conv_lstm1d_4/while/enter/_75", "^StatefulPartitionedCall/sequential_2/conv_lstm1d_4/while/merge/_77", "^StatefulPartitionedCall/sequential_2/conv_lstm1d_4/while/merge/_78", "^StatefulPartitionedCall/sequential_2/conv_lstm1d_4/while/merge/_80", "^StatefulPartitionedCall/sequential_2/conv_lstm1d_4/while/merge/_81", "^StatefulPartitionedCall/sequential_2/conv_lstm1d_4/while/merge/_82"], "attr": {"T": {"type": "DT_INT32"}}}, {"name": "StatefulPartitionedCall/sequential_2/conv_lstm1d_3/while/body/_15/sequential_2/conv_lstm1d_3/while/Tanh_1", "op": "Tanh", "input": ["StatefulPartitionedCall/sequential_2/conv_lstm1d_3/while/body/_15/sequential_2/conv_lstm1d_3/while/add_5"], "attr": {"T": {"type": "DT_FLOAT"}}}, {"name": "StatefulPartitionedCall/sequential_2/conv_lstm1d_3/while/next_iteration/_60", "op": "NextIteration", "input": ["StatefulPartitionedCall/sequential_2/conv_lstm1d_3/while/body/_15/sequential_2/conv_lstm1d_3/while/add_5", "^Func/StatefulPartitionedCall/sequential_2/conv_lstm1d_3/while/body/_15/output_control_node/_197", "^StatefulPartitionedCall/sequential_2/conv_lstm1d_3/while/body/_15/sequential_2/conv_lstm1d_3/while/NoOp"], "attr": {"T": {"type": "DT_FLOAT"}}}, {"name": "StatefulPartitionedCall/sequential_2/conv_lstm1d_4/while/LoopCond/_85", "op": "LoopCond", "input": ["StatefulPartitionedCall/sequential_2/conv_lstm1d_4/while/cond/_63/sequential_2/conv_lstm1d_4/while/Less"]}, {"name": "StatefulPartitionedCall/sequential_2/conv_lstm1d_3/while/body/_15/sequential_2/conv_lstm1d_3/while/mul_9", "op": "Mul", "input": ["StatefulPartitionedCall/sequential_2/conv_lstm1d_3/while/body/_15/sequential_2/conv_lstm1d_3/while/clip_by_value_2", "StatefulPartitionedCall/sequential_2/conv_lstm1d_3/while/body/_15/sequential_2/conv_lstm1d_3/while/Tanh_1"], "attr": {"T": {"type": "DT_FLOAT"}}}, {"name": "StatefulPartitionedCall/sequential_2/conv_lstm1d_4/while/StatefulPartitionedCall/sequential_2/conv_lstm1d_4/TensorArrayV2_1_switch/_89", "op": "Switch", "input": ["StatefulPartitionedCall/sequential_2/conv_lstm1d_4/while/merge/_80", "StatefulPartitionedCall/sequential_2/conv_lstm1d_4/while/LoopCond/_85"], "attr": {"T": {"type": "DT_VARIANT"}}}, {"name": "StatefulPartitionedCall/sequential_2/conv_lstm1d_4/while/StatefulPartitionedCall/sequential_2/conv_lstm1d_4/convolution/Squeeze_switch/_90", "op": "Switch", "input": ["StatefulPartitionedCall/sequential_2/conv_lstm1d_4/while/merge/_81", "StatefulPartitionedCall/sequential_2/conv_lstm1d_4/while/LoopCond/_85"], "attr": {"T": {"type": "DT_FLOAT"}}}, {"name": "StatefulPartitionedCall/sequential_2/conv_lstm1d_4/while/StatefulPartitionedCall/sequential_2/conv_lstm1d_4/convolution/Squeeze_switch/_91", "op": "Switch", "input": ["StatefulPartitionedCall/sequential_2/conv_lstm1d_4/while/merge/_82", "StatefulPartitionedCall/sequential_2/conv_lstm1d_4/while/LoopCond/_85"], "attr": {"T": {"type": "DT_FLOAT"}}}, {"name": "StatefulPartitionedCall/sequential_2/conv_lstm1d_4/while/StatefulPartitionedCall/sequential_2/conv_lstm1d_4/strided_slice_switch/_92", "op": "Switch", "input": ["StatefulPartitionedCall/sequential_2/conv_lstm1d_4/while/merge/_83", "StatefulPartitionedCall/sequential_2/conv_lstm1d_4/while/LoopCond/_85"], "attr": {"T": {"type": "DT_INT32"}}}, {"name": "StatefulPartitionedCall/sequential_2/conv_lstm1d_4/while/StatefulPartitionedCall/sequential_2/conv_lstm1d_4/time_switch/_88", "op": "Switch", "input": ["StatefulPartitionedCall/sequential_2/conv_lstm1d_4/while/merge/_79", "StatefulPartitionedCall/sequential_2/conv_lstm1d_4/while/LoopCond/_85"], "attr": {"T": {"type": "DT_INT32"}}}, {"name": "StatefulPartitionedCall/sequential_2/conv_lstm1d_4/while/StatefulPartitionedCall/sequential_2/conv_lstm1d_4/while/loop_counter_switch/_86", "op": "Switch", "input": ["StatefulPartitionedCall/sequential_2/conv_lstm1d_4/while/merge/_77", "StatefulPartitionedCall/sequential_2/conv_lstm1d_4/while/LoopCond/_85"], "attr": {"T": {"type": "DT_INT32"}}}, {"name": "StatefulPartitionedCall/sequential_2/conv_lstm1d_4/while/StatefulPartitionedCall/sequential_2/conv_lstm1d_4/while/maximum_iterations_switch/_87", "op": "Switch", "input": ["StatefulPartitionedCall/sequential_2/conv_lstm1d_4/while/merge/_78", "StatefulPartitionedCall/sequential_2/conv_lstm1d_4/while/LoopCond/_85"], "attr": {"T": {"type": "DT_INT32"}}}, {"name": "StatefulPartitionedCall/sequential_2/conv_lstm1d_4/while/StatefulPartitionedCall/sequential_2/conv_lstm1d_4/TensorArrayUnstack/TensorListFromTensor_switch/_93", "op": "Switch", "input": ["StatefulPartitionedCall/sequential_2/conv_lstm1d_4/while/merge/_84", "StatefulPartitionedCall/sequential_2/conv_lstm1d_4/while/LoopCond/_85"], "attr": {"T": {"type": "DT_VARIANT"}}}, {"name": "StatefulPartitionedCall/sequential_2/conv_lstm1d_3/while/body/_15/sequential_2/conv_lstm1d_3/while/TensorArrayV2Write/TensorListSetItem", "op": "TensorListSetItem", "input": ["StatefulPartitionedCall/sequential_2/conv_lstm1d_3/while/StatefulPartitionedCall/sequential_2/conv_lstm1d_3/TensorArrayV2_1_switch/_40:1", "Func/StatefulPartitionedCall/sequential_2/conv_lstm1d_3/while/body/_15/input/_177", "StatefulPartitionedCall/sequential_2/conv_lstm1d_3/while/body/_15/sequential_2/conv_lstm1d_3/while/mul_9"], "attr": {"element_dtype": {"type": "DT_FLOAT"}}, "experimentalType": {"typeId": "TFT_PRODUCT", "args": [{"typeId": "TFT_ARRAY", "args": [{"typeId": "TFT_TENSOR", "args": [{"typeId": "TFT_FLOAT"}]}]}]}}, {"name": "StatefulPartitionedCall/sequential_2/conv_lstm1d_3/while/next_iteration/_59", "op": "NextIteration", "input": ["StatefulPartitionedCall/sequential_2/conv_lstm1d_3/while/body/_15/sequential_2/conv_lstm1d_3/while/mul_9", "^Func/StatefulPartitionedCall/sequential_2/conv_lstm1d_3/while/body/_15/output_control_node/_197", "^StatefulPartitionedCall/sequential_2/conv_lstm1d_3/while/body/_15/sequential_2/conv_lstm1d_3/while/NoOp"], "attr": {"T": {"type": "DT_FLOAT"}}}, {"name": "StatefulPartitionedCall/sequential_2/conv_lstm1d_4/while/exit/_98", "op": "Exit", "input": ["StatefulPartitionedCall/sequential_2/conv_lstm1d_4/while/StatefulPartitionedCall/sequential_2/conv_lstm1d_4/TensorArrayV2_1_switch/_89"], "attr": {"_has_manual_control_dependencies": {"b": true}, "T": {"type": "DT_VARIANT"}}}, {"name": "StatefulPartitionedCall/sequential_2/conv_lstm1d_4/while/exit/_99", "op": "Exit", "input": ["StatefulPartitionedCall/sequential_2/conv_lstm1d_4/while/StatefulPartitionedCall/sequential_2/conv_lstm1d_4/convolution/Squeeze_switch/_90"], "attr": {"T": {"type": "DT_FLOAT"}, "_has_manual_control_dependencies": {"b": true}}}, {"name": "StatefulPartitionedCall/sequential_2/conv_lstm1d_4/while/exit/_100", "op": "Exit", "input": ["StatefulPartitionedCall/sequential_2/conv_lstm1d_4/while/StatefulPartitionedCall/sequential_2/conv_lstm1d_4/convolution/Squeeze_switch/_91"], "attr": {"T": {"type": "DT_FLOAT"}, "_has_manual_control_dependencies": {"b": true}}}, {"name": "StatefulPartitionedCall/sequential_2/conv_lstm1d_4/while/exit/_101", "op": "Exit", "input": ["StatefulPartitionedCall/sequential_2/conv_lstm1d_4/while/StatefulPartitionedCall/sequential_2/conv_lstm1d_4/strided_slice_switch/_92"], "attr": {"T": {"type": "DT_INT32"}, "_has_manual_control_dependencies": {"b": true}}}, {"name": "StatefulPartitionedCall/sequential_2/conv_lstm1d_4/while/exit/_97", "op": "Exit", "input": ["StatefulPartitionedCall/sequential_2/conv_lstm1d_4/while/StatefulPartitionedCall/sequential_2/conv_lstm1d_4/time_switch/_88"], "attr": {"T": {"type": "DT_INT32"}, "_has_manual_control_dependencies": {"b": true}}}, {"name": "StatefulPartitionedCall/sequential_2/conv_lstm1d_4/while/exit/_95", "op": "Exit", "input": ["StatefulPartitionedCall/sequential_2/conv_lstm1d_4/while/StatefulPartitionedCall/sequential_2/conv_lstm1d_4/while/loop_counter_switch/_86"], "attr": {"_has_manual_control_dependencies": {"b": true}, "T": {"type": "DT_INT32"}}}, {"name": "StatefulPartitionedCall/sequential_2/conv_lstm1d_4/while/loop_body_control/_94", "op": "Identity", "input": ["StatefulPartitionedCall/sequential_2/conv_lstm1d_4/while/StatefulPartitionedCall/sequential_2/conv_lstm1d_4/while/loop_counter_switch/_86:1"], "attr": {"_has_manual_control_dependencies": {"b": true}, "T": {"type": "DT_INT32"}}}, {"name": "StatefulPartitionedCall/sequential_2/conv_lstm1d_4/while/exit/_96", "op": "Exit", "input": ["StatefulPartitionedCall/sequential_2/conv_lstm1d_4/while/StatefulPartitionedCall/sequential_2/conv_lstm1d_4/while/maximum_iterations_switch/_87"], "attr": {"_has_manual_control_dependencies": {"b": true}, "T": {"type": "DT_INT32"}}}, {"name": "StatefulPartitionedCall/sequential_2/conv_lstm1d_4/while/exit/_102", "op": "Exit", "input": ["StatefulPartitionedCall/sequential_2/conv_lstm1d_4/while/StatefulPartitionedCall/sequential_2/conv_lstm1d_4/TensorArrayUnstack/TensorListFromTensor_switch/_93"], "attr": {"_has_manual_control_dependencies": {"b": true}, "T": {"type": "DT_VARIANT"}}}, {"name": "StatefulPartitionedCall/sequential_2/conv_lstm1d_3/while/next_iteration/_58", "op": "NextIteration", "input": ["StatefulPartitionedCall/sequential_2/conv_lstm1d_3/while/body/_15/sequential_2/conv_lstm1d_3/while/TensorArrayV2Write/TensorListSetItem", "^Func/StatefulPartitionedCall/sequential_2/conv_lstm1d_3/while/body/_15/output_control_node/_197", "^StatefulPartitionedCall/sequential_2/conv_lstm1d_3/while/body/_15/sequential_2/conv_lstm1d_3/while/NoOp"], "attr": {"T": {"type": "DT_VARIANT"}}}, {"name": "StatefulPartitionedCall/sequential_2/conv_lstm1d_4/TensorArrayV2Stack/TensorListStack", "op": "TensorListStack", "input": ["StatefulPartitionedCall/sequential_2/conv_lstm1d_4/while/exit/_98", "StatefulPartitionedCall/sequential_2/conv_lstm1d_4/TensorArrayV2Stack/TensorListStack/element_shape"], "attr": {"element_dtype": {"type": "DT_FLOAT"}, "num_elements": {"i": "-1"}}}, {"name": "Func/StatefulPartitionedCall/sequential_2/conv_lstm1d_4/while/body/_64/input_control_node/_211", "op": "NoOp", "input": ["^StatefulPartitionedCall/sequential_2/conv_lstm1d_4/while/StatefulPartitionedCall/sequential_2/conv_lstm1d_4/TensorArrayUnstack/TensorListFromTensor_switch/_93", "^StatefulPartitionedCall/sequential_2/conv_lstm1d_4/while/StatefulPartitionedCall/sequential_2/conv_lstm1d_4/TensorArrayV2_1_switch/_89", "^StatefulPartitionedCall/sequential_2/conv_lstm1d_4/while/StatefulPartitionedCall/sequential_2/conv_lstm1d_4/convolution/Squeeze_switch/_90", "^StatefulPartitionedCall/sequential_2/conv_lstm1d_4/while/StatefulPartitionedCall/sequential_2/conv_lstm1d_4/convolution/Squeeze_switch/_91", "^StatefulPartitionedCall/sequential_2/conv_lstm1d_4/while/StatefulPartitionedCall/sequential_2/conv_lstm1d_4/strided_slice_switch/_92", "^StatefulPartitionedCall/sequential_2/conv_lstm1d_4/while/StatefulPartitionedCall/sequential_2/conv_lstm1d_4/time_switch/_88", "^StatefulPartitionedCall/sequential_2/conv_lstm1d_4/while/loop_body_control/_94", "^StatefulPartitionedCall/sequential_2/conv_lstm1d_4/while/StatefulPartitionedCall/sequential_2/conv_lstm1d_4/while/maximum_iterations_switch/_87", "^StatefulPartitionedCall/sequential_2/conv_lstm1d_4/while/enter/_73", "^StatefulPartitionedCall/sequential_2/conv_lstm1d_4/while/enter/_74", "^StatefulPartitionedCall/sequential_2/conv_lstm1d_4/while/enter/_75"], "attr": {"_has_manual_control_dependencies": {"b": true}}}, {"name": "StatefulPartitionedCall/sequential_2/conv_lstm1d_4/transpose_1", "op": "Transpose", "input": ["StatefulPartitionedCall/sequential_2/conv_lstm1d_4/TensorArrayV2Stack/TensorListStack", "StatefulPartitionedCall/sequential_2/conv_lstm1d_4/transpose_1/perm"], "attr": {"Tperm": {"type": "DT_INT32"}, "T": {"type": "DT_FLOAT"}}}, {"name": "StatefulPartitionedCall/sequential_2/conv_lstm1d_4/while/body/_64/sequential_2/conv_lstm1d_4/while/convolution_3/ExpandDims/dim", "op": "Const", "input": ["^Func/StatefulPartitionedCall/sequential_2/conv_lstm1d_4/while/body/_64/input_control_node/_211"], "attr": {"value": {"tensor": {"dtype": "DT_INT32", "tensorShape": {}}}, "dtype": {"type": "DT_INT32"}}}, {"name": "StatefulPartitionedCall/sequential_2/conv_lstm1d_4/while/body/_64/sequential_2/conv_lstm1d_4/while/convolution_3/ExpandDims_1", "op": "Const", "input": ["^Func/StatefulPartitionedCall/sequential_2/conv_lstm1d_4/while/body/_64/input_control_node/_211", "^StatefulPartitionedCall/sequential_2/conv_lstm1d_4/while/enter/_73"], "attr": {"dtype": {"type": "DT_FLOAT"}, "value": {"tensor": {"dtype": "DT_FLOAT", "tensorShape": {"dim": [{"size": "1"}, {"size": "3"}, {"size": "4"}, {"size": "8"}]}}}}}, {"name": "StatefulPartitionedCall/sequential_2/conv_lstm1d_4/while/body/_64/sequential_2/conv_lstm1d_4/while/convolution_7/ExpandDims/dim", "op": "Const", "input": ["^Func/StatefulPartitionedCall/sequential_2/conv_lstm1d_4/while/body/_64/input_control_node/_211"], "attr": {"dtype": {"type": "DT_INT32"}, "value": {"tensor": {"dtype": "DT_INT32", "tensorShape": {}}}}}, {"name": "StatefulPartitionedCall/sequential_2/conv_lstm1d_4/while/body/_64/sequential_2/conv_lstm1d_4/while/convolution_7/ExpandDims_1", "op": "Const", "input": ["^Func/StatefulPartitionedCall/sequential_2/conv_lstm1d_4/while/body/_64/input_control_node/_211", "^StatefulPartitionedCall/sequential_2/conv_lstm1d_4/while/enter/_74"], "attr": {"value": {"tensor": {"dtype": "DT_FLOAT", "tensorShape": {"dim": [{"size": "1"}, {"size": "3"}, {"size": "8"}, {"size": "8"}]}}}, "dtype": {"type": "DT_FLOAT"}}}, {"name": "StatefulPartitionedCall/sequential_2/conv_lstm1d_4/while/body/_64/sequential_2/conv_lstm1d_4/while/Const_4", "op": "Const", "input": ["^Func/StatefulPartitionedCall/sequential_2/conv_lstm1d_4/while/body/_64/input_control_node/_211"], "attr": {"value": {"tensor": {"dtype": "DT_FLOAT", "tensorShape": {}}}, "dtype": {"type": "DT_FLOAT"}}}, {"name": "StatefulPartitionedCall/sequential_2/conv_lstm1d_4/while/body/_64/sequential_2/conv_lstm1d_4/while/Const_5", "op": "Const", "input": ["^Func/StatefulPartitionedCall/sequential_2/conv_lstm1d_4/while/body/_64/input_control_node/_211"], "attr": {"value": {"tensor": {"dtype": "DT_FLOAT", "tensorShape": {}}}, "dtype": {"type": "DT_FLOAT"}}}, {"name": "StatefulPartitionedCall/sequential_2/conv_lstm1d_4/while/body/_64/sequential_2/conv_lstm1d_4/while/clip_by_value_2/Minimum/y", "op": "Const", "input": ["^Func/StatefulPartitionedCall/sequential_2/conv_lstm1d_4/while/body/_64/input_control_node/_211"], "attr": {"dtype": {"type": "DT_FLOAT"}, "value": {"tensor": {"dtype": "DT_FLOAT", "tensorShape": {}}}}}, {"name": "StatefulPartitionedCall/sequential_2/conv_lstm1d_4/while/body/_64/sequential_2/conv_lstm1d_4/while/clip_by_value_2/y", "op": "Const", "input": ["^Func/StatefulPartitionedCall/sequential_2/conv_lstm1d_4/while/body/_64/input_control_node/_211"], "attr": {"value": {"tensor": {"dtype": "DT_FLOAT", "tensorShape": {}}}, "dtype": {"type": "DT_FLOAT"}}}, {"name": "StatefulPartitionedCall/sequential_2/conv_lstm1d_4/while/body/_64/sequential_2/conv_lstm1d_4/while/convolution_1/ExpandDims/dim", "op": "Const", "input": ["^Func/StatefulPartitionedCall/sequential_2/conv_lstm1d_4/while/body/_64/input_control_node/_211"], "attr": {"dtype": {"type": "DT_INT32"}, "value": {"tensor": {"dtype": "DT_INT32", "tensorShape": {}}}}}, {"name": "StatefulPartitionedCall/sequential_2/conv_lstm1d_4/while/body/_64/sequential_2/conv_lstm1d_4/while/convolution_1/ExpandDims_1", "op": "Const", "input": ["^Func/StatefulPartitionedCall/sequential_2/conv_lstm1d_4/while/body/_64/input_control_node/_211", "^StatefulPartitionedCall/sequential_2/conv_lstm1d_4/while/enter/_73"], "attr": {"dtype": {"type": "DT_FLOAT"}, "value": {"tensor": {"dtype": "DT_FLOAT", "tensorShape": {"dim": [{"size": "1"}, {"size": "3"}, {"size": "4"}, {"size": "8"}]}}}}}, {"name": "StatefulPartitionedCall/sequential_2/conv_lstm1d_4/while/body/_64/sequential_2/conv_lstm1d_4/while/convolution_5/ExpandDims/dim", "op": "Const", "input": ["^Func/StatefulPartitionedCall/sequential_2/conv_lstm1d_4/while/body/_64/input_control_node/_211"], "attr": {"dtype": {"type": "DT_INT32"}, "value": {"tensor": {"dtype": "DT_INT32", "tensorShape": {}}}}}, {"name": "StatefulPartitionedCall/sequential_2/conv_lstm1d_4/while/body/_64/sequential_2/conv_lstm1d_4/while/convolution_5/ExpandDims_1", "op": "Const", "input": ["^Func/StatefulPartitionedCall/sequential_2/conv_lstm1d_4/while/body/_64/input_control_node/_211", "^StatefulPartitionedCall/sequential_2/conv_lstm1d_4/while/enter/_74"], "attr": {"value": {"tensor": {"dtype": "DT_FLOAT", "tensorShape": {"dim": [{"size": "1"}, {"size": "3"}, {"size": "8"}, {"size": "8"}]}}}, "dtype": {"type": "DT_FLOAT"}}}, {"name": "StatefulPartitionedCall/sequential_2/conv_lstm1d_4/while/body/_64/sequential_2/conv_lstm1d_4/while/Const_2", "op": "Const", "input": ["^Func/StatefulPartitionedCall/sequential_2/conv_lstm1d_4/while/body/_64/input_control_node/_211"], "attr": {"dtype": {"type": "DT_FLOAT"}, "value": {"tensor": {"dtype": "DT_FLOAT", "tensorShape": {}}}}}, {"name": "StatefulPartitionedCall/sequential_2/conv_lstm1d_4/while/body/_64/sequential_2/conv_lstm1d_4/while/Const_3", "op": "Const", "input": ["^Func/StatefulPartitionedCall/sequential_2/conv_lstm1d_4/while/body/_64/input_control_node/_211"], "attr": {"value": {"tensor": {"dtype": "DT_FLOAT", "tensorShape": {}}}, "dtype": {"type": "DT_FLOAT"}}}, {"name": "StatefulPartitionedCall/sequential_2/conv_lstm1d_4/while/body/_64/sequential_2/conv_lstm1d_4/while/clip_by_value_1/Minimum/y", "op": "Const", "input": ["^Func/StatefulPartitionedCall/sequential_2/conv_lstm1d_4/while/body/_64/input_control_node/_211"], "attr": {"value": {"tensor": {"dtype": "DT_FLOAT", "tensorShape": {}}}, "dtype": {"type": "DT_FLOAT"}}}, {"name": "StatefulPartitionedCall/sequential_2/conv_lstm1d_4/while/body/_64/sequential_2/conv_lstm1d_4/while/clip_by_value_1/y", "op": "Const", "input": ["^Func/StatefulPartitionedCall/sequential_2/conv_lstm1d_4/while/body/_64/input_control_node/_211"], "attr": {"value": {"tensor": {"dtype": "DT_FLOAT", "tensorShape": {}}}, "dtype": {"type": "DT_FLOAT"}}}, {"name": "StatefulPartitionedCall/sequential_2/conv_lstm1d_4/while/body/_64/sequential_2/conv_lstm1d_4/while/convolution/ExpandDims/dim", "op": "Const", "input": ["^Func/StatefulPartitionedCall/sequential_2/conv_lstm1d_4/while/body/_64/input_control_node/_211"], "attr": {"value": {"tensor": {"dtype": "DT_INT32", "tensorShape": {}}}, "dtype": {"type": "DT_INT32"}}}, {"name": "StatefulPartitionedCall/sequential_2/conv_lstm1d_4/while/body/_64/sequential_2/conv_lstm1d_4/while/convolution/ExpandDims_1", "op": "Const", "input": ["^Func/StatefulPartitionedCall/sequential_2/conv_lstm1d_4/while/body/_64/input_control_node/_211", "^StatefulPartitionedCall/sequential_2/conv_lstm1d_4/while/enter/_73"], "attr": {"dtype": {"type": "DT_FLOAT"}, "value": {"tensor": {"dtype": "DT_FLOAT", "tensorShape": {"dim": [{"size": "1"}, {"size": "3"}, {"size": "4"}, {"size": "8"}]}}}}}, {"name": "StatefulPartitionedCall/sequential_2/conv_lstm1d_4/while/body/_64/sequential_2/conv_lstm1d_4/while/convolution_4/ExpandDims/dim", "op": "Const", "input": ["^Func/StatefulPartitionedCall/sequential_2/conv_lstm1d_4/while/body/_64/input_control_node/_211"], "attr": {"dtype": {"type": "DT_INT32"}, "value": {"tensor": {"dtype": "DT_INT32", "tensorShape": {}}}}}, {"name": "StatefulPartitionedCall/sequential_2/conv_lstm1d_4/while/body/_64/sequential_2/conv_lstm1d_4/while/convolution_4/ExpandDims_1", "op": "Const", "input": ["^Func/StatefulPartitionedCall/sequential_2/conv_lstm1d_4/while/body/_64/input_control_node/_211", "^StatefulPartitionedCall/sequential_2/conv_lstm1d_4/while/enter/_74"], "attr": {"value": {"tensor": {"dtype": "DT_FLOAT", "tensorShape": {"dim": [{"size": "1"}, {"size": "3"}, {"size": "8"}, {"size": "8"}]}}}, "dtype": {"type": "DT_FLOAT"}}}, {"name": "StatefulPartitionedCall/sequential_2/conv_lstm1d_4/while/body/_64/sequential_2/conv_lstm1d_4/while/Const", "op": "Const", "input": ["^Func/StatefulPartitionedCall/sequential_2/conv_lstm1d_4/while/body/_64/input_control_node/_211"], "attr": {"dtype": {"type": "DT_FLOAT"}, "value": {"tensor": {"dtype": "DT_FLOAT", "tensorShape": {}}}}}, {"name": "StatefulPartitionedCall/sequential_2/conv_lstm1d_4/while/body/_64/sequential_2/conv_lstm1d_4/while/Const_1", "op": "Const", "input": ["^Func/StatefulPartitionedCall/sequential_2/conv_lstm1d_4/while/body/_64/input_control_node/_211"], "attr": {"value": {"tensor": {"dtype": "DT_FLOAT", "tensorShape": {}}}, "dtype": {"type": "DT_FLOAT"}}}, {"name": "StatefulPartitionedCall/sequential_2/conv_lstm1d_4/while/body/_64/sequential_2/conv_lstm1d_4/while/clip_by_value/Minimum/y", "op": "Const", "input": ["^Func/StatefulPartitionedCall/sequential_2/conv_lstm1d_4/while/body/_64/input_control_node/_211"], "attr": {"value": {"tensor": {"dtype": "DT_FLOAT", "tensorShape": {}}}, "dtype": {"type": "DT_FLOAT"}}}, {"name": "StatefulPartitionedCall/sequential_2/conv_lstm1d_4/while/body/_64/sequential_2/conv_lstm1d_4/while/clip_by_value/y", "op": "Const", "input": ["^Func/StatefulPartitionedCall/sequential_2/conv_lstm1d_4/while/body/_64/input_control_node/_211"], "attr": {"value": {"tensor": {"dtype": "DT_FLOAT", "tensorShape": {}}}, "dtype": {"type": "DT_FLOAT"}}}, {"name": "StatefulPartitionedCall/sequential_2/conv_lstm1d_4/while/body/_64/sequential_2/conv_lstm1d_4/while/TensorArrayV2Read/TensorListGetItem/element_shape", "op": "Const", "input": ["^Func/StatefulPartitionedCall/sequential_2/conv_lstm1d_4/while/body/_64/input_control_node/_211"], "attr": {"dtype": {"type": "DT_INT32"}, "value": {"tensor": {"dtype": "DT_INT32", "tensorShape": {"dim": [{"size": "3"}]}}}}}, {"name": "StatefulPartitionedCall/sequential_2/conv_lstm1d_4/while/body/_64/sequential_2/conv_lstm1d_4/while/convolution_2/ExpandDims/dim", "op": "Const", "input": ["^Func/StatefulPartitionedCall/sequential_2/conv_lstm1d_4/while/body/_64/input_control_node/_211"], "attr": {"value": {"tensor": {"dtype": "DT_INT32", "tensorShape": {}}}, "dtype": {"type": "DT_INT32"}}}, {"name": "StatefulPartitionedCall/sequential_2/conv_lstm1d_4/while/body/_64/sequential_2/conv_lstm1d_4/while/convolution_2/ExpandDims_1", "op": "Const", "input": ["^Func/StatefulPartitionedCall/sequential_2/conv_lstm1d_4/while/body/_64/input_control_node/_211", "^StatefulPartitionedCall/sequential_2/conv_lstm1d_4/while/enter/_73"], "attr": {"value": {"tensor": {"dtype": "DT_FLOAT", "tensorShape": {"dim": [{"size": "1"}, {"size": "3"}, {"size": "4"}, {"size": "8"}]}}}, "dtype": {"type": "DT_FLOAT"}}}, {"name": "Func/StatefulPartitionedCall/sequential_2/conv_lstm1d_4/while/body/_64/input/_216", "op": "Identity", "input": ["StatefulPartitionedCall/sequential_2/conv_lstm1d_4/while/StatefulPartitionedCall/sequential_2/conv_lstm1d_4/convolution/Squeeze_switch/_90:1", "^Func/StatefulPartitionedCall/sequential_2/conv_lstm1d_4/while/body/_64/input_control_node/_211"], "attr": {"T": {"type": "DT_FLOAT"}}}, {"name": "StatefulPartitionedCall/sequential_2/conv_lstm1d_4/while/body/_64/sequential_2/conv_lstm1d_4/while/convolution_6/ExpandDims/dim", "op": "Const", "input": ["^Func/StatefulPartitionedCall/sequential_2/conv_lstm1d_4/while/body/_64/input_control_node/_211"], "attr": {"value": {"tensor": {"dtype": "DT_INT32", "tensorShape": {}}}, "dtype": {"type": "DT_INT32"}}}, {"name": "StatefulPartitionedCall/sequential_2/conv_lstm1d_4/while/body/_64/sequential_2/conv_lstm1d_4/while/convolution_6/ExpandDims_1", "op": "Const", "input": ["^Func/StatefulPartitionedCall/sequential_2/conv_lstm1d_4/while/body/_64/input_control_node/_211", "^StatefulPartitionedCall/sequential_2/conv_lstm1d_4/while/enter/_74"], "attr": {"value": {"tensor": {"dtype": "DT_FLOAT", "tensorShape": {"dim": [{"size": "1"}, {"size": "3"}, {"size": "8"}, {"size": "8"}]}}}, "dtype": {"type": "DT_FLOAT"}}}, {"name": "Func/StatefulPartitionedCall/sequential_2/conv_lstm1d_4/while/body/_64/input/_214", "op": "Identity", "input": ["StatefulPartitionedCall/sequential_2/conv_lstm1d_4/while/StatefulPartitionedCall/sequential_2/conv_lstm1d_4/time_switch/_88:1", "^Func/StatefulPartitionedCall/sequential_2/conv_lstm1d_4/while/body/_64/input_control_node/_211"], "attr": {"T": {"type": "DT_INT32"}}}, {"name": "StatefulPartitionedCall/sequential_2/conv_lstm1d_4/while/body/_64/sequential_2/conv_lstm1d_4/while/add_8/y", "op": "Const", "input": ["^Func/StatefulPartitionedCall/sequential_2/conv_lstm1d_4/while/body/_64/input_control_node/_211"], "attr": {"dtype": {"type": "DT_INT32"}, "value": {"tensor": {"dtype": "DT_INT32", "tensorShape": {}}}}}, {"name": "StatefulPartitionedCall/sequential_2/conv_lstm1d_4/while/body/_64/sequential_2/conv_lstm1d_4/while/add_9/y", "op": "Const", "input": ["^Func/StatefulPartitionedCall/sequential_2/conv_lstm1d_4/while/body/_64/input_control_node/_211"], "attr": {"value": {"tensor": {"dtype": "DT_INT32", "tensorShape": {}}}, "dtype": {"type": "DT_INT32"}}}, {"name": "ConstantFolding/StatefulPartitionedCall/sequential_2/conv_lstm1d_4/while/body/_64/sequential_2/conv_lstm1d_4/while/split_2-folded-3", "op": "Const", "input": ["^Func/StatefulPartitionedCall/sequential_2/conv_lstm1d_4/while/body/_64/input_control_node/_211", "^StatefulPartitionedCall/sequential_2/conv_lstm1d_4/while/enter/_75"], "attr": {"value": {"tensor": {"dtype": "DT_FLOAT", "tensorShape": {"dim": [{"size": "8"}]}}}, "dtype": {"type": "DT_FLOAT"}}}, {"name": "ConstantFolding/StatefulPartitionedCall/sequential_2/conv_lstm1d_4/while/body/_64/sequential_2/conv_lstm1d_4/while/split_2-folded-1", "op": "Const", "input": ["^Func/StatefulPartitionedCall/sequential_2/conv_lstm1d_4/while/body/_64/input_control_node/_211", "^StatefulPartitionedCall/sequential_2/conv_lstm1d_4/while/enter/_75"], "attr": {"value": {"tensor": {"dtype": "DT_FLOAT", "tensorShape": {"dim": [{"size": "8"}]}}}, "dtype": {"type": "DT_FLOAT"}}}, {"name": "ConstantFolding/StatefulPartitionedCall/sequential_2/conv_lstm1d_4/while/body/_64/sequential_2/conv_lstm1d_4/while/split_2-folded-0", "op": "Const", "input": ["^Func/StatefulPartitionedCall/sequential_2/conv_lstm1d_4/while/body/_64/input_control_node/_211", "^StatefulPartitionedCall/sequential_2/conv_lstm1d_4/while/enter/_75"], "attr": {"value": {"tensor": {"dtype": "DT_FLOAT", "tensorShape": {"dim": [{"size": "8"}]}}}, "dtype": {"type": "DT_FLOAT"}}}, {"name": "ConstantFolding/StatefulPartitionedCall/sequential_2/conv_lstm1d_4/while/body/_64/sequential_2/conv_lstm1d_4/while/split_2-folded-2", "op": "Const", "input": ["^Func/StatefulPartitionedCall/sequential_2/conv_lstm1d_4/while/body/_64/input_control_node/_211", "^StatefulPartitionedCall/sequential_2/conv_lstm1d_4/while/enter/_75"], "attr": {"dtype": {"type": "DT_FLOAT"}, "value": {"tensor": {"dtype": "DT_FLOAT", "tensorShape": {"dim": [{"size": "8"}]}}}}}, {"name": "Func/StatefulPartitionedCall/sequential_2/conv_lstm1d_4/while/body/_64/output_control_node/_234", "op": "NoOp", "input": ["^StatefulPartitionedCall/sequential_2/conv_lstm1d_4/while/enter/_73", "^StatefulPartitionedCall/sequential_2/conv_lstm1d_4/while/enter/_74", "^Func/StatefulPartitionedCall/sequential_2/conv_lstm1d_4/while/body/_64/input_control_node/_211", "^StatefulPartitionedCall/sequential_2/conv_lstm1d_4/while/enter/_75"], "attr": {"_has_manual_control_dependencies": {"b": true}}}, {"name": "StatefulPartitionedCall/sequential_2/conv_lstm1d_4/while/body/_64/sequential_2/conv_lstm1d_4/while/NoOp", "op": "NoOp", "input": ["^StatefulPartitionedCall/sequential_2/conv_lstm1d_4/while/enter/_73", "^StatefulPartitionedCall/sequential_2/conv_lstm1d_4/while/enter/_74", "^Func/StatefulPartitionedCall/sequential_2/conv_lstm1d_4/while/body/_64/input_control_node/_211", "^StatefulPartitionedCall/sequential_2/conv_lstm1d_4/while/enter/_75"], "attr": {"_has_manual_control_dependencies": {"b": true}, "_acd_function_control_output": {"b": true}}}, {"name": "StatefulPartitionedCall/sequential_2/max_pooling2d_5/MaxPool", "op": "MaxPool", "input": ["StatefulPartitionedCall/sequential_2/conv_lstm1d_4/transpose_1"], "attr": {"ksize": {"list": {"i": ["1", "1", "2", "1"]}}, "data_format": {"s": "TkhXQw=="}, "strides": {"list": {"i": ["1", "1", "2", "1"]}}, "T": {"type": "DT_FLOAT"}, "explicit_paddings": {"list": {}}, "padding": {"s": "U0FNRQ=="}}}, {"name": "StatefulPartitionedCall/sequential_2/conv_lstm1d_4/while/body/_64/sequential_2/conv_lstm1d_4/while/convolution_7/ExpandDims", "op": "ExpandDims", "input": ["Func/StatefulPartitionedCall/sequential_2/conv_lstm1d_4/while/body/_64/input/_216", "StatefulPartitionedCall/sequential_2/conv_lstm1d_4/while/body/_64/sequential_2/conv_lstm1d_4/while/convolution_7/ExpandDims/dim"], "attr": {"Tdim": {"type": "DT_INT32"}, "T": {"type": "DT_FLOAT"}}}, {"name": "StatefulPartitionedCall/sequential_2/conv_lstm1d_4/while/body/_64/sequential_2/conv_lstm1d_4/while/convolution_5/ExpandDims", "op": "ExpandDims", "input": ["Func/StatefulPartitionedCall/sequential_2/conv_lstm1d_4/while/body/_64/input/_216", "StatefulPartitionedCall/sequential_2/conv_lstm1d_4/while/body/_64/sequential_2/conv_lstm1d_4/while/convolution_5/ExpandDims/dim"], "attr": {"Tdim": {"type": "DT_INT32"}, "T": {"type": "DT_FLOAT"}}}, {"name": "StatefulPartitionedCall/sequential_2/conv_lstm1d_4/while/body/_64/sequential_2/conv_lstm1d_4/while/convolution_4/ExpandDims", "op": "ExpandDims", "input": ["Func/StatefulPartitionedCall/sequential_2/conv_lstm1d_4/while/body/_64/input/_216", "StatefulPartitionedCall/sequential_2/conv_lstm1d_4/while/body/_64/sequential_2/conv_lstm1d_4/while/convolution_4/ExpandDims/dim"], "attr": {"Tdim": {"type": "DT_INT32"}, "T": {"type": "DT_FLOAT"}}}, {"name": "StatefulPartitionedCall/sequential_2/conv_lstm1d_4/while/body/_64/sequential_2/conv_lstm1d_4/while/convolution_6/ExpandDims", "op": "ExpandDims", "input": ["Func/StatefulPartitionedCall/sequential_2/conv_lstm1d_4/while/body/_64/input/_216", "StatefulPartitionedCall/sequential_2/conv_lstm1d_4/while/body/_64/sequential_2/conv_lstm1d_4/while/convolution_6/ExpandDims/dim"], "attr": {"Tdim": {"type": "DT_INT32"}, "T": {"type": "DT_FLOAT"}}}, {"name": "StatefulPartitionedCall/sequential_2/conv_lstm1d_4/while/body/_64/sequential_2/conv_lstm1d_4/while/TensorArrayV2Read/TensorListGetItem", "op": "TensorListGetItem", "input": ["StatefulPartitionedCall/sequential_2/conv_lstm1d_4/while/StatefulPartitionedCall/sequential_2/conv_lstm1d_4/TensorArrayUnstack/TensorListFromTensor_switch/_93:1", "Func/StatefulPartitionedCall/sequential_2/conv_lstm1d_4/while/body/_64/input/_214", "StatefulPartitionedCall/sequential_2/conv_lstm1d_4/while/body/_64/sequential_2/conv_lstm1d_4/while/TensorArrayV2Read/TensorListGetItem/element_shape"], "attr": {"element_dtype": {"type": "DT_FLOAT"}}}, {"name": "StatefulPartitionedCall/sequential_2/conv_lstm1d_4/while/body/_64/sequential_2/conv_lstm1d_4/while/add_8", "op": "AddV2", "input": ["Func/StatefulPartitionedCall/sequential_2/conv_lstm1d_4/while/body/_64/input/_214", "StatefulPartitionedCall/sequential_2/conv_lstm1d_4/while/body/_64/sequential_2/conv_lstm1d_4/while/add_8/y"], "attr": {"T": {"type": "DT_INT32"}}}, {"name": "StatefulPartitionedCall/sequential_2/conv_lstm1d_4/while/body/_64/sequential_2/conv_lstm1d_4/while/add_9", "op": "AddV2", "input": ["StatefulPartitionedCall/sequential_2/conv_lstm1d_4/while/StatefulPartitionedCall/sequential_2/conv_lstm1d_4/while/loop_counter_switch/_86:1", "StatefulPartitionedCall/sequential_2/conv_lstm1d_4/while/body/_64/sequential_2/conv_lstm1d_4/while/add_9/y"], "attr": {"T": {"type": "DT_INT32"}}}, {"name": "StatefulPartitionedCall/sequential_2/conv_lstm1d_4/while/next_iteration/_111", "op": "NextIteration", "input": ["StatefulPartitionedCall/sequential_2/conv_lstm1d_4/while/StatefulPartitionedCall/sequential_2/conv_lstm1d_4/TensorArrayUnstack/TensorListFromTensor_switch/_93:1", "^Func/StatefulPartitionedCall/sequential_2/conv_lstm1d_4/while/body/_64/output_control_node/_234", "^Func/StatefulPartitionedCall/sequential_2/conv_lstm1d_4/while/body/_64/input_control_node/_211"], "attr": {"T": {"type": "DT_VARIANT"}}}, {"name": "StatefulPartitionedCall/sequential_2/conv_lstm1d_4/while/next_iteration/_110", "op": "NextIteration", "input": ["StatefulPartitionedCall/sequential_2/conv_lstm1d_4/while/StatefulPartitionedCall/sequential_2/conv_lstm1d_4/strided_slice_switch/_92:1", "^Func/StatefulPartitionedCall/sequential_2/conv_lstm1d_4/while/body/_64/output_control_node/_234", "^Func/StatefulPartitionedCall/sequential_2/conv_lstm1d_4/while/body/_64/input_control_node/_211"], "attr": {"T": {"type": "DT_INT32"}}}, {"name": "StatefulPartitionedCall/sequential_2/conv_lstm1d_4/while/next_iteration/_105", "op": "NextIteration", "input": ["StatefulPartitionedCall/sequential_2/conv_lstm1d_4/while/StatefulPartitionedCall/sequential_2/conv_lstm1d_4/while/maximum_iterations_switch/_87:1", "^Func/StatefulPartitionedCall/sequential_2/conv_lstm1d_4/while/body/_64/output_control_node/_234", "^StatefulPartitionedCall/sequential_2/conv_lstm1d_4/while/body/_64/sequential_2/conv_lstm1d_4/while/NoOp", "^Func/StatefulPartitionedCall/sequential_2/conv_lstm1d_4/while/body/_64/input_control_node/_211"], "attr": {"T": {"type": "DT_INT32"}}}, {"name": "StatefulPartitionedCall/sequential_2/time_distributed_6/Reshape_1", "op": "Reshape", "input": ["StatefulPartitionedCall/sequential_2/max_pooling2d_5/MaxPool", "StatefulPartitionedCall/sequential_2/time_distributed_6/Reshape_1/shape"], "attr": {"T": {"type": "DT_FLOAT"}, "Tshape": {"type": "DT_INT32"}}}, {"name": "StatefulPartitionedCall/sequential_2/conv_lstm1d_4/while/body/_64/sequential_2/conv_lstm1d_4/while/convolution_7", "op": "Conv2D", "input": ["StatefulPartitionedCall/sequential_2/conv_lstm1d_4/while/body/_64/sequential_2/conv_lstm1d_4/while/convolution_7/ExpandDims", "StatefulPartitionedCall/sequential_2/conv_lstm1d_4/while/body/_64/sequential_2/conv_lstm1d_4/while/convolution_7/ExpandDims_1"], "device": "/device:CPU:0", "attr": {"strides": {"list": {"i": ["1", "1", "1", "1"]}}, "use_cudnn_on_gpu": {"b": true}, "T": {"type": "DT_FLOAT"}, "explicit_paddings": {"list": {}}, "padding": {"s": "U0FNRQ=="}, "data_format": {"s": "TkhXQw=="}, "dilations": {"list": {"i": ["1", "1", "1", "1"]}}}}, {"name": "StatefulPartitionedCall/sequential_2/conv_lstm1d_4/while/body/_64/sequential_2/conv_lstm1d_4/while/convolution_5", "op": "Conv2D", "input": ["StatefulPartitionedCall/sequential_2/conv_lstm1d_4/while/body/_64/sequential_2/conv_lstm1d_4/while/convolution_5/ExpandDims", "StatefulPartitionedCall/sequential_2/conv_lstm1d_4/while/body/_64/sequential_2/conv_lstm1d_4/while/convolution_5/ExpandDims_1"], "device": "/device:CPU:0", "attr": {"T": {"type": "DT_FLOAT"}, "dilations": {"list": {"i": ["1", "1", "1", "1"]}}, "explicit_paddings": {"list": {}}, "strides": {"list": {"i": ["1", "1", "1", "1"]}}, "data_format": {"s": "TkhXQw=="}, "use_cudnn_on_gpu": {"b": true}, "padding": {"s": "U0FNRQ=="}}}, {"name": "StatefulPartitionedCall/sequential_2/conv_lstm1d_4/while/body/_64/sequential_2/conv_lstm1d_4/while/convolution_4", "op": "Conv2D", "input": ["StatefulPartitionedCall/sequential_2/conv_lstm1d_4/while/body/_64/sequential_2/conv_lstm1d_4/while/convolution_4/ExpandDims", "StatefulPartitionedCall/sequential_2/conv_lstm1d_4/while/body/_64/sequential_2/conv_lstm1d_4/while/convolution_4/ExpandDims_1"], "device": "/device:CPU:0", "attr": {"use_cudnn_on_gpu": {"b": true}, "T": {"type": "DT_FLOAT"}, "padding": {"s": "U0FNRQ=="}, "strides": {"list": {"i": ["1", "1", "1", "1"]}}, "data_format": {"s": "TkhXQw=="}, "dilations": {"list": {"i": ["1", "1", "1", "1"]}}, "explicit_paddings": {"list": {}}}}, {"name": "StatefulPartitionedCall/sequential_2/conv_lstm1d_4/while/body/_64/sequential_2/conv_lstm1d_4/while/convolution_6", "op": "Conv2D", "input": ["StatefulPartitionedCall/sequential_2/conv_lstm1d_4/while/body/_64/sequential_2/conv_lstm1d_4/while/convolution_6/ExpandDims", "StatefulPartitionedCall/sequential_2/conv_lstm1d_4/while/body/_64/sequential_2/conv_lstm1d_4/while/convolution_6/ExpandDims_1"], "device": "/device:CPU:0", "attr": {"T": {"type": "DT_FLOAT"}, "padding": {"s": "U0FNRQ=="}, "use_cudnn_on_gpu": {"b": true}, "dilations": {"list": {"i": ["1", "1", "1", "1"]}}, "strides": {"list": {"i": ["1", "1", "1", "1"]}}, "data_format": {"s": "TkhXQw=="}, "explicit_paddings": {"list": {}}}}, {"name": "StatefulPartitionedCall/sequential_2/conv_lstm1d_4/while/body/_64/sequential_2/conv_lstm1d_4/while/convolution_3/ExpandDims", "op": "ExpandDims", "input": ["StatefulPartitionedCall/sequential_2/conv_lstm1d_4/while/body/_64/sequential_2/conv_lstm1d_4/while/TensorArrayV2Read/TensorListGetItem", "StatefulPartitionedCall/sequential_2/conv_lstm1d_4/while/body/_64/sequential_2/conv_lstm1d_4/while/convolution_3/ExpandDims/dim"], "attr": {"Tdim": {"type": "DT_INT32"}, "T": {"type": "DT_FLOAT"}}}, {"name": "StatefulPartitionedCall/sequential_2/conv_lstm1d_4/while/body/_64/sequential_2/conv_lstm1d_4/while/convolution_1/ExpandDims", "op": "ExpandDims", "input": ["StatefulPartitionedCall/sequential_2/conv_lstm1d_4/while/body/_64/sequential_2/conv_lstm1d_4/while/TensorArrayV2Read/TensorListGetItem", "StatefulPartitionedCall/sequential_2/conv_lstm1d_4/while/body/_64/sequential_2/conv_lstm1d_4/while/convolution_1/ExpandDims/dim"], "attr": {"Tdim": {"type": "DT_INT32"}, "T": {"type": "DT_FLOAT"}}}, {"name": "StatefulPartitionedCall/sequential_2/conv_lstm1d_4/while/body/_64/sequential_2/conv_lstm1d_4/while/convolution/ExpandDims", "op": "ExpandDims", "input": ["StatefulPartitionedCall/sequential_2/conv_lstm1d_4/while/body/_64/sequential_2/conv_lstm1d_4/while/TensorArrayV2Read/TensorListGetItem", "StatefulPartitionedCall/sequential_2/conv_lstm1d_4/while/body/_64/sequential_2/conv_lstm1d_4/while/convolution/ExpandDims/dim"], "attr": {"Tdim": {"type": "DT_INT32"}, "T": {"type": "DT_FLOAT"}}}, {"name": "StatefulPartitionedCall/sequential_2/conv_lstm1d_4/while/body/_64/sequential_2/conv_lstm1d_4/while/convolution_2/ExpandDims", "op": "ExpandDims", "input": ["StatefulPartitionedCall/sequential_2/conv_lstm1d_4/while/body/_64/sequential_2/conv_lstm1d_4/while/TensorArrayV2Read/TensorListGetItem", "StatefulPartitionedCall/sequential_2/conv_lstm1d_4/while/body/_64/sequential_2/conv_lstm1d_4/while/convolution_2/ExpandDims/dim"], "attr": {"T": {"type": "DT_FLOAT"}, "Tdim": {"type": "DT_INT32"}}}, {"name": "StatefulPartitionedCall/sequential_2/conv_lstm1d_4/while/next_iteration/_106", "op": "NextIteration", "input": ["StatefulPartitionedCall/sequential_2/conv_lstm1d_4/while/body/_64/sequential_2/conv_lstm1d_4/while/add_8", "^Func/StatefulPartitionedCall/sequential_2/conv_lstm1d_4/while/body/_64/output_control_node/_234", "^StatefulPartitionedCall/sequential_2/conv_lstm1d_4/while/body/_64/sequential_2/conv_lstm1d_4/while/NoOp"], "attr": {"T": {"type": "DT_INT32"}}}, {"name": "StatefulPartitionedCall/sequential_2/conv_lstm1d_4/while/next_iteration/_104", "op": "NextIteration", "input": ["StatefulPartitionedCall/sequential_2/conv_lstm1d_4/while/body/_64/sequential_2/conv_lstm1d_4/while/add_9", "^Func/StatefulPartitionedCall/sequential_2/conv_lstm1d_4/while/body/_64/output_control_node/_234", "^StatefulPartitionedCall/sequential_2/conv_lstm1d_4/while/body/_64/sequential_2/conv_lstm1d_4/while/NoOp"], "attr": {"T": {"type": "DT_INT32"}}}, {"name": "StatefulPartitionedCall/sequential_2/conv_lstm1d_5/transpose", "op": "Transpose", "input": ["StatefulPartitionedCall/sequential_2/time_distributed_6/Reshape_1", "StatefulPartitionedCall/sequential_2/conv_lstm1d_5/transpose/perm"], "attr": {"T": {"type": "DT_FLOAT"}, "Tperm": {"type": "DT_INT32"}}}, {"name": "StatefulPartitionedCall/sequential_2/conv_lstm1d_5/zeros_like", "op": "ZerosLike", "input": ["StatefulPartitionedCall/sequential_2/time_distributed_6/Reshape_1"], "attr": {"T": {"type": "DT_FLOAT"}}}, {"name": "StatefulPartitionedCall/sequential_2/conv_lstm1d_4/while/body/_64/sequential_2/conv_lstm1d_4/while/convolution_7/Squeeze", "op": "Squeeze", "input": ["StatefulPartitionedCall/sequential_2/conv_lstm1d_4/while/body/_64/sequential_2/conv_lstm1d_4/while/convolution_7"], "attr": {"T": {"type": "DT_FLOAT"}, "squeeze_dims": {"list": {"i": ["-3"]}}}}, {"name": "StatefulPartitionedCall/sequential_2/conv_lstm1d_4/while/body/_64/sequential_2/conv_lstm1d_4/while/convolution_5/Squeeze", "op": "Squeeze", "input": ["StatefulPartitionedCall/sequential_2/conv_lstm1d_4/while/body/_64/sequential_2/conv_lstm1d_4/while/convolution_5"], "attr": {"squeeze_dims": {"list": {"i": ["-3"]}}, "T": {"type": "DT_FLOAT"}}}, {"name": "StatefulPartitionedCall/sequential_2/conv_lstm1d_4/while/body/_64/sequential_2/conv_lstm1d_4/while/convolution_4/Squeeze", "op": "Squeeze", "input": ["StatefulPartitionedCall/sequential_2/conv_lstm1d_4/while/body/_64/sequential_2/conv_lstm1d_4/while/convolution_4"], "attr": {"T": {"type": "DT_FLOAT"}, "squeeze_dims": {"list": {"i": ["-3"]}}}}, {"name": "StatefulPartitionedCall/sequential_2/conv_lstm1d_4/while/body/_64/sequential_2/conv_lstm1d_4/while/convolution_6/Squeeze", "op": "Squeeze", "input": ["StatefulPartitionedCall/sequential_2/conv_lstm1d_4/while/body/_64/sequential_2/conv_lstm1d_4/while/convolution_6"], "attr": {"squeeze_dims": {"list": {"i": ["-3"]}}, "T": {"type": "DT_FLOAT"}}}, {"name": "StatefulPartitionedCall/sequential_2/conv_lstm1d_4/while/body/_64/sequential_2/conv_lstm1d_4/while/convolution_3", "op": "_FusedConv2D", "input": ["StatefulPartitionedCall/sequential_2/conv_lstm1d_4/while/body/_64/sequential_2/conv_lstm1d_4/while/convolution_3/ExpandDims", "StatefulPartitionedCall/sequential_2/conv_lstm1d_4/while/body/_64/sequential_2/conv_lstm1d_4/while/convolution_3/ExpandDims_1", "ConstantFolding/StatefulPartitionedCall/sequential_2/conv_lstm1d_4/while/body/_64/sequential_2/conv_lstm1d_4/while/split_2-folded-3"], "device": "/device:CPU:0", "attr": {"strides": {"list": {"i": ["1", "1", "1", "1"]}}, "explicit_paddings": {"list": {}}, "filter_format": {"s": "SFdJTw=="}, "use_cudnn_on_gpu": {"b": true}, "T": {"type": "DT_FLOAT"}, "TArgs": {"list": {"type": ["DT_FLOAT"]}}, "fused_ops": {"list": {"s": ["Qmlhc0FkZA=="]}}, "num_args": {"i": "1"}, "epsilon": {"f": 0.0}, "dilations": {"list": {"i": ["1", "1", "1", "1"]}}, "leakyrelu_alpha": {"f": 0.2}, "num_host_args": {"i": "0"}, "padding": {"s": "VkFMSUQ="}, "data_format": {"s": "TkhXQw=="}}}, {"name": "StatefulPartitionedCall/sequential_2/conv_lstm1d_4/while/body/_64/sequential_2/conv_lstm1d_4/while/convolution_1", "op": "_FusedConv2D", "input": ["StatefulPartitionedCall/sequential_2/conv_lstm1d_4/while/body/_64/sequential_2/conv_lstm1d_4/while/convolution_1/ExpandDims", "StatefulPartitionedCall/sequential_2/conv_lstm1d_4/while/body/_64/sequential_2/conv_lstm1d_4/while/convolution_1/ExpandDims_1", "ConstantFolding/StatefulPartitionedCall/sequential_2/conv_lstm1d_4/while/body/_64/sequential_2/conv_lstm1d_4/while/split_2-folded-1"], "device": "/device:CPU:0", "attr": {"use_cudnn_on_gpu": {"b": true}, "explicit_paddings": {"list": {}}, "T": {"type": "DT_FLOAT"}, "strides": {"list": {"i": ["1", "1", "1", "1"]}}, "padding": {"s": "VkFMSUQ="}, "epsilon": {"f": 0.0}, "filter_format": {"s": "SFdJTw=="}, "TArgs": {"list": {"type": ["DT_FLOAT"]}}, "num_args": {"i": "1"}, "fused_ops": {"list": {"s": ["Qmlhc0FkZA=="]}}, "leakyrelu_alpha": {"f": 0.2}, "data_format": {"s": "TkhXQw=="}, "dilations": {"list": {"i": ["1", "1", "1", "1"]}}, "num_host_args": {"i": "0"}}}, {"name": "StatefulPartitionedCall/sequential_2/conv_lstm1d_4/while/body/_64/sequential_2/conv_lstm1d_4/while/convolution", "op": "_FusedConv2D", "input": ["StatefulPartitionedCall/sequential_2/conv_lstm1d_4/while/body/_64/sequential_2/conv_lstm1d_4/while/convolution/ExpandDims", "StatefulPartitionedCall/sequential_2/conv_lstm1d_4/while/body/_64/sequential_2/conv_lstm1d_4/while/convolution/ExpandDims_1", "ConstantFolding/StatefulPartitionedCall/sequential_2/conv_lstm1d_4/while/body/_64/sequential_2/conv_lstm1d_4/while/split_2-folded-0"], "device": "/device:CPU:0", "attr": {"TArgs": {"list": {"type": ["DT_FLOAT"]}}, "leakyrelu_alpha": {"f": 0.2}, "num_host_args": {"i": "0"}, "num_args": {"i": "1"}, "padding": {"s": "VkFMSUQ="}, "explicit_paddings": {"list": {}}, "fused_ops": {"list": {"s": ["Qmlhc0FkZA=="]}}, "data_format": {"s": "TkhXQw=="}, "filter_format": {"s": "SFdJTw=="}, "use_cudnn_on_gpu": {"b": true}, "strides": {"list": {"i": ["1", "1", "1", "1"]}}, "T": {"type": "DT_FLOAT"}, "epsilon": {"f": 0.0}, "dilations": {"list": {"i": ["1", "1", "1", "1"]}}}}, {"name": "StatefulPartitionedCall/sequential_2/conv_lstm1d_4/while/body/_64/sequential_2/conv_lstm1d_4/while/convolution_2", "op": "_FusedConv2D", "input": ["StatefulPartitionedCall/sequential_2/conv_lstm1d_4/while/body/_64/sequential_2/conv_lstm1d_4/while/convolution_2/ExpandDims", "StatefulPartitionedCall/sequential_2/conv_lstm1d_4/while/body/_64/sequential_2/conv_lstm1d_4/while/convolution_2/ExpandDims_1", "ConstantFolding/StatefulPartitionedCall/sequential_2/conv_lstm1d_4/while/body/_64/sequential_2/conv_lstm1d_4/while/split_2-folded-2"], "device": "/device:CPU:0", "attr": {"padding": {"s": "VkFMSUQ="}, "T": {"type": "DT_FLOAT"}, "num_host_args": {"i": "0"}, "filter_format": {"s": "SFdJTw=="}, "num_args": {"i": "1"}, "leakyrelu_alpha": {"f": 0.2}, "strides": {"list": {"i": ["1", "1", "1", "1"]}}, "epsilon": {"f": 0.0}, "dilations": {"list": {"i": ["1", "1", "1", "1"]}}, "TArgs": {"list": {"type": ["DT_FLOAT"]}}, "data_format": {"s": "TkhXQw=="}, "use_cudnn_on_gpu": {"b": true}, "fused_ops": {"list": {"s": ["Qmlhc0FkZA=="]}}, "explicit_paddings": {"list": {}}}}, {"name": "StatefulPartitionedCall/sequential_2/conv_lstm1d_5/TensorArrayUnstack/TensorListFromTensor", "op": "TensorListFromTensor", "input": ["StatefulPartitionedCall/sequential_2/conv_lstm1d_5/transpose", "StatefulPartitionedCall/sequential_2/conv_lstm1d_5/TensorArrayUnstack/TensorListFromTensor/element_shape"], "attr": {"_has_manual_control_dependencies": {"b": true}, "element_dtype": {"type": "DT_FLOAT"}, "shape_type": {"type": "DT_INT32"}}, "experimentalType": {"typeId": "TFT_PRODUCT", "args": [{"typeId": "TFT_ARRAY", "args": [{"typeId": "TFT_TENSOR", "args": [{"typeId": "TFT_FLOAT"}]}]}]}}, {"name": "StatefulPartitionedCall/sequential_2/conv_lstm1d_5/Shape", "op": "Shape", "input": ["StatefulPartitionedCall/sequential_2/conv_lstm1d_5/transpose"], "attr": {"T": {"type": "DT_FLOAT"}, "out_type": {"type": "DT_INT32"}}}, {"name": "StatefulPartitionedCall/sequential_2/conv_lstm1d_5/Sum", "op": "Sum", "input": ["StatefulPartitionedCall/sequential_2/conv_lstm1d_5/zeros_like", "StatefulPartitionedCall/sequential_2/conv_lstm1d_5/Sum/reduction_indices"], "attr": {"keep_dims": {"b": false}, "Tidx": {"type": "DT_INT32"}, "T": {"type": "DT_FLOAT"}}}, {"name": "StatefulPartitionedCall/sequential_2/conv_lstm1d_4/while/body/_64/sequential_2/conv_lstm1d_4/while/BiasAdd_3", "op": "Squeeze", "input": ["StatefulPartitionedCall/sequential_2/conv_lstm1d_4/while/body/_64/sequential_2/conv_lstm1d_4/while/convolution_3"], "attr": {"T": {"type": "DT_FLOAT"}, "squeeze_dims": {"list": {"i": ["-3"]}}}}, {"name": "StatefulPartitionedCall/sequential_2/conv_lstm1d_4/while/body/_64/sequential_2/conv_lstm1d_4/while/BiasAdd_1", "op": "Squeeze", "input": ["StatefulPartitionedCall/sequential_2/conv_lstm1d_4/while/body/_64/sequential_2/conv_lstm1d_4/while/convolution_1"], "attr": {"squeeze_dims": {"list": {"i": ["-3"]}}, "T": {"type": "DT_FLOAT"}}}, {"name": "StatefulPartitionedCall/sequential_2/conv_lstm1d_4/while/body/_64/sequential_2/conv_lstm1d_4/while/BiasAdd", "op": "Squeeze", "input": ["StatefulPartitionedCall/sequential_2/conv_lstm1d_4/while/body/_64/sequential_2/conv_lstm1d_4/while/convolution"], "attr": {"T": {"type": "DT_FLOAT"}, "squeeze_dims": {"list": {"i": ["-3"]}}}}, {"name": "StatefulPartitionedCall/sequential_2/conv_lstm1d_4/while/body/_64/sequential_2/conv_lstm1d_4/while/BiasAdd_2", "op": "Squeeze", "input": ["StatefulPartitionedCall/sequential_2/conv_lstm1d_4/while/body/_64/sequential_2/conv_lstm1d_4/while/convolution_2"], "attr": {"squeeze_dims": {"list": {"i": ["-3"]}}, "T": {"type": "DT_FLOAT"}}}, {"name": "StatefulPartitionedCall/sequential_2/conv_lstm1d_5/strided_slice", "op": "StridedSlice", "input": ["StatefulPartitionedCall/sequential_2/conv_lstm1d_5/Shape", "StatefulPartitionedCall/sequential_2/conv_lstm1d_5/strided_slice/stack", "StatefulPartitionedCall/sequential_2/conv_lstm1d_5/strided_slice/stack_1", "StatefulPartitionedCall/sequential_2/conv_lstm1d_5/strided_slice/stack_2"], "attr": {"begin_mask": {"i": "0"}, "T": {"type": "DT_INT32"}, "end_mask": {"i": "0"}, "shrink_axis_mask": {"i": "1"}, "ellipsis_mask": {"i": "0"}, "new_axis_mask": {"i": "0"}, "Index": {"type": "DT_INT32"}}}, {"name": "StatefulPartitionedCall/sequential_2/conv_lstm1d_5/convolution/ExpandDims", "op": "ExpandDims", "input": ["StatefulPartitionedCall/sequential_2/conv_lstm1d_5/Sum", "StatefulPartitionedCall/sequential_2/conv_lstm1d_5/convolution/ExpandDims/dim"], "attr": {"Tdim": {"type": "DT_INT32"}, "T": {"type": "DT_FLOAT"}}}, {"name": "StatefulPartitionedCall/sequential_2/conv_lstm1d_4/while/body/_64/sequential_2/conv_lstm1d_4/while/add_6", "op": "AddV2", "input": ["StatefulPartitionedCall/sequential_2/conv_lstm1d_4/while/body/_64/sequential_2/conv_lstm1d_4/while/BiasAdd_3", "StatefulPartitionedCall/sequential_2/conv_lstm1d_4/while/body/_64/sequential_2/conv_lstm1d_4/while/convolution_7/Squeeze"], "attr": {"T": {"type": "DT_FLOAT"}}}, {"name": "StatefulPartitionedCall/sequential_2/conv_lstm1d_4/while/body/_64/sequential_2/conv_lstm1d_4/while/add_2", "op": "AddV2", "input": ["StatefulPartitionedCall/sequential_2/conv_lstm1d_4/while/body/_64/sequential_2/conv_lstm1d_4/while/BiasAdd_1", "StatefulPartitionedCall/sequential_2/conv_lstm1d_4/while/body/_64/sequential_2/conv_lstm1d_4/while/convolution_5/Squeeze"], "attr": {"T": {"type": "DT_FLOAT"}}}, {"name": "StatefulPartitionedCall/sequential_2/conv_lstm1d_4/while/body/_64/sequential_2/conv_lstm1d_4/while/add", "op": "AddV2", "input": ["StatefulPartitionedCall/sequential_2/conv_lstm1d_4/while/body/_64/sequential_2/conv_lstm1d_4/while/BiasAdd", "StatefulPartitionedCall/sequential_2/conv_lstm1d_4/while/body/_64/sequential_2/conv_lstm1d_4/while/convolution_4/Squeeze"], "attr": {"T": {"type": "DT_FLOAT"}}}, {"name": "StatefulPartitionedCall/sequential_2/conv_lstm1d_4/while/body/_64/sequential_2/conv_lstm1d_4/while/add_4", "op": "AddV2", "input": ["StatefulPartitionedCall/sequential_2/conv_lstm1d_4/while/body/_64/sequential_2/conv_lstm1d_4/while/BiasAdd_2", "StatefulPartitionedCall/sequential_2/conv_lstm1d_4/while/body/_64/sequential_2/conv_lstm1d_4/while/convolution_6/Squeeze"], "attr": {"T": {"type": "DT_FLOAT"}}}, {"name": "StatefulPartitionedCall/sequential_2/conv_lstm1d_5/TensorArrayV2_1", "op": "TensorListReserve", "input": ["StatefulPartitionedCall/sequential_2/conv_lstm1d_5/TensorArrayV2_1/element_shape", "StatefulPartitionedCall/sequential_2/conv_lstm1d_5/strided_slice"], "attr": {"element_dtype": {"type": "DT_FLOAT"}, "_has_manual_control_dependencies": {"b": true}, "shape_type": {"type": "DT_INT32"}}, "experimentalType": {"typeId": "TFT_PRODUCT", "args": [{"typeId": "TFT_ARRAY", "args": [{"typeId": "TFT_TENSOR", "args": [{"typeId": "TFT_FLOAT"}]}]}]}}, {"name": "StatefulPartitionedCall/sequential_2/conv_lstm1d_5/convolution", "op": "Conv2D", "input": ["StatefulPartitionedCall/sequential_2/conv_lstm1d_5/convolution/ExpandDims", "StatefulPartitionedCall/sequential_2/conv_lstm1d_5/convolution/ExpandDims_1"], "device": "/device:CPU:0", "attr": {"explicit_paddings": {"list": {}}, "T": {"type": "DT_FLOAT"}, "dilations": {"list": {"i": ["1", "1", "1", "1"]}}, "data_format": {"s": "TkhXQw=="}, "padding": {"s": "VkFMSUQ="}, "use_cudnn_on_gpu": {"b": true}, "strides": {"list": {"i": ["1", "1", "1", "1"]}}}}, {"name": "StatefulPartitionedCall/sequential_2/conv_lstm1d_4/while/body/_64/sequential_2/conv_lstm1d_4/while/Mul_8", "op": "Mul", "input": ["StatefulPartitionedCall/sequential_2/conv_lstm1d_4/while/body/_64/sequential_2/conv_lstm1d_4/while/add_6", "StatefulPartitionedCall/sequential_2/conv_lstm1d_4/while/body/_64/sequential_2/conv_lstm1d_4/while/Const_4"], "attr": {"T": {"type": "DT_FLOAT"}}}, {"name": "StatefulPartitionedCall/sequential_2/conv_lstm1d_4/while/body/_64/sequential_2/conv_lstm1d_4/while/Mul_5", "op": "Mul", "input": ["StatefulPartitionedCall/sequential_2/conv_lstm1d_4/while/body/_64/sequential_2/conv_lstm1d_4/while/add_2", "StatefulPartitionedCall/sequential_2/conv_lstm1d_4/while/body/_64/sequential_2/conv_lstm1d_4/while/Const_2"], "attr": {"T": {"type": "DT_FLOAT"}}}, {"name": "StatefulPartitionedCall/sequential_2/conv_lstm1d_4/while/body/_64/sequential_2/conv_lstm1d_4/while/Mul_4", "op": "Mul", "input": ["StatefulPartitionedCall/sequential_2/conv_lstm1d_4/while/body/_64/sequential_2/conv_lstm1d_4/while/add", "StatefulPartitionedCall/sequential_2/conv_lstm1d_4/while/body/_64/sequential_2/conv_lstm1d_4/while/Const"], "attr": {"T": {"type": "DT_FLOAT"}}}, {"name": "StatefulPartitionedCall/sequential_2/conv_lstm1d_4/while/body/_64/sequential_2/conv_lstm1d_4/while/Tanh", "op": "Tanh", "input": ["StatefulPartitionedCall/sequential_2/conv_lstm1d_4/while/body/_64/sequential_2/conv_lstm1d_4/while/add_4"], "attr": {"T": {"type": "DT_FLOAT"}}}, {"name": "StatefulPartitionedCall/sequential_2/conv_lstm1d_5/convolution/Squeeze", "op": "Squeeze", "input": ["StatefulPartitionedCall/sequential_2/conv_lstm1d_5/convolution"], "attr": {"squeeze_dims": {"list": {"i": ["-3"]}}, "T": {"type": "DT_FLOAT"}}}, {"name": "StatefulPartitionedCall/sequential_2/conv_lstm1d_4/while/body/_64/sequential_2/conv_lstm1d_4/while/Add_7", "op": "AddV2", "input": ["StatefulPartitionedCall/sequential_2/conv_lstm1d_4/while/body/_64/sequential_2/conv_lstm1d_4/while/Mul_8", "StatefulPartitionedCall/sequential_2/conv_lstm1d_4/while/body/_64/sequential_2/conv_lstm1d_4/while/Const_5"], "attr": {"T": {"type": "DT_FLOAT"}}}, {"name": "StatefulPartitionedCall/sequential_2/conv_lstm1d_4/while/body/_64/sequential_2/conv_lstm1d_4/while/Add_3", "op": "AddV2", "input": ["StatefulPartitionedCall/sequential_2/conv_lstm1d_4/while/body/_64/sequential_2/conv_lstm1d_4/while/Mul_5", "StatefulPartitionedCall/sequential_2/conv_lstm1d_4/while/body/_64/sequential_2/conv_lstm1d_4/while/Const_3"], "attr": {"T": {"type": "DT_FLOAT"}}}, {"name": "StatefulPartitionedCall/sequential_2/conv_lstm1d_4/while/body/_64/sequential_2/conv_lstm1d_4/while/Add_1", "op": "AddV2", "input": ["StatefulPartitionedCall/sequential_2/conv_lstm1d_4/while/body/_64/sequential_2/conv_lstm1d_4/while/Mul_4", "StatefulPartitionedCall/sequential_2/conv_lstm1d_4/while/body/_64/sequential_2/conv_lstm1d_4/while/Const_1"], "attr": {"T": {"type": "DT_FLOAT"}}}, {"name": "StatefulPartitionedCall/sequential_2/conv_lstm1d_5/while/LoopControlInputs/_125", "op": "NoOp", "input": ["^StatefulPartitionedCall/sequential_2/conv_lstm1d_5/TensorArrayUnstack/TensorListFromTensor", "^StatefulPartitionedCall/sequential_2/conv_lstm1d_5/TensorArrayV2_1", "^StatefulPartitionedCall/sequential_2/conv_lstm1d_5/convolution/Squeeze"], "attr": {"_has_manual_control_dependencies": {"b": true}}}, {"name": "StatefulPartitionedCall/sequential_2/conv_lstm1d_4/while/body/_64/sequential_2/conv_lstm1d_4/while/clip_by_value_2/Minimum", "op": "Minimum", "input": ["StatefulPartitionedCall/sequential_2/conv_lstm1d_4/while/body/_64/sequential_2/conv_lstm1d_4/while/Add_7", "StatefulPartitionedCall/sequential_2/conv_lstm1d_4/while/body/_64/sequential_2/conv_lstm1d_4/while/clip_by_value_2/Minimum/y"], "attr": {"T": {"type": "DT_FLOAT"}}}, {"name": "StatefulPartitionedCall/sequential_2/conv_lstm1d_4/while/body/_64/sequential_2/conv_lstm1d_4/while/clip_by_value_1/Minimum", "op": "Minimum", "input": ["StatefulPartitionedCall/sequential_2/conv_lstm1d_4/while/body/_64/sequential_2/conv_lstm1d_4/while/Add_3", "StatefulPartitionedCall/sequential_2/conv_lstm1d_4/while/body/_64/sequential_2/conv_lstm1d_4/while/clip_by_value_1/Minimum/y"], "attr": {"T": {"type": "DT_FLOAT"}}}, {"name": "StatefulPartitionedCall/sequential_2/conv_lstm1d_4/while/body/_64/sequential_2/conv_lstm1d_4/while/clip_by_value/Minimum", "op": "Minimum", "input": ["StatefulPartitionedCall/sequential_2/conv_lstm1d_4/while/body/_64/sequential_2/conv_lstm1d_4/while/Add_1", "StatefulPartitionedCall/sequential_2/conv_lstm1d_4/while/body/_64/sequential_2/conv_lstm1d_4/while/clip_by_value/Minimum/y"], "attr": {"T": {"type": "DT_FLOAT"}}}, {"name": "StatefulPartitionedCall/sequential_2/conv_lstm1d_5/while/enter/_120", "op": "Enter", "input": ["StatefulPartitionedCall/sequential_2/conv_lstm1d_5/strided_slice", "^StatefulPartitionedCall/sequential_2/conv_lstm1d_5/while/LoopControlInputs/_125"], "attr": {"parallel_iterations": {"i": "32"}, "frame_name": {"s": "U3RhdGVmdWxQYXJ0aXRpb25lZENhbGwvc2VxdWVudGlhbF8yL2NvbnZfbHN0bTFkXzUvd2hpbGU="}, "is_constant": {"b": false}, "T": {"type": "DT_INT32"}}}, {"name": "StatefulPartitionedCall/sequential_2/conv_lstm1d_5/while/enter/_119", "op": "Enter", "input": ["StatefulPartitionedCall/sequential_2/conv_lstm1d_5/convolution/Squeeze", "^StatefulPartitionedCall/sequential_2/conv_lstm1d_5/while/LoopControlInputs/_125"], "attr": {"T": {"type": "DT_FLOAT"}, "is_constant": {"b": false}, "parallel_iterations": {"i": "32"}, "frame_name": {"s": "U3RhdGVmdWxQYXJ0aXRpb25lZENhbGwvc2VxdWVudGlhbF8yL2NvbnZfbHN0bTFkXzUvd2hpbGU="}}}, {"name": "StatefulPartitionedCall/sequential_2/conv_lstm1d_5/while/enter/_117", "op": "Enter", "input": ["StatefulPartitionedCall/sequential_2/conv_lstm1d_5/TensorArrayV2_1", "^StatefulPartitionedCall/sequential_2/conv_lstm1d_5/while/LoopControlInputs/_125"], "attr": {"is_constant": {"b": false}, "T": {"type": "DT_VARIANT"}, "frame_name": {"s": "U3RhdGVmdWxQYXJ0aXRpb25lZENhbGwvc2VxdWVudGlhbF8yL2NvbnZfbHN0bTFkXzUvd2hpbGU="}, "parallel_iterations": {"i": "32"}}}, {"name": "StatefulPartitionedCall/sequential_2/conv_lstm1d_5/while/enter/_118", "op": "Enter", "input": ["StatefulPartitionedCall/sequential_2/conv_lstm1d_5/convolution/Squeeze", "^StatefulPartitionedCall/sequential_2/conv_lstm1d_5/while/LoopControlInputs/_125"], "attr": {"frame_name": {"s": "U3RhdGVmdWxQYXJ0aXRpb25lZENhbGwvc2VxdWVudGlhbF8yL2NvbnZfbHN0bTFkXzUvd2hpbGU="}, "parallel_iterations": {"i": "32"}, "T": {"type": "DT_FLOAT"}, "is_constant": {"b": false}}}, {"name": "StatefulPartitionedCall/sequential_2/conv_lstm1d_5/while/enter/_121", "op": "Enter", "input": ["StatefulPartitionedCall/sequential_2/conv_lstm1d_5/TensorArrayUnstack/TensorListFromTensor", "^StatefulPartitionedCall/sequential_2/conv_lstm1d_5/while/LoopControlInputs/_125"], "attr": {"frame_name": {"s": "U3RhdGVmdWxQYXJ0aXRpb25lZENhbGwvc2VxdWVudGlhbF8yL2NvbnZfbHN0bTFkXzUvd2hpbGU="}, "T": {"type": "DT_VARIANT"}, "parallel_iterations": {"i": "32"}, "is_constant": {"b": false}}}, {"name": "Sta…
 {"b": true}, "strides": {"list": {"i": ["1", "1", "1", "1"]}}, "dilations": {"list": {"i": ["1", "1", "1", "1"]}}, "T": {"type": "DT_FLOAT"}, "padding": {"s": "U0FNRQ=="}, "data_format": {"s": "TkhXQw=="}}}, {"name": "StatefulPartitionedCall/sequential_2/conv_lstm1d_5/while/body/_113/sequential_2/conv_lstm1d_5/while/convolution_4", "op": "Conv2D", "input": ["StatefulPartitionedCall/sequential_2/conv_lstm1d_5/while/body/_113/sequential_2/conv_lstm1d_5/while/convolution_4/ExpandDims", "StatefulPartitionedCall/sequential_2/conv_lstm1d_5/while/body/_113/sequential_2/conv_lstm1d_5/while/convolution_4/ExpandDims_1"], "device": "/device:CPU:0", "attr": {"strides": {"list": {"i": ["1", "1", "1", "1"]}}, "padding": {"s": "U0FNRQ=="}, "data_format": {"s": "TkhXQw=="}, "explicit_paddings": {"list": {}}, "use_cudnn_on_gpu": {"b": true}, "T": {"type": "DT_FLOAT"}, "dilations": {"list": {"i": ["1", "1", "1", "1"]}}}}, {"name": "StatefulPartitionedCall/sequential_2/conv_lstm1d_5/while/body/_113/sequential_2/conv_lstm1d_5/while/convolution_6", "op": "Conv2D", "input": ["StatefulPartitionedCall/sequential_2/conv_lstm1d_5/while/body/_113/sequential_2/conv_lstm1d_5/while/convolution_6/ExpandDims", "StatefulPartitionedCall/sequential_2/conv_lstm1d_5/while/body/_113/sequential_2/conv_lstm1d_5/while/convolution_6/ExpandDims_1"], "device": "/device:CPU:0", "attr": {"strides": {"list": {"i": ["1", "1", "1", "1"]}}, "explicit_paddings": {"list": {}}, "T": {"type": "DT_FLOAT"}, "padding": {"s": "U0FNRQ=="}, "use_cudnn_on_gpu": {"b": true}, "data_format": {"s": "TkhXQw=="}, "dilations": {"list": {"i": ["1", "1", "1", "1"]}}}}, {"name": "StatefulPartitionedCall/sequential_2/conv_lstm1d_5/while/body/_113/sequential_2/conv_lstm1d_5/while/convolution_3/ExpandDims", "op": "ExpandDims", "input": ["StatefulPartitionedCall/sequential_2/conv_lstm1d_5/while/body/_113/sequential_2/conv_lstm1d_5/while/TensorArrayV2Read/TensorListGetItem", "StatefulPartitionedCall/sequential_2/conv_lstm1d_5/while/body/_113/sequential_2/conv_lstm1d_5/while/convolution_3/ExpandDims/dim"], "attr": {"Tdim": {"type": "DT_INT32"}, "T": {"type": "DT_FLOAT"}}}, {"name": "StatefulPartitionedCall/sequential_2/conv_lstm1d_5/while/body/_113/sequential_2/conv_lstm1d_5/while/convolution_1/ExpandDims", "op": "ExpandDims", "input": ["StatefulPartitionedCall/sequential_2/conv_lstm1d_5/while/body/_113/sequential_2/conv_lstm1d_5/while/TensorArrayV2Read/TensorListGetItem", "StatefulPartitionedCall/sequential_2/conv_lstm1d_5/while/body/_113/sequential_2/conv_lstm1d_5/while/convolution_1/ExpandDims/dim"], "attr": {"Tdim": {"type": "DT_INT32"}, "T": {"type": "DT_FLOAT"}}}, {"name": "StatefulPartitionedCall/sequential_2/conv_lstm1d_5/while/body/_113/sequential_2/conv_lstm1d_5/while/convolution/ExpandDims", "op": "ExpandDims", "input": ["StatefulPartitionedCall/sequential_2/conv_lstm1d_5/while/body/_113/sequential_2/conv_lstm1d_5/while/TensorArrayV2Read/TensorListGetItem", "StatefulPartitionedCall/sequential_2/conv_lstm1d_5/while/body/_113/sequential_2/conv_lstm1d_5/while/convolution/ExpandDims/dim"], "attr": {"Tdim": {"type": "DT_INT32"}, "T": {"type": "DT_FLOAT"}}}, {"name": "StatefulPartitionedCall/sequential_2/conv_lstm1d_5/while/body/_113/sequential_2/conv_lstm1d_5/while/convolution_2/ExpandDims", "op": "ExpandDims", "input": ["StatefulPartitionedCall/sequential_2/conv_lstm1d_5/while/body/_113/sequential_2/conv_lstm1d_5/while/TensorArrayV2Read/TensorListGetItem", "StatefulPartitionedCall/sequential_2/conv_lstm1d_5/while/body/_113/sequential_2/conv_lstm1d_5/while/convolution_2/ExpandDims/dim"], "attr": {"Tdim": {"type": "DT_INT32"}, "T": {"type": "DT_FLOAT"}}}, {"name": "StatefulPartitionedCall/sequential_2/conv_lstm1d_5/while/next_iteration/_155", "op": "NextIteration", "input": ["StatefulPartitionedCall/sequential_2/conv_lstm1d_5/while/body/_113/sequential_2/conv_lstm1d_5/while/add_8", "^Func/StatefulPartitionedCall/sequential_2/conv_lstm1d_5/while/body/_113/output_control_node/_271", "^StatefulPartitionedCall/sequential_2/conv_lstm1d_5/while/body/_113/sequential_2/conv_lstm1d_5/while/NoOp"], "attr": {"T": {"type": "DT_INT32"}}}, {"name": "StatefulPartitionedCall/sequential_2/conv_lstm1d_5/while/next_iteration/_153", "op": "NextIteration", "input": ["StatefulPartitionedCall/sequential_2/conv_lstm1d_5/while/body/_113/sequential_2/conv_lstm1d_5/while/add_9", "^Func/StatefulPartitionedCall/sequential_2/conv_lstm1d_5/while/body/_113/output_control_node/_271", "^StatefulPartitionedCall/sequential_2/conv_lstm1d_5/while/body/_113/sequential_2/conv_lstm1d_5/while/NoOp"], "attr": {"T": {"type": "DT_INT32"}}}, {"name": "StatefulPartitionedCall/sequential_2/dense_3/BiasAdd", "op": "_FusedMatMul", "input": ["StatefulPartitionedCall/sequential_2/flatten_2/Reshape", "StatefulPartitionedCall/sequential_2/dense_3/MatMul/ReadVariableOp", "StatefulPartitionedCall/sequential_2/dense_3/BiasAdd/ReadVariableOp"], "device": "/device:CPU:0", "attr": {"epsilon": {"f": 0.0}, "fused_ops": {"list": {"s": ["Qmlhc0FkZA=="]}}, "num_args": {"i": "1"}, "leakyrelu_alpha": {"f": 0.2}, "transpose_b": {"b": false}, "transpose_a": {"b": false}, "T": {"type": "DT_FLOAT"}}}, {"name": "StatefulPartitionedCall/sequential_2/conv_lstm1d_5/while/body/_113/sequential_2/conv_lstm1d_5/while/convolution_7/Squeeze", "op": "Squeeze", "input": ["StatefulPartitionedCall/sequential_2/conv_lstm1d_5/while/body/_113/sequential_2/conv_lstm1d_5/while/convolution_7"], "attr": {"T": {"type": "DT_FLOAT"}, "squeeze_dims": {"list": {"i": ["-3"]}}}}, {"name": "StatefulPartitionedCall/sequential_2/conv_lstm1d_5/while/body/_113/sequential_2/conv_lstm1d_5/while/convolution_5/Squeeze", "op": "Squeeze", "input": ["StatefulPartitionedCall/sequential_2/conv_lstm1d_5/while/body/_113/sequential_2/conv_lstm1d_5/while/convolution_5"], "attr": {"T": {"type": "DT_FLOAT"}, "squeeze_dims": {"list": {"i": ["-3"]}}}}, {"name": "StatefulPartitionedCall/sequential_2/conv_lstm1d_5/while/body/_113/sequential_2/conv_lstm1d_5/while/convolution_4/Squeeze", "op": "Squeeze", "input": ["StatefulPartitionedCall/sequential_2/conv_lstm1d_5/while/body/_113/sequential_2/conv_lstm1d_5/while/convolution_4"], "attr": {"squeeze_dims": {"list": {"i": ["-3"]}}, "T": {"type": "DT_FLOAT"}}}, {"name": "StatefulPartitionedCall/sequential_2/conv_lstm1d_5/while/body/_113/sequential_2/conv_lstm1d_5/while/convolution_6/Squeeze", "op": "Squeeze", "input": ["StatefulPartitionedCall/sequential_2/conv_lstm1d_5/while/body/_113/sequential_2/conv_lstm1d_5/while/convolution_6"], "attr": {"squeeze_dims": {"list": {"i": ["-3"]}}, "T": {"type": "DT_FLOAT"}}}, {"name": "StatefulPartitionedCall/sequential_2/conv_lstm1d_5/while/body/_113/sequential_2/conv_lstm1d_5/while/convolution_3", "op": "_FusedConv2D", "input": ["StatefulPartitionedCall/sequential_2/conv_lstm1d_5/while/body/_113/sequential_2/conv_lstm1d_5/while/convolution_3/ExpandDims", "StatefulPartitionedCall/sequential_2/conv_lstm1d_5/while/body/_113/sequential_2/conv_lstm1d_5/while/convolution_3/ExpandDims_1", "ConstantFolding/StatefulPartitionedCall/sequential_2/conv_lstm1d_5/while/body/_113/sequential_2/conv_lstm1d_5/while/split_2-folded-3"], "device": "/device:CPU:0", "attr": {"fused_ops": {"list": {"s": ["Qmlhc0FkZA=="]}}, "TArgs": {"list": {"type": ["DT_FLOAT"]}}, "T": {"type": "DT_FLOAT"}, "explicit_paddings": {"list": {}}, "strides": {"list": {"i": ["1", "1", "1", "1"]}}, "use_cudnn_on_gpu": {"b": true}, "num_host_args": {"i": "0"}, "data_format": {"s": "TkhXQw=="}, "epsilon": {"f": 0.0}, "dilations": {"list": {"i": ["1", "1", "1", "1"]}}, "num_args": {"i": "1"}, "leakyrelu_alpha": {"f": 0.2}, "filter_format": {"s": "SFdJTw=="}, "padding": {"s": "VkFMSUQ="}}}, {"name": "StatefulPartitionedCall/sequential_2/conv_lstm1d_5/while/body/_113/sequential_2/conv_lstm1d_5/while/convolution_1", "op": "_FusedConv2D", "input": ["StatefulPartitionedCall/sequential_2/conv_lstm1d_5/while/body/_113/sequential_2/conv_lstm1d_5/while/convolution_1/ExpandDims", "StatefulPartitionedCall/sequential_2/conv_lstm1d_5/while/body/_113/sequential_2/conv_lstm1d_5/while/convolution_1/ExpandDims_1", "ConstantFolding/StatefulPartitionedCall/sequential_2/conv_lstm1d_5/while/body/_113/sequential_2/conv_lstm1d_5/while/split_2-folded-1"], "device": "/device:CPU:0", "attr": {"epsilon": {"f": 0.0}, "explicit_paddings": {"list": {}}, "T": {"type": "DT_FLOAT"}, "num_args": {"i": "1"}, "TArgs": {"list": {"type": ["DT_FLOAT"]}}, "data_format": {"s": "TkhXQw=="}, "fused_ops": {"list": {"s": ["Qmlhc0FkZA=="]}}, "filter_format": {"s": "SFdJTw=="}, "strides": {"list": {"i": ["1", "1", "1", "1"]}}, "padding": {"s": "VkFMSUQ="}, "leakyrelu_alpha": {"f": 0.2}, "dilations": {"list": {"i": ["1", "1", "1", "1"]}}, "use_cudnn_on_gpu": {"b": true}, "num_host_args": {"i": "0"}}}, {"name": "StatefulPartitionedCall/sequential_2/conv_lstm1d_5/while/body/_113/sequential_2/conv_lstm1d_5/while/convolution", "op": "_FusedConv2D", "input": ["StatefulPartitionedCall/sequential_2/conv_lstm1d_5/while/body/_113/sequential_2/conv_lstm1d_5/while/convolution/ExpandDims", "StatefulPartitionedCall/sequential_2/conv_lstm1d_5/while/body/_113/sequential_2/conv_lstm1d_5/while/convolution/ExpandDims_1", "ConstantFolding/StatefulPartitionedCall/sequential_2/conv_lstm1d_5/while/body/_113/sequential_2/conv_lstm1d_5/while/split_2-folded-0"], "device": "/device:CPU:0", "attr": {"num_args": {"i": "1"}, "num_host_args": {"i": "0"}, "strides": {"list": {"i": ["1", "1", "1", "1"]}}, "fused_ops": {"list": {"s": ["Qmlhc0FkZA=="]}}, "padding": {"s": "VkFMSUQ="}, "T": {"type": "DT_FLOAT"}, "data_format": {"s": "TkhXQw=="}, "use_cudnn_on_gpu": {"b": true}, "filter_format": {"s": "SFdJTw=="}, "explicit_paddings": {"list": {}}, "leakyrelu_alpha": {"f": 0.2}, "dilations": {"list": {"i": ["1", "1", "1", "1"]}}, "TArgs": {"list": {"type": ["DT_FLOAT"]}}, "epsilon": {"f": 0.0}}}, {"name": "StatefulPartitionedCall/sequential_2/conv_lstm1d_5/while/body/_113/sequential_2/conv_lstm1d_5/while/convolution_2", "op": "_FusedConv2D", "input": ["StatefulPartitionedCall/sequential_2/conv_lstm1d_5/while/body/_113/sequential_2/conv_lstm1d_5/while/convolution_2/ExpandDims", "StatefulPartitionedCall/sequential_2/conv_lstm1d_5/while/body/_113/sequential_2/conv_lstm1d_5/while/convolution_2/ExpandDims_1", "ConstantFolding/StatefulPartitionedCall/sequential_2/conv_lstm1d_5/while/body/_113/sequential_2/conv_lstm1d_5/while/split_2-folded-2"], "device": "/device:CPU:0", "attr": {"data_format": {"s": "TkhXQw=="}, "use_cudnn_on_gpu": {"b": true}, "leakyrelu_alpha": {"f": 0.2}, "epsilon": {"f": 0.0}, "padding": {"s": "VkFMSUQ="}, "fused_ops": {"list": {"s": ["Qmlhc0FkZA=="]}}, "num_args": {"i": "1"}, "T": {"type": "DT_FLOAT"}, "dilations": {"list": {"i": ["1", "1", "1", "1"]}}, "strides": {"list": {"i": ["1", "1", "1", "1"]}}, "num_host_args": {"i": "0"}, "explicit_paddings": {"list": {}}, "TArgs": {"list": {"type": ["DT_FLOAT"]}}, "filter_format": {"s": "SFdJTw=="}}}, {"name": "StatefulPartitionedCall/sequential_2/dense_3/Softmax", "op": "Softmax", "input": ["StatefulPartitionedCall/sequential_2/dense_3/BiasAdd"], "attr": {"T": {"type": "DT_FLOAT"}}}, {"name": "StatefulPartitionedCall/sequential_2/conv_lstm1d_5/while/body/_113/sequential_2/conv_lstm1d_5/while/BiasAdd_3", "op": "Squeeze", "input": ["StatefulPartitionedCall/sequential_2/conv_lstm1d_5/while/body/_113/sequential_2/conv_lstm1d_5/while/convolution_3"], "attr": {"squeeze_dims": {"list": {"i": ["-3"]}}, "T": {"type": "DT_FLOAT"}}}, {"name": "StatefulPartitionedCall/sequential_2/conv_lstm1d_5/while/body/_113/sequential_2/conv_lstm1d_5/while/BiasAdd_1", "op": "Squeeze", "input": ["StatefulPartitionedCall/sequential_2/conv_lstm1d_5/while/body/_113/sequential_2/conv_lstm1d_5/while/convolution_1"], "attr": {"squeeze_dims": {"list": {"i": ["-3"]}}, "T": {"type": "DT_FLOAT"}}}, {"name": "StatefulPartitionedCall/sequential_2/conv_lstm1d_5/while/body/_113/sequential_2/conv_lstm1d_5/while/BiasAdd", "op": "Squeeze", "input": ["StatefulPartitionedCall/sequential_2/conv_lstm1d_5/while/body/_113/sequential_2/conv_lstm1d_5/while/convolution"], "attr": {"squeeze_dims": {"list": {"i": ["-3"]}}, "T": {"type": "DT_FLOAT"}}}, {"name": "StatefulPartitionedCall/sequential_2/conv_lstm1d_5/while/body/_113/sequential_2/conv_lstm1d_5/while/BiasAdd_2", "op": "Squeeze", "input": ["StatefulPartitionedCall/sequential_2/conv_lstm1d_5/while/body/_113/sequential_2/conv_lstm1d_5/while/convolution_2"], "attr": {"T": {"type": "DT_FLOAT"}, "squeeze_dims": {"list": {"i": ["-3"]}}}}, {"name": "Identity", "op": "Identity", "input": ["StatefulPartitionedCall/sequential_2/dense_3/Softmax", "^StatefulPartitionedCall/sequential_2/conv_lstm1d_3/while/exit/_52", "^StatefulPartitionedCall/sequential_2/conv_lstm1d_3/while/exit/_51", "^StatefulPartitionedCall/sequential_2/conv_lstm1d_4/while/exit/_95", "^StatefulPartitionedCall/sequential_2/conv_lstm1d_4/while/exit/_96", "^StatefulPartitionedCall/sequential_2/conv_lstm1d_4/while/exit/_97", "^StatefulPartitionedCall/sequential_2/conv_lstm1d_3/while/exit/_53", "^StatefulPartitionedCall/sequential_2/conv_lstm1d_4/while/exit/_98", "^StatefulPartitionedCall/sequential_2/conv_lstm1d_3/while/exit/_46", "^StatefulPartitionedCall/sequential_2/conv_lstm1d_3/while/exit/_47", "^StatefulPartitionedCall/sequential_2/conv_lstm1d_4/while/exit/_99", "^StatefulPartitionedCall/sequential_2/conv_lstm1d_3/while/exit/_48", "^StatefulPartitionedCall/sequential_2/conv_lstm1d_3/while/exit/_49", "^StatefulPartitionedCall/sequential_2/conv_lstm1d_3/while/exit/_50", "^StatefulPartitionedCall/sequential_2/conv_lstm1d_5/while/exit/_151", "^StatefulPartitionedCall/sequential_2/conv_lstm1d_5/while/exit/_144", "^StatefulPartitionedCall/sequential_2/conv_lstm1d_5/while/exit/_145", "^StatefulPartitionedCall/sequential_2/conv_lstm1d_5/while/exit/_146", "^StatefulPartitionedCall/sequential_2/conv_lstm1d_5/while/exit/_147", "^StatefulPartitionedCall/sequential_2/conv_lstm1d_5/while/exit/_148", "^StatefulPartitionedCall/sequential_2/conv_lstm1d_5/while/exit/_149", "^StatefulPartitionedCall/sequential_2/conv_lstm1d_5/while/exit/_150", "^StatefulPartitionedCall/sequential_2/conv_lstm1d_4/while/exit/_100", "^StatefulPartitionedCall/sequential_2/conv_lstm1d_4/while/exit/_101", "^StatefulPartitionedCall/sequential_2/conv_lstm1d_4/while/exit/_102"], "attr": {"T": {"type": "DT_FLOAT"}}}, {"name": "StatefulPartitionedCall/sequential_2/conv_lstm1d_5/while/body/_113/sequential_2/conv_lstm1d_5/while/add_6", "op": "AddV2", "input": ["StatefulPartitionedCall/sequential_2/conv_lstm1d_5/while/body/_113/sequential_2/conv_lstm1d_5/while/BiasAdd_3", "StatefulPartitionedCall/sequential_2/conv_lstm1d_5/while/body/_113/sequential_2/conv_lstm1d_5/while/convolution_7/Squeeze"], "attr": {"T": {"type": "DT_FLOAT"}}}, {"name": "StatefulPartitionedCall/sequential_2/conv_lstm1d_5/while/body/_113/sequential_2/conv_lstm1d_5/while/add_2", "op": "AddV2", "input": ["StatefulPartitionedCall/sequential_2/conv_lstm1d_5/while/body/_113/sequential_2/conv_lstm1d_5/while/BiasAdd_1", "StatefulPartitionedCall/sequential_2/conv_lstm1d_5/while/body/_113/sequential_2/conv_lstm1d_5/while/convolution_5/Squeeze"], "attr": {"T": {"type": "DT_FLOAT"}}}, {"name": "StatefulPartitionedCall/sequential_2/conv_lstm1d_5/while/body/_113/sequential_2/conv_lstm1d_5/while/add", "op": "AddV2", "input": ["StatefulPartitionedCall/sequential_2/conv_lstm1d_5/while/body/_113/sequential_2/conv_lstm1d_5/while/BiasAdd", "StatefulPartitionedCall/sequential_2/conv_lstm1d_5/while/body/_113/sequential_2/conv_lstm1d_5/while/convolution_4/Squeeze"], "attr": {"T": {"type": "DT_FLOAT"}}}, {"name": "StatefulPartitionedCall/sequential_2/conv_lstm1d_5/while/body/_113/sequential_2/conv_lstm1d_5/while/add_4", "op": "AddV2", "input": ["StatefulPartitionedCall/sequential_2/conv_lstm1d_5/while/body/_113/sequential_2/conv_lstm1d_5/while/BiasAdd_2", "StatefulPartitionedCall/sequential_2/conv_lstm1d_5/while/body/_113/sequential_2/conv_lstm1d_5/while/convolution_6/Squeeze"], "attr": {"T": {"type": "DT_FLOAT"}}}, {"name": "StatefulPartitionedCall/sequential_2/conv_lstm1d_5/while/body/_113/sequential_2/conv_lstm1d_5/while/Mul_8", "op": "Mul", "input": ["StatefulPartitionedCall/sequential_2/conv_lstm1d_5/while/body/_113/sequential_2/conv_lstm1d_5/while/add_6", "StatefulPartitionedCall/sequential_2/conv_lstm1d_5/while/body/_113/sequential_2/conv_lstm1d_5/while/Const_4"], "attr": {"T": {"type": "DT_FLOAT"}}}, {"name": "StatefulPartitionedCall/sequential_2/conv_lstm1d_5/while/body/_113/sequential_2/conv_lstm1d_5/while/Mul_5", "op": "Mul", "input": ["StatefulPartitionedCall/sequential_2/conv_lstm1d_5/while/body/_113/sequential_2/conv_lstm1d_5/while/add_2", "StatefulPartitionedCall/sequential_2/conv_lstm1d_5/while/body/_113/sequential_2/conv_lstm1d_5/while/Const_2"], "attr": {"T": {"type": "DT_FLOAT"}}}, {"name": "StatefulPartitionedCall/sequential_2/conv_lstm1d_5/while/body/_113/sequential_2/conv_lstm1d_5/while/Mul_4", "op": "Mul", "input": ["StatefulPartitionedCall/sequential_2/conv_lstm1d_5/while/body/_113/sequential_2/conv_lstm1d_5/while/add", "StatefulPartitionedCall/sequential_2/conv_lstm1d_5/while/body/_113/sequential_2/conv_lstm1d_5/while/Const"], "attr": {"T": {"type": "DT_FLOAT"}}}, {"name": "StatefulPartitionedCall/sequential_2/conv_lstm1d_5/while/body/_113/sequential_2/conv_lstm1d_5/while/Tanh", "op": "Tanh", "input": ["StatefulPartitionedCall/sequential_2/conv_lstm1d_5/while/body/_113/sequential_2/conv_lstm1d_5/while/add_4"], "attr": {"T": {"type": "DT_FLOAT"}}}, {"name": "StatefulPartitionedCall/sequential_2/conv_lstm1d_5/while/body/_113/sequential_2/conv_lstm1d_5/while/Add_7", "op": "AddV2", "input": ["StatefulPartitionedCall/sequential_2/conv_lstm1d_5/while/body/_113/sequential_2/conv_lstm1d_5/while/Mul_8", "StatefulPartitionedCall/sequential_2/conv_lstm1d_5/while/body/_113/sequential_2/conv_lstm1d_5/while/Const_5"], "attr": {"T": {"type": "DT_FLOAT"}}}, {"name": "StatefulPartitionedCall/sequential_2/conv_lstm1d_5/while/body/_113/sequential_2/conv_lstm1d_5/while/Add_3", "op": "AddV2", "input": ["StatefulPartitionedCall/sequential_2/conv_lstm1d_5/while/body/_113/sequential_2/conv_lstm1d_5/while/Mul_5", "StatefulPartitionedCall/sequential_2/conv_lstm1d_5/while/body/_113/sequential_2/conv_lstm1d_5/while/Const_3"], "attr": {"T": {"type": "DT_FLOAT"}}}, {"name": "StatefulPartitionedCall/sequential_2/conv_lstm1d_5/while/body/_113/sequential_2/conv_lstm1d_5/while/Add_1", "op": "AddV2", "input": ["StatefulPartitionedCall/sequential_2/conv_lstm1d_5/while/body/_113/sequential_2/conv_lstm1d_5/while/Mul_4", "StatefulPartitionedCall/sequential_2/conv_lstm1d_5/while/body/_113/sequential_2/conv_lstm1d_5/while/Const_1"], "attr": {"T": {"type": "DT_FLOAT"}}}, {"name": "StatefulPartitionedCall/sequential_2/conv_lstm1d_5/while/body/_113/sequential_2/conv_lstm1d_5/while/clip_by_value_2/Minimum", "op": "Minimum", "input": ["StatefulPartitionedCall/sequential_2/conv_lstm1d_5/while/body/_113/sequential_2/conv_lstm1d_5/while/Add_7", "StatefulPartitionedCall/sequential_2/conv_lstm1d_5/while/body/_113/sequential_2/conv_lstm1d_5/while/clip_by_value_2/Minimum/y"], "attr": {"T": {"type": "DT_FLOAT"}}}, {"name": "StatefulPartitionedCall/sequential_2/conv_lstm1d_5/while/body/_113/sequential_2/conv_lstm1d_5/while/clip_by_value_1/Minimum", "op": "Minimum", "input": ["StatefulPartitionedCall/sequential_2/conv_lstm1d_5/while/body/_113/sequential_2/conv_lstm1d_5/while/Add_3", "StatefulPartitionedCall/sequential_2/conv_lstm1d_5/while/body/_113/sequential_2/conv_lstm1d_5/while/clip_by_value_1/Minimum/y"], "attr": {"T": {"type": "DT_FLOAT"}}}, {"name": "StatefulPartitionedCall/sequential_2/conv_lstm1d_5/while/body/_113/sequential_2/conv_lstm1d_5/while/clip_by_value/Minimum", "op": "Minimum", "input": ["StatefulPartitionedCall/sequential_2/conv_lstm1d_5/while/body/_113/sequential_2/conv_lstm1d_5/while/Add_1", "StatefulPartitionedCall/sequential_2/conv_lstm1d_5/while/body/_113/sequential_2/conv_lstm1d_5/while/clip_by_value/Minimum/y"], "attr": {"T": {"type": "DT_FLOAT"}}}, {"name": "StatefulPartitionedCall/sequential_2/conv_lstm1d_5/while/body/_113/sequential_2/conv_lstm1d_5/while/clip_by_value_2", "op": "Maximum", "input": ["StatefulPartitionedCall/sequential_2/conv_lstm1d_5/while/body/_113/sequential_2/conv_lstm1d_5/while/clip_by_value_2/Minimum", "StatefulPartitionedCall/sequential_2/conv_lstm1d_5/while/body/_113/sequential_2/conv_lstm1d_5/while/clip_by_value_2/y"], "attr": {"T": {"type": "DT_FLOAT"}}}, {"name": "StatefulPartitionedCall/sequential_2/conv_lstm1d_5/while/body/_113/sequential_2/conv_lstm1d_5/while/clip_by_value_1", "op": "Maximum", "input": ["StatefulPartitionedCall/sequential_2/conv_lstm1d_5/while/body/_113/sequential_2/conv_lstm1d_5/while/clip_by_value_1/Minimum", "StatefulPartitionedCall/sequential_2/conv_lstm1d_5/while/body/_113/sequential_2/conv_lstm1d_5/while/clip_by_value_1/y"], "attr": {"T": {"type": "DT_FLOAT"}}}, {"name": "StatefulPartitionedCall/sequential_2/conv_lstm1d_5/while/body/_113/sequential_2/conv_lstm1d_5/while/clip_by_value", "op": "Maximum", "input": ["StatefulPartitionedCall/sequential_2/conv_lstm1d_5/while/body/_113/sequential_2/conv_lstm1d_5/while/clip_by_value/Minimum", "StatefulPartitionedCall/sequential_2/conv_lstm1d_5/while/body/_113/sequential_2/conv_lstm1d_5/while/clip_by_value/y"], "attr": {"T": {"type": "DT_FLOAT"}}}, {"name": "StatefulPartitionedCall/sequential_2/conv_lstm1d_5/while/body/_113/sequential_2/conv_lstm1d_5/while/mul_6", "op": "Mul", "input": ["StatefulPartitionedCall/sequential_2/conv_lstm1d_5/while/body/_113/sequential_2/conv_lstm1d_5/while/clip_by_value_1", "StatefulPartitionedCall/sequential_2/conv_lstm1d_5/while/StatefulPartitionedCall/sequential_2/conv_lstm1d_5/convolution/Squeeze_switch/_140:1"], "attr": {"T": {"type": "DT_FLOAT"}}}, {"name": "StatefulPartitionedCall/sequential_2/conv_lstm1d_5/while/body/_113/sequential_2/conv_lstm1d_5/while/mul_7", "op": "Mul", "input": ["StatefulPartitionedCall/sequential_2/conv_lstm1d_5/while/body/_113/sequential_2/conv_lstm1d_5/while/clip_by_value", "StatefulPartitionedCall/sequential_2/conv_lstm1d_5/while/body/_113/sequential_2/conv_lstm1d_5/while/Tanh"], "attr": {"T": {"type": "DT_FLOAT"}}}, {"name": "StatefulPartitionedCall/sequential_2/conv_lstm1d_5/while/body/_113/sequential_2/conv_lstm1d_5/while/add_5", "op": "AddV2", "input": ["StatefulPartitionedCall/sequential_2/conv_lstm1d_5/while/body/_113/sequential_2/conv_lstm1d_5/while/mul_6", "StatefulPartitionedCall/sequential_2/conv_lstm1d_5/while/body/_113/sequential_2/conv_lstm1d_5/while/mul_7"], "attr": {"T": {"type": "DT_FLOAT"}}}, {"name": "StatefulPartitionedCall/sequential_2/conv_lstm1d_5/while/body/_113/sequential_2/conv_lstm1d_5/while/Tanh_1", "op": "Tanh", "input": ["StatefulPartitionedCall/sequential_2/conv_lstm1d_5/while/body/_113/sequential_2/conv_lstm1d_5/while/add_5"], "attr": {"T": {"type": "DT_FLOAT"}}}, {"name": "StatefulPartitionedCall/sequential_2/conv_lstm1d_5/while/next_iteration/_158", "op": "NextIteration", "input": ["StatefulPartitionedCall/sequential_2/conv_lstm1d_5/while/body/_113/sequential_2/conv_lstm1d_5/while/add_5", "^Func/StatefulPartitionedCall/sequential_2/conv_lstm1d_5/while/body/_113/output_control_node/_271", "^StatefulPartitionedCall/sequential_2/conv_lstm1d_5/while/body/_113/sequential_2/conv_lstm1d_5/while/NoOp"], "attr": {"T": {"type": "DT_FLOAT"}}}, {"name": "StatefulPartitionedCall/sequential_2/conv_lstm1d_5/while/body/_113/sequential_2/conv_lstm1d_5/while/mul_9", "op": "Mul", "input": ["StatefulPartitionedCall/sequential_2/conv_lstm1d_5/while/body/_113/sequential_2/conv_lstm1d_5/while/clip_by_value_2", "StatefulPartitionedCall/sequential_2/conv_lstm1d_5/while/body/_113/sequential_2/conv_lstm1d_5/while/Tanh_1"], "attr": {"T": {"type": "DT_FLOAT"}}}, {"name": "StatefulPartitionedCall/sequential_2/conv_lstm1d_5/while/body/_113/sequential_2/conv_lstm1d_5/while/TensorArrayV2Write/TensorListSetItem", "op": "TensorListSetItem", "input": ["StatefulPartitionedCall/sequential_2/conv_lstm1d_5/while/StatefulPartitionedCall/sequential_2/conv_lstm1d_5/TensorArrayV2_1_switch/_138:1", "Func/StatefulPartitionedCall/sequential_2/conv_lstm1d_5/while/body/_113/input/_251", "StatefulPartitionedCall/sequential_2/conv_lstm1d_5/while/body/_113/sequential_2/conv_lstm1d_5/while/mul_9"], "attr": {"element_dtype": {"type": "DT_FLOAT"}}, "experimentalType": {"typeId": "TFT_PRODUCT", "args": [{"typeId": "TFT_ARRAY", "args": [{"typeId": "TFT_TENSOR", "args": [{"typeId": "TFT_FLOAT"}]}]}]}}, {"name": "StatefulPartitionedCall/sequential_2/conv_lstm1d_5/while/next_iteration/_157", "op": "NextIteration", "input": ["StatefulPartitionedCall/sequential_2/conv_lstm1d_5/while/body/_113/sequential_2/conv_lstm1d_5/while/mul_9", "^Func/StatefulPartitionedCall/sequential_2/conv_lstm1d_5/while/body/_113/output_control_node/_271", "^StatefulPartitionedCall/sequential_2/conv_lstm1d_5/while/body/_113/sequential_2/conv_lstm1d_5/while/NoOp"], "attr": {"T": {"type": "DT_FLOAT"}}}, {"name": "StatefulPartitionedCall/sequential_2/conv_lstm1d_5/while/next_iteration/_156", "op": "NextIteration", "input": ["StatefulPartitionedCall/sequential_2/conv_lstm1d_5/while/body/_113/sequential_2/conv_lstm1d_5/while/TensorArrayV2Write/TensorListSetItem", "^Func/StatefulPartitionedCall/sequential_2/conv_lstm1d_5/while/body/_113/output_control_node/_271", "^StatefulPartitionedCall/sequential_2/conv_lstm1d_5/while/body/_113/sequential_2/conv_lstm1d_5/while/NoOp"], "attr": {"T": {"type": "DT_VARIANT"}}}], "library": {}, "versions": {"producer": 1286}}, "weightsManifest": [{"paths": ["group1-shard1of1.bin"], "weights": [{"name": "StatefulPartitionedCall/sequential_2/conv_lstm1d_5/TensorArrayV2Stack/TensorListStack/element_shape", "shape": [3], "dtype": "int32"}, {"name": "StatefulPartitionedCall/sequential_2/conv_lstm1d_5/transpose_1/perm", "shape": [4], "dtype": "int32"}, {"name": "StatefulPartitionedCall/sequential_2/flatten_2/Const", "shape": [2], "dtype": "int32"}, {"name": "StatefulPartitionedCall/sequential_2/dense_3/MatMul/ReadVariableOp", "shape": [86520, 9], "dtype": "float32"}, {"name": "StatefulPartitionedCall/sequential_2/dense_3/BiasAdd/ReadVariableOp", "shape": [9], "dtype": "float32"}, {"name": "StatefulPartitionedCall/sequential_2/conv_lstm1d_5/time", "shape": [], "dtype": "int32"}, {"name": "StatefulPartitionedCall/sequential_2/conv_lstm1d_5/while/loop_counter", "shape": [], "dtype": "int32"}, {"name": "StatefulPartitionedCall/sequential_2/conv_lstm1d_5/while/maximum_iterations", "shape": [], "dtype": "int32"}, {"name": "Func/StatefulPartitionedCall/input/_7", "shape": [3, 8, 56], "dtype": "float32"}, {"name": "Func/StatefulPartitionedCall/input/_8", "shape": [3, 14, 56], "dtype": "float32"}, {"name": "Func/StatefulPartitionedCall/input/_9", "shape": [56], "dtype": "float32"}, {"name": "StatefulPartitionedCall/sequential_2/conv_lstm1d_5/TensorArrayUnstack/TensorListFromTensor/element_shape", "shape": [3], "dtype": "int32"}, {"name": "StatefulPartitionedCall/sequential_2/conv_lstm1d_5/TensorArrayV2_1/element_shape", "shape": [3], "dtype": "int32"}, {"name": "StatefulPartitionedCall/sequential_2/conv_lstm1d_5/transpose/perm", "shape": [4], "dtype": "int32"}, {"name": "StatefulPartitionedCall/sequential_2/conv_lstm1d_5/strided_slice/stack", "shape": [1], "dtype": "int32"}, {"name": "StatefulPartitionedCall/sequential_2/conv_lstm1d_5/strided_slice/stack_1", "shape": [1], "dtype": "int32"}, {"name": "StatefulPartitionedCall/sequential_2/conv_lstm1d_5/strided_slice/stack_2", "shape": [1], "dtype": "int32"}, {"name": "StatefulPartitionedCall/sequential_2/conv_lstm1d_4/TensorArrayV2Stack/TensorListStack/element_shape", "shape": [3], "dtype": "int32"}, {"name": "StatefulPartitionedCall/sequential_2/conv_lstm1d_4/transpose_1/perm", "shape": [4], "dtype": "int32"}, {"name": "StatefulPartitionedCall/sequential_2/time_distributed_6/Reshape_1/shape", "shape": [4], "dtype": "int32"}, {"name": "StatefulPartitionedCall/sequential_2/conv_lstm1d_5/Sum/reduction_indices", "shape": [], "dtype": "int32"}, {"name": "StatefulPartitionedCall/sequential_2/conv_lstm1d_5/convolution/ExpandDims/dim", "shape": [], "dtype": "int32"}, {"name": "StatefulPartitionedCall/sequential_2/conv_lstm1d_5/convolution/ExpandDims_1", "shape": [1, 3, 8, 14], "dtype": "float32"}, {"name": "StatefulPartitionedCall/sequential_2/conv_lstm1d_4/time", "shape": [], "dtype": "int32"}, {"name": "StatefulPartitionedCall/sequential_2/conv_lstm1d_4/while/loop_counter", "shape": [], "dtype": "int32"}, {"name": "StatefulPartitionedCall/sequential_2/conv_lstm1d_4/while/maximum_iterations", "shape": [], "dtype": "int32"}, {"name": "Func/StatefulPartitionedCall/input/_4", "shape": [3, 4, 32], "dtype": "float32"}, {"name": "Func/StatefulPartitionedCall/input/_5", "shape": [3, 8, 32], "dtype": "float32"}, {"name": "Func/StatefulPartitionedCall/input/_6", "shape": [32], "dtype": "float32"}, {"name": "StatefulPartitionedCall/sequential_2/conv_lstm1d_4/TensorArrayUnstack/TensorListFromTensor/element_shape", "shape": [3], "dtype": "int32"}, {"name": "StatefulPartitionedCall/sequential_2/conv_lstm1d_4/TensorArrayV2_1/element_shape", "shape": [3], "dtype": "int32"}, {"name": "StatefulPartitionedCall/sequential_2/conv_lstm1d_4/transpose/perm", "shape": [4], "dtype": "int32"}, {"name": "StatefulPartitionedCall/sequential_2/conv_lstm1d_4/strided_slice/stack", "shape": [1], "dtype": "int32"}, {"name": "StatefulPartitionedCall/sequential_2/conv_lstm1d_4/strided_slice/stack_1", "shape": [1], "dtype": "int32"}, {"name": "StatefulPartitionedCall/sequential_2/conv_lstm1d_4/strided_slice/stack_2", "shape": [1], "dtype": "int32"}, {"name": "StatefulPartitionedCall/sequential_2/conv_lstm1d_3/time", "shape": [], "dtype": "int32"}, {"name": "StatefulPartitionedCall/sequential_2/conv_lstm1d_3/while/loop_counter", "shape": [], "dtype": "int32"}, {"name": "StatefulPartitionedCall/sequential_2/conv_lstm1d_3/while/maximum_iterations", "shape": [], "dtype": "int32"}, {"name": "Func/StatefulPartitionedCall/input/_1", "shape": [3, 1, 16], "dtype": "float32"}, {"name": "Func/StatefulPartitionedCall/input/_2", "shape": [3, 4, 16], "dtype": "float32"}, {"name": "Func/StatefulPartitionedCall/input/_3", "shape": [16], "dtype": "float32"}, {"name": "StatefulPartitionedCall/sequential_2/conv_lstm1d_3/TensorArrayUnstack/TensorListFromTensor/element_shape", "shape": [3], "dtype": "int32"}, {"name": "StatefulPartitionedCall/sequential_2/conv_lstm1d_3/TensorArrayV2_1/element_shape", "shape": [3], "dtype": "int32"}, {"name": "StatefulPartitionedCall/sequential_2/conv_lstm1d_3/transpose/perm", "shape": [4], "dtype": "int32"}, {"name": "StatefulPartitionedCall/sequential_2/conv_lstm1d_3/strided_slice/stack", "shape": [1], "dtype": "int32"}, {"name": "StatefulPartitionedCall/sequential_2/conv_lstm1d_3/strided_slice/stack_1", "shape": [1], "dtype": "int32"}, {"name": "StatefulPartitionedCall/sequential_2/conv_lstm1d_3/strided_slice/stack_2", "shape": [1], "dtype": "int32"}, {"name": "StatefulPartitionedCall/sequential_2/conv_lstm1d_3/Sum/reduction_indices", "shape": [], "dtype": "int32"}, {"name": "StatefulPartitionedCall/sequential_2/conv_lstm1d_3/convolution/ExpandDims/dim", "shape": [], "dtype": "int32"}, {"name": "StatefulPartitionedCall/sequential_2/conv_lstm1d_3/convolution/ExpandDims_1", "shape": [1, 3, 1, 4], "dtype": "float32"}, {"name": "StatefulPartitionedCall/sequential_2/conv_lstm1d_3/TensorArrayV2Stack/TensorListStack/element_shape", "shape": [3], "dtype": "int32"}, {"name": "StatefulPartitionedCall/sequential_2/conv_lstm1d_3/transpose_1/perm", "shape": [4], "dtype": "int32"}, {"name": "StatefulPartitionedCall/sequential_2/time_distributed_5/Reshape_1/shape", "shape": [4], "dtype": "int32"}, {"name": "StatefulPartitionedCall/sequential_2/conv_lstm1d_4/Sum/reduction_indices", "shape": [], "dtype": "int32"}, {"name": "StatefulPartitionedCall/sequential_2/conv_lstm1d_4/convolution/ExpandDims/dim", "shape": [], "dtype": "int32"}, {"name": "StatefulPartitionedCall/sequential_2/conv_lstm1d_4/convolution/ExpandDims_1", "shape": [1, 3, 4, 8], "dtype": "float32"}, {"name": "StatefulPartitionedCall/sequential_2/conv_lstm1d_3/while/body/_15/sequential_2/conv_lstm1d_3/while/convolution_3/ExpandDims/dim", "shape": [], "dtype": "int32"}, {"name": "StatefulPartitionedCall/sequential_2/conv_lstm1d_3/while/body/_15/sequential_2/conv_lstm1d_3/while/convolution_3/ExpandDims_1", "shape": [1, 3, 1, 4], "dtype": "float32"}, {"name": "StatefulPartitionedCall/sequential_2/conv_lstm1d_3/while/body/_15/sequential_2/conv_lstm1d_3/while/convolution_7/ExpandDims/dim", "shape": [], "dtype": "int32"}, {"name": "StatefulPartitionedCall/sequential_2/conv_lstm1d_3/while/body/_15/sequential_2/conv_lstm1d_3/while/convolution_7/ExpandDims_1", "shape": [1, 3, 4, 4], "dtype": "float32"}, {"name": "StatefulPartitionedCall/sequential_2/conv_lstm1d_3/while/body/_15/sequential_2/conv_lstm1d_3/while/Const_4", "shape": [], "dtype": "float32"}, {"name": "StatefulPartitionedCall/sequential_2/conv_lstm1d_3/while/body/_15/sequential_2/conv_lstm1d_3/while/Const_5", "shape": [], "dtype": "float32"}, {"name": "StatefulPartitionedCall/sequential_2/conv_lstm1d_3/while/body/_15/sequential_2/conv_lstm1d_3/while/clip_by_value_2/Minimum/y", "shape": [], "dtype": "float32"}, {"name": "StatefulPartitionedCall/sequential_2/conv_lstm1d_3/while/body/_15/sequential_2/conv_lstm1d_3/while/clip_by_value_2/y", "shape": [], "dtype": "float32"}, {"name": "StatefulPartitionedCall/sequential_2/conv_lstm1d_3/while/body/_15/sequential_2/conv_lstm1d_3/while/convolution_1/ExpandDims/dim", "shape": [], "dtype": "int32"}, {"name": "StatefulPartitionedCall/sequential_2/conv_lstm1d_3/while/body/_15/sequential_2/conv_lstm1d_3/while/convolution_1/ExpandDims_1", "shape": [1, 3, 1, 4], "dtype": "float32"}, {"name": "StatefulPartitionedCall/sequential_2/conv_lstm1d_3/while/body/_15/sequential_2/conv_lstm1d_3/while/convolution_5/ExpandDims/dim", "shape": [], "dtype": "int32"}, {"name": "StatefulPartitionedCall/sequential_2/conv_lstm1d_3/while/body/_15/sequential_2/conv_lstm1d_3/while/convolution_5/ExpandDims_1", "shape": [1, 3, 4, 4], "dtype": "float32"}, {"name": "StatefulPartitionedCall/sequential_2/conv_lstm1d_3/while/body/_15/sequential_2/conv_lstm1d_3/while/Const_2", "shape": [], "dtype": "float32"}, {"name": "StatefulPartitionedCall/sequential_2/conv_lstm1d_3/while/body/_15/sequential_2/conv_lstm1d_3/while/Const_3", "shape": [], "dtype": "float32"}, {"name": "StatefulPartitionedCall/sequential_2/conv_lstm1d_3/while/body/_15/sequential_2/conv_lstm1d_3/while/clip_by_value_1/Minimum/y", "shape": [], "dtype": "float32"}, {"name": "StatefulPartitionedCall/sequential_2/conv_lstm1d_3/while/body/_15/sequential_2/conv_lstm1d_3/while/clip_by_value_1/y", "shape": [], "dtype": "float32"}, {"name": "StatefulPartitionedCall/sequential_2/conv_lstm1d_3/while/body/_15/sequential_2/conv_lstm1d_3/while/convolution/ExpandDims/dim", "shape": [], "dtype": "int32"}, {"name": "StatefulPartitionedCall/sequential_2/conv_lstm1d_3/while/body/_15/sequential_2/conv_lstm1d_3/while/convolution/ExpandDims_1", "shape": [1, 3, 1, 4], "dtype": "float32"}, {"name": "StatefulPartitionedCall/sequential_2/conv_lstm1d_3/while/body/_15/sequential_2/conv_lstm1d_3/while/convolution_4/ExpandDims/dim", "shape": [], "dtype": "int32"}, {"name": "StatefulPartitionedCall/sequential_2/conv_lstm1d_3/while/body/_15/sequential_2/conv_lstm1d_3/while/convolution_4/ExpandDims_1", "shape": [1, 3, 4, 4], "dtype": "float32"}, {"name": "StatefulPartitionedCall/sequential_2/conv_lstm1d_3/while/body/_15/sequential_2/conv_lstm1d_3/while/Const", "shape": [], "dtype": "float32"}, {"name": "StatefulPartitionedCall/sequential_2/conv_lstm1d_3/while/body/_15/sequential_2/conv_lstm1d_3/while/Const_1", "shape": [], "dtype": "float32"}, {"name": "StatefulPartitionedCall/sequential_2/conv_lstm1d_3/while/body/_15/sequential_2/conv_lstm1d_3/while/clip_by_value/Minimum/y", "shape": [], "dtype": "float32"}, {"name": "StatefulPartitionedCall/sequential_2/conv_lstm1d_3/while/body/_15/sequential_2/conv_lstm1d_3/while/clip_by_value/y", "shape": [], "dtype": "float32"}, {"name": "StatefulPartitionedCall/sequential_2/conv_lstm1d_3/while/body/_15/sequential_2/conv_lstm1d_3/while/TensorArrayV2Read/TensorListGetItem/element_shape", "shape": [3], "dtype": "int32"}, {"name": "StatefulPartitionedCall/sequential_2/conv_lstm1d_3/while/body/_15/sequential_2/conv_lstm1d_3/while/convolution_2/ExpandDims/dim", "shape": [], "dtype": "int32"}, {"name": "StatefulPartitionedCall/sequential_2/conv_lstm1d_3/while/body/_15/sequential_2/conv_lstm1d_3/while/convolution_2/ExpandDims_1", "shape": [1, 3, 1, 4], "dtype": "float32"}, {"name": "StatefulPartitionedCall/sequential_2/conv_lstm1d_3/while/body/_15/sequential_2/conv_lstm1d_3/while/convolution_6/ExpandDims/dim", "shape": [], "dtype": "int32"}, {"name": "StatefulPartitionedCall/sequential_2/conv_lstm1d_3/while/body/_15/sequential_2/conv_lstm1d_3/while/convolution_6/ExpandDims_1", "shape": [1, 3, 4, 4], "dtype": "float32"}, {"name": "StatefulPartitionedCall/sequential_2/conv_lstm1d_3/while/body/_15/sequential_2/conv_lstm1d_3/while/add_8/y", "shape": [], "dtype": "int32"}, {"name": "StatefulPartitionedCall/sequential_2/conv_lstm1d_3/while/body/_15/sequential_2/conv_lstm1d_3/while/add_9/y", "shape": [], "dtype": "int32"}, {"name": "ConstantFolding/StatefulPartitionedCall/sequential_2/conv_lstm1d_3/while/body/_15/sequential_2/conv_lstm1d_3/while/split_2-folded-3", "shape": [4], "dtype": "float32"}, {"name": "ConstantFolding/StatefulPartitionedCall/sequential_2/conv_lstm1d_3/while/body/_15/sequential_2/conv_lstm1d_3/while/split_2-folded-1", "shape": [4], "dtype": "float32"}, {"name": "ConstantFolding/StatefulPartitionedCall/sequential_2/conv_lstm1d_3/while/body/_15/sequential_2/conv_lstm1d_3/while/split_2-folded-0", "shape": [4], "dtype": "float32"}, {"name": "ConstantFolding/StatefulPartitionedCall/sequential_2/conv_lstm1d_3/while/body/_15/sequential_2/conv_lstm1d_3/while/split_2-folded-2", "shape": [4], "dtype": "float32"}, {"name": "StatefulPartitionedCall/sequential_2/conv_lstm1d_4/while/body/_64/sequential_2/conv_lstm1d_4/while/convolution_3/ExpandDims/dim", "shape": [], "dtype": "int32"}, {"name": "StatefulPartitionedCall/sequential_2/conv_lstm1d_4/while/body/_64/sequential_2/conv_lstm1d_4/while/convolution_3/ExpandDims_1", "shape": [1, 3, 4, 8], "dtype": "float32"}, {"name": "StatefulPartitionedCall/sequential_2/conv_lstm1d_4/while/body/_64/sequential_2/conv_lstm1d_4/while/convolution_7/ExpandDims/dim", "shape": [], "dtype": "int32"}, {"name": "StatefulPartitionedCall/sequential_2/conv_lstm1d_4/while/body/_64/sequential_2/conv_lstm1d_4/while/convolution_7/ExpandDims_1", "shape": [1, 3, 8, 8], "dtype": "float32"}, {"name": "StatefulPartitionedCall/sequential_2/conv_lstm1d_4/while/body/_64/sequential_2/conv_lstm1d_4/while/Const_4", "shape": [], "dtype": "float32"}, {"name": "StatefulPartitionedCall/sequential_2/conv_lstm1d_4/while/body/_64/sequential_2/conv_lstm1d_4/while/Const_5", "shape": [], "dtype": "float32"}, {"name": "StatefulPartitionedCall/sequential_2/conv_lstm1d_4/while/body/_64/sequential_2/conv_lstm1d_4/while/clip_by_value_2/Minimum/y", "shape": [], "dtype": "float32"}, {"name": "StatefulPartitionedCall/sequential_2/conv_lstm1d_4/while/body/_64/sequential_2/conv_lstm1d_4/while/clip_by_value_2/y", "shape": [], "dtype": "float32"}, {"name": "StatefulPartitionedCall/sequential_2/conv_lstm1d_4/while/body/_64/sequential_2/conv_lstm1d_4/while/convolution_1/ExpandDims/dim", "shape": [], "dtype": "int32"}, {"name": "StatefulPartitionedCall/sequential_2/conv_lstm1d_4/while/body/_64/sequential_2/conv_lstm1d_4/while/convolution_1/ExpandDims_1", "shape": [1, 3, 4, 8], "dtype": "float32"}, {"name": "StatefulPartitionedCall/sequential_2/conv_lstm1d_4/while/body/_64/sequential_2/conv_lstm1d_4/while/convolution_5/ExpandDims/dim", "shape": [], "dtype": "int32"}, {"name": "StatefulPartitionedCall/sequential_2/conv_lstm1d_4/while/body/_64/sequential_2/conv_lstm1d_4/while/convolution_5/ExpandDims_1", "shape": [1, 3, 8, 8], "dtype": "float32"}, {"name": "StatefulPartitionedCall/sequential_2/conv_lstm1d_4/while/body/_64/sequential_2/conv_lstm1d_4/while/Const_2", "shape": [], "dtype": "float32"}, {"name": "StatefulPartitionedCall/sequential_2/conv_lstm1d_4/while/body/_64/sequential_2/conv_lstm1d_4/while/Const_3", "shape": [], "dtype": "float32"}, {"name": "StatefulPartitionedCall/sequential_2/conv_lstm1d_4/while/body/_64/sequential_2/conv_lstm1d_4/while/clip_by_value_1/Minimum/y", "shape": [], "dtype": "float32"}, {"name": "StatefulPartitionedCall/sequential_2/conv_lstm1d_4/while/body/_64/sequential_2/conv_lstm1d_4/while/clip_by_value_1/y", "shape": [], "dtype": "float32"}, {"name": "StatefulPartitionedCall/sequential_2/conv_lstm1d_4/while/body/_64/sequential_2/conv_lstm1d_4/while/convolution/ExpandDims/dim", "shape": [], "dtype": "int32"}, {"name": "StatefulPartitionedCall/sequential_2/conv_lstm1d_4/while/body/_64/sequential_2/conv_lstm1d_4/while/convolution/ExpandDims_1", "shape": [1, 3, 4, 8], "dtype": "float32"}, {"name": "StatefulPartitionedCall/sequential_2/conv_lstm1d_4/while/body/_64/sequential_2/conv_lstm1d_4/while/convolution_4/ExpandDims/dim", "shape": [], "dtype": "int32"}, {"name": "StatefulPartitionedCall/sequential_2/conv_lstm1d_4/while/body/_64/sequential_2/conv_lstm1d_4/while/convolution_4/ExpandDims_1", "shape": [1, 3, 8, 8], "dtype": "float32"}, {"name": "StatefulPartitionedCall/sequential_2/conv_lstm1d_4/while/body/_64/sequential_2/conv_lstm1d_4/while/Const", "shape": [], "dtype": "float32"}, {"name": "StatefulPartitionedCall/sequential_2/conv_lstm1d_4/while/body/_64/sequential_2/conv_lstm1d_4/while/Const_1", "shape": [], "dtype": "float32"}, {"name": "StatefulPartitionedCall/sequential_2/conv_lstm1d_4/while/body/_64/sequential_2/conv_lstm1d_4/while/clip_by_value/Minimum/y", "shape": [], "dtype": "float32"}, {"name": "StatefulPartitionedCall/sequential_2/conv_lstm1d_4/while/body/_64/sequential_2/conv_lstm1d_4/while/clip_by_value/y", "shape": [], "dtype": "float32"}, {"name": "StatefulPartitionedCall/sequential_2/conv_lstm1d_4/while/body/_64/sequential_2/conv_lstm1d_4/while/TensorArrayV2Read/TensorListGetItem/element_shape", "shape": [3], "dtype": "int32"}, {"name": "StatefulPartitionedCall/sequential_2/conv_lstm1d_4/while/body/_64/sequential_2/conv_lstm1d_4/while/convolution_2/ExpandDims/dim", "shape": [], "dtype": "int32"}, {"name": "StatefulPartitionedCall/sequential_2/conv_lstm1d_4/while/body/_64/sequential_2/conv_lstm1d_4/while/convolution_2/ExpandDims_1", "shape": [1, 3, 4, 8], "dtype": "float32"}, {"name": "StatefulPartitionedCall/sequential_2/conv_lstm1d_4/while/body/_64/sequential_2/conv_lstm1d_4/while/convolution_6/ExpandDims/dim", "shape": [], "dtype": "int32"}, {"name": "StatefulPartitionedCall/sequential_2/conv_lstm1d_4/while/body/_64/sequential_2/conv_lstm1d_4/while/convolution_6/ExpandDims_1", "shape": [1, 3, 8, 8], "dtype": "float32"}, {"name": "StatefulPartitionedCall/sequential_2/conv_lstm1d_4/while/body/_64/sequential_2/conv_lstm1d_4/while/add_8/y", "shape": [], "dtype": "int32"}, {"name": "StatefulPartitionedCall/sequential_2/conv_lstm1d_4/while/body/_64/sequential_2/conv_lstm1d_4/while/add_9/y", "shape": [], "dtype": "int32"}, {"name": "ConstantFolding/StatefulPartitionedCall/sequential_2/conv_lstm1d_4/while/body/_64/sequential_2/conv_lstm1d_4/while/split_2-folded-3", "shape": [8], "dtype": "float32"}, {"name": "ConstantFolding/StatefulPartitionedCall/sequential_2/conv_lstm1d_4/while/body/_64/sequential_2/conv_lstm1d_4/while/split_2-folded-1", "shape": [8], "dtype": "float32"}, {"name": "ConstantFolding/StatefulPartitionedCall/sequential_2/conv_lstm1d_4/while/body/_64/sequential_2/conv_lstm1d_4/while/split_2-folded-0", "shape": [8], "dtype": "float32"}, {"name": "ConstantFolding/StatefulPartitionedCall/sequential_2/conv_lstm1d_4/while/body/_64/sequential_2/conv_lstm1d_4/while/split_2-folded-2", "shape": [8], "dtype": "float32"}, {"name": "StatefulPartitionedCall/sequential_2/conv_lstm1d_5/while/body/_113/sequential_2/conv_lstm1d_5/while/convolution_3/ExpandDims/dim", "shape": [], "dtype": "int32"}, {"name": "StatefulPartitionedCall/sequential_2/conv_lstm1d_5/while/body/_113/sequential_2/conv_lstm1d_5/while/convolution_3/ExpandDims_1", "shape": [1, 3, 8, 14], "dtype": "float32"}, {"name": "StatefulPartitionedCall/sequential_2/conv_lstm1d_5/while/body/_113/sequential_2/conv_lstm1d_5/while/convolution_7/ExpandDims/dim", "shape": [], "dtype": "int32"}, {"name": "StatefulPartitionedCall/sequential_2/conv_lstm1d_5/while/body/_113/sequential_2/conv_lstm1d_5/while/convolution_7/ExpandDims_1", "shape": [1, 3, 14, 14], "dtype": "float32"}, {"name": "StatefulPartitionedCall/sequential_2/conv_lstm1d_5/while/body/_113/sequential_2/conv_lstm1d_5/while/Const_4", "shape": [], "dtype": "float32"}, {"name": "StatefulPartitionedCall/sequential_2/conv_lstm1d_5/while/body/_113/sequential_2/conv_lstm1d_5/while/Const_5", "shape": [], "dtype": "float32"}, {"name": "StatefulPartitionedCall/sequential_2/conv_lstm1d_5/while/body/_113/sequential_2/conv_lstm1d_5/while/clip_by_value_2/Minimum/y", "shape": [], "dtype": "float32"}, {"name": "StatefulPartitionedCall/sequential_2/conv_lstm1d_5/while/body/_113/sequential_2/conv_lstm1d_5/while/clip_by_value_2/y", "shape": [], "dtype": "float32"}, {"name": "StatefulPartitionedCall/sequential_2/conv_lstm1d_5/while/body/_113/sequential_2/conv_lstm1d_5/while/convolution_1/ExpandDims/dim", "shape": [], "dtype": "int32"}, {"name": "StatefulPartitionedCall/sequential_2/conv_lstm1d_5/while/body/_113/sequential_2/conv_lstm1d_5/while/convolution_1/ExpandDims_1", "shape": [1, 3, 8, 14], "dtype": "float32"}, {"name": "StatefulPartitionedCall/sequential_2/conv_lstm1d_5/while/body/_113/sequential_2/conv_lstm1d_5/while/convolution_5/ExpandDims/dim", "shape": [], "dtype": "int32"}, {"name": "StatefulPartitionedCall/sequential_2/conv_lstm1d_5/while/body/_113/sequential_2/conv_lstm1d_5/while/convolution_5/ExpandDims_1", "shape": [1, 3, 14, 14], "dtype": "float32"}, {"name": "StatefulPartitionedCall/sequential_2/conv_lstm1d_5/while/body/_113/sequential_2/conv_lstm1d_5/while/Const_2", "shape": [], "dtype": "float32"}, {"name": "StatefulPartitionedCall/sequential_2/conv_lstm1d_5/while/body/_113/sequential_2/conv_lstm1d_5/while/Const_3", "shape": [], "dtype": "float32"}, {"name": "StatefulPartitionedCall/sequential_2/conv_lstm1d_5/while/body/_113/sequential_2/conv_lstm1d_5/while/clip_by_value_1/Minimum/y", "shape": [], "dtype": "float32"}, {"name": "StatefulPartitionedCall/sequential_2/conv_lstm1d_5/while/body/_113/sequential_2/conv_lstm1d_5/while/clip_by_value_1/y", "shape": [], "dtype": "float32"}, {"name": "StatefulPartitionedCall/sequential_2/conv_lstm1d_5/while/body/_113/sequential_2/conv_lstm1d_5/while/convolution/ExpandDims/dim", "shape": [], "dtype": "int32"}, {"name": "StatefulPartitionedCall/sequential_2/conv_lstm1d_5/while/body/_113/sequential_2/conv_lstm1d_5/while/convolution/ExpandDims_1", "shape": [1, 3, 8, 14], "dtype": "float32"}, {"name": "StatefulPartitionedCall/sequential_2/conv_lstm1d_5/while/body/_113/sequential_2/conv_lstm1d_5/while/convolution_4/ExpandDims/dim", "shape": [], "dtype": "int32"}, {"name": "StatefulPartitionedCall/sequential_2/conv_lstm1d_5/while/body/_113/sequential_2/conv_lstm1d_5/while/convolution_4/ExpandDims_1", "shape": [1, 3, 14, 14], "dtype": "float32"}, {"name": "StatefulPartitionedCall/sequential_2/conv_lstm1d_5/while/body/_113/sequential_2/conv_lstm1d_5/while/Const", "shape": [], "dtype": "float32"}, {"name": "StatefulPartitionedCall/sequential_2/conv_lstm1d_5/while/body/_113/sequential_2/conv_lstm1d_5/while/Const_1", "shape": [], "dtype": "float32"}, {"name": "StatefulPartitionedCall/sequential_2/conv_lstm1d_5/while/body/_113/sequential_2/conv_lstm1d_5/while/clip_by_value/Minimum/y", "shape": [], "dtype": "float32"}, {"name": "StatefulPartitionedCall/sequential_2/conv_lstm1d_5/while/body/_113/sequential_2/conv_lstm1d_5/while/clip_by_value/y", "shape": [], "dtype": "float32"}, {"name": "StatefulPartitionedCall/sequential_2/conv_lstm1d_5/while/body/_113/sequential_2/conv_lstm1d_5/while/TensorArrayV2Read/TensorListGetItem/element_shape", "shape": [3], "dtype": "int32"}, {"name": "StatefulPartitionedCall/sequential_2/conv_lstm1d_5/while/body/_113/sequential_2/conv_lstm1d_5/while/convolution_2/ExpandDims/dim", "shape": [], "dtype": "int32"}, {"name": "StatefulPartitionedCall/sequential_2/conv_lstm1d_5/while/body/_113/sequential_2/conv_lstm1d_5/while/convolution_2/ExpandDims_1", "shape": [1, 3, 8, 14], "dtype": "float32"}, {"name": "StatefulPartitionedCall/sequential_2/conv_lstm1d_5/while/body/_113/sequential_2/conv_lstm1d_5/while/convolution_6/ExpandDims/dim", "shape": [], "dtype": "int32"}, {"name": "StatefulPartitionedCall/sequential_2/conv_lstm1d_5/while/body/_113/sequential_2/conv_lstm1d_5/while/convolution_6/ExpandDims_1", "shape": [1, 3, 14, 14], "dtype": "float32"}, {"name": "StatefulPartitionedCall/sequential_2/conv_lstm1d_5/while/body/_113/sequential_2/conv_lstm1d_5/while/add_8/y", "shape": [], "dtype": "int32"}, {"name": "StatefulPartitionedCall/sequential_2/conv_lstm1d_5/while/body/_113/sequential_2/conv_lstm1d_5/while/add_9/y", "shape": [], "dtype": "int32"}, {"name": "ConstantFolding/StatefulPartitionedCall/sequential_2/conv_lstm1d_5/while/body/_113/sequential_2/conv_lstm1d_5/while/split_2-folded-3", "shape": [14], "dtype": "float32"}, {"name": "ConstantFolding/StatefulPartitionedCall/sequential_2/conv_lstm1d_5/while/body/_113/sequential_2/conv_lstm1d_5/while/split_2-folded-1", "shape": [14], "dtype": "float32"}, {"name": "ConstantFolding/StatefulPartitionedCall/sequential_2/conv_lstm1d_5/while/body/_113/sequential_2/conv_lstm1d_5/while/split_2-folded-0", "shape": [14], "dtype": "float32"}, {"name": "ConstantFolding/StatefulPartitionedCall/sequential_2/conv_lstm1d_5/while/body/_113/sequential_2/conv_lstm1d_5/while/split_2-folded-2", "shape": [14], "dtype": "float32"}]}]}