{"format": "graph-model", "generatedBy": "2.9.2", "convertedBy": "TensorFlow.js Converter v3.18.0", "signature": {"inputs": {"conv_lstm1d_32_input": {"name": "conv_lstm1d_32_input:0", "dtype": "DT_FLOAT", "tensorShape": {"dim": [{"size": "-1"}, {"size": "30"}, {"size": "1662"}, {"size": "1"}]}}}, "outputs": {"dense_8": {"name": "Identity:0", "dtype": "DT_FLOAT", "tensorShape": {"dim": [{"size": "-1"}, {"size": "9"}]}}}}, "modelTopology": {"node": [{"name": "StatefulPartitionedCall/sequential_8/conv_lstm1d_35/while/loop_counter", "op": "Const", "attr": {"value": {"tensor": {"dtype": "DT_INT32", "tensorShape": {}}}, "dtype": {"type": "DT_INT32"}}}, {"name": "StatefulPartitionedCall/sequential_8/conv_lstm1d_35/while/maximum_iterations", "op": "Const", "attr": {"value": {"tensor": {"dtype": "DT_INT32", "tensorShape": {}}}, "dtype": {"type": "DT_INT32"}}}, {"name": "StatefulPartitionedCall/sequential_8/conv_lstm1d_35/time", "op": "Const", "attr": {"value": {"tensor": {"dtype": "DT_INT32", "tensorShape": {}}}, "dtype": {"type": "DT_INT32"}}}, {"name": "StatefulPartitionedCall/sequential_8/conv_lstm1d_35/TensorArrayV2_1/element_shape", "op": "Const", "attr": {"dtype": {"type": "DT_INT32"}, "value": {"tensor": {"dtype": "DT_INT32", "tensorShape": {"dim": [{"size": "3"}]}}}}}, {"name": "StatefulPartitionedCall/sequential_8/conv_lstm1d_35/Sum/reduction_indices", "op": "Const", "attr": {"dtype": {"type": "DT_INT32"}, "value": {"tensor": {"dtype": "DT_INT32", "tensorShape": {}}}}}, {"name": "StatefulPartitionedCall/sequential_8/conv_lstm1d_35/convolution/ExpandDims/dim", "op": "Const", "attr": {"dtype": {"type": "DT_INT32"}, "value": {"tensor": {"dtype": "DT_INT32", "tensorShape": {}}}}}, {"name": "StatefulPartitionedCall/sequential_8/conv_lstm1d_35/convolution/ExpandDims_1", "op": "Const", "attr": {"dtype": {"type": "DT_FLOAT"}, "value": {"tensor": {"dtype": "DT_FLOAT", "tensorShape": {"dim": [{"size": "1"}, {"size": "3"}, {"size": "14"}, {"size": "16"}]}}}}}, {"name": "StatefulPartitionedCall/sequential_8/conv_lstm1d_35/strided_slice/stack", "op": "Const", "attr": {"dtype": {"type": "DT_INT32"}, "value": {"tensor": {"dtype": "DT_INT32", "tensorShape": {"dim": [{"size": "1"}]}}}}}, {"name": "StatefulPartitionedCall/sequential_8/conv_lstm1d_35/strided_slice/stack_1", "op": "Const", "attr": {"value": {"tensor": {"dtype": "DT_INT32", "tensorShape": {"dim": [{"size": "1"}]}}}, "dtype": {"type": "DT_INT32"}}}, {"name": "StatefulPartitionedCall/sequential_8/conv_lstm1d_35/strided_slice/stack_2", "op": "Const", "attr": {"dtype": {"type": "DT_INT32"}, "value": {"tensor": {"dtype": "DT_INT32", "tensorShape": {"dim": [{"size": "1"}]}}}}}, {"name": "StatefulPartitionedCall/sequential_8/conv_lstm1d_34/while/loop_counter", "op": "Const", "attr": {"dtype": {"type": "DT_INT32"}, "value": {"tensor": {"dtype": "DT_INT32", "tensorShape": {}}}}}, {"name": "StatefulPartitionedCall/sequential_8/conv_lstm1d_34/while/maximum_iterations", "op": "Const", "attr": {"dtype": {"type": "DT_INT32"}, "value": {"tensor": {"dtype": "DT_INT32", "tensorShape": {}}}}}, {"name": "StatefulPartitionedCall/sequential_8/conv_lstm1d_34/time", "op": "Const", "attr": {"value": {"tensor": {"dtype": "DT_INT32", "tensorShape": {}}}, "dtype": {"type": "DT_INT32"}}}, {"name": "StatefulPartitionedCall/sequential_8/conv_lstm1d_34/TensorArrayV2_1/element_shape", "op": "Const", "attr": {"value": {"tensor": {"dtype": "DT_INT32", "tensorShape": {"dim": [{"size": "3"}]}}}, "dtype": {"type": "DT_INT32"}}}, {"name": "StatefulPartitionedCall/sequential_8/conv_lstm1d_34/Sum/reduction_indices", "op": "Const", "attr": {"value": {"tensor": {"dtype": "DT_INT32", "tensorShape": {}}}, "dtype": {"type": "DT_INT32"}}}, {"name": "StatefulPartitionedCall/sequential_8/conv_lstm1d_34/convolution/ExpandDims/dim", "op": "Const", "attr": {"dtype": {"type": "DT_INT32"}, "value": {"tensor": {"dtype": "DT_INT32", "tensorShape": {}}}}}, {"name": "StatefulPartitionedCall/sequential_8/conv_lstm1d_34/convolution/ExpandDims_1", "op": "Const", "attr": {"dtype": {"type": "DT_FLOAT"}, "value": {"tensor": {"dtype": "DT_FLOAT", "tensorShape": {"dim": [{"size": "1"}, {"size": "3"}, {"size": "8"}, {"size": "14"}]}}}}}, {"name": "StatefulPartitionedCall/sequential_8/conv_lstm1d_34/strided_slice/stack", "op": "Const", "attr": {"value": {"tensor": {"dtype": "DT_INT32", "tensorShape": {"dim": [{"size": "1"}]}}}, "dtype": {"type": "DT_INT32"}}}, {"name": "StatefulPartitionedCall/sequential_8/conv_lstm1d_34/strided_slice/stack_1", "op": "Const", "attr": {"dtype": {"type": "DT_INT32"}, "value": {"tensor": {"dtype": "DT_INT32", "tensorShape": {"dim": [{"size": "1"}]}}}}}, {"name": "StatefulPartitionedCall/sequential_8/conv_lstm1d_34/strided_slice/stack_2", "op": "Const", "attr": {"dtype": {"type": "DT_INT32"}, "value": {"tensor": {"dtype": "DT_INT32", "tensorShape": {"dim": [{"size": "1"}]}}}}}, {"name": "StatefulPartitionedCall/sequential_8/conv_lstm1d_33/while/loop_counter", "op": "Const", "attr": {"dtype": {"type": "DT_INT32"}, "value": {"tensor": {"dtype": "DT_INT32", "tensorShape": {}}}}}, {"name": "StatefulPartitionedCall/sequential_8/conv_lstm1d_33/while/maximum_iterations", "op": "Const", "attr": {"value": {"tensor": {"dtype": "DT_INT32", "tensorShape": {}}}, "dtype": {"type": "DT_INT32"}}}, {"name": "StatefulPartitionedCall/sequential_8/conv_lstm1d_33/time", "op": "Const", "attr": {"value": {"tensor": {"dtype": "DT_INT32", "tensorShape": {}}}, "dtype": {"type": "DT_INT32"}}}, {"name": "StatefulPartitionedCall/sequential_8/conv_lstm1d_33/TensorArrayV2_1/element_shape", "op": "Const", "attr": {"value": {"tensor": {"dtype": "DT_INT32", "tensorShape": {"dim": [{"size": "3"}]}}}, "dtype": {"type": "DT_INT32"}}}, {"name": "StatefulPartitionedCall/sequential_8/conv_lstm1d_33/Sum/reduction_indices", "op": "Const", "attr": {"dtype": {"type": "DT_INT32"}, "value": {"tensor": {"dtype": "DT_INT32", "tensorShape": {}}}}}, {"name": "StatefulPartitionedCall/sequential_8/conv_lstm1d_33/convolution/ExpandDims/dim", "op": "Const", "attr": {"dtype": {"type": "DT_INT32"}, "value": {"tensor": {"dtype": "DT_INT32", "tensorShape": {}}}}}, {"name": "StatefulPartitionedCall/sequential_8/conv_lstm1d_33/convolution/ExpandDims_1", "op": "Const", "attr": {"dtype": {"type": "DT_FLOAT"}, "value": {"tensor": {"dtype": "DT_FLOAT", "tensorShape": {"dim": [{"size": "1"}, {"size": "3"}, {"size": "4"}, {"size": "8"}]}}}}}, {"name": "StatefulPartitionedCall/sequential_8/conv_lstm1d_33/strided_slice/stack", "op": "Const", "attr": {"dtype": {"type": "DT_INT32"}, "value": {"tensor": {"dtype": "DT_INT32", "tensorShape": {"dim": [{"size": "1"}]}}}}}, {"name": "StatefulPartitionedCall/sequential_8/conv_lstm1d_33/strided_slice/stack_1", "op": "Const", "attr": {"value": {"tensor": {"dtype": "DT_INT32", "tensorShape": {"dim": [{"size": "1"}]}}}, "dtype": {"type": "DT_INT32"}}}, {"name": "StatefulPartitionedCall/sequential_8/conv_lstm1d_33/strided_slice/stack_2", "op": "Const", "attr": {"value": {"tensor": {"dtype": "DT_INT32", "tensorShape": {"dim": [{"size": "1"}]}}}, "dtype": {"type": "DT_INT32"}}}, {"name": "StatefulPartitionedCall/sequential_8/conv_lstm1d_32/while/loop_counter", "op": "Const", "attr": {"value": {"tensor": {"dtype": "DT_INT32", "tensorShape": {}}}, "dtype": {"type": "DT_INT32"}}}, {"name": "StatefulPartitionedCall/sequential_8/conv_lstm1d_32/while/maximum_iterations", "op": "Const", "attr": {"dtype": {"type": "DT_INT32"}, "value": {"tensor": {"dtype": "DT_INT32", "tensorShape": {}}}}}, {"name": "StatefulPartitionedCall/sequential_8/conv_lstm1d_32/time", "op": "Const", "attr": {"value": {"tensor": {"dtype": "DT_INT32", "tensorShape": {}}}, "dtype": {"type": "DT_INT32"}}}, {"name": "StatefulPartitionedCall/sequential_8/conv_lstm1d_32/TensorArrayV2_1/element_shape", "op": "Const", "attr": {"dtype": {"type": "DT_INT32"}, "value": {"tensor": {"dtype": "DT_INT32", "tensorShape": {"dim": [{"size": "3"}]}}}}}, {"name": "StatefulPartitionedCall/sequential_8/conv_lstm1d_32/Sum/reduction_indices", "op": "Const", "attr": {"dtype": {"type": "DT_INT32"}, "value": {"tensor": {"dtype": "DT_INT32", "tensorShape": {}}}}}, {"name": "StatefulPartitionedCall/sequential_8/conv_lstm1d_32/convolution/ExpandDims/dim", "op": "Const", "attr": {"dtype": {"type": "DT_INT32"}, "value": {"tensor": {"dtype": "DT_INT32", "tensorShape": {}}}}}, {"name": "StatefulPartitionedCall/sequential_8/conv_lstm1d_32/convolution/ExpandDims_1", "op": "Const", "attr": {"dtype": {"type": "DT_FLOAT"}, "value": {"tensor": {"dtype": "DT_FLOAT", "tensorShape": {"dim": [{"size": "1"}, {"size": "3"}, {"size": "1"}, {"size": "4"}]}}}}}, {"name": "StatefulPartitionedCall/sequential_8/conv_lstm1d_32/strided_slice/stack", "op": "Const", "attr": {"value": {"tensor": {"dtype": "DT_INT32", "tensorShape": {"dim": [{"size": "1"}]}}}, "dtype": {"type": "DT_INT32"}}}, {"name": "StatefulPartitionedCall/sequential_8/conv_lstm1d_32/strided_slice/stack_1", "op": "Const", "attr": {"dtype": {"type": "DT_INT32"}, "value": {"tensor": {"dtype": "DT_INT32", "tensorShape": {"dim": [{"size": "1"}]}}}}}, {"name": "StatefulPartitionedCall/sequential_8/conv_lstm1d_32/strided_slice/stack_2", "op": "Const", "attr": {"value": {"tensor": {"dtype": "DT_INT32", "tensorShape": {"dim": [{"size": "1"}]}}}, "dtype": {"type": "DT_INT32"}}}, {"name": "StatefulPartitionedCall/sequential_8/conv_lstm1d_32/transpose/perm", "op": "Const", "attr": {"dtype": {"type": "DT_INT32"}, "value": {"tensor": {"dtype": "DT_INT32", "tensorShape": {"dim": [{"size": "4"}]}}}}}, {"name": "StatefulPartitionedCall/sequential_8/conv_lstm1d_32/TensorArrayUnstack/TensorListFromTensor/element_shape", "op": "Const", "attr": {"value": {"tensor": {"dtype": "DT_INT32", "tensorShape": {"dim": [{"size": "3"}]}}}, "dtype": {"type": "DT_INT32"}}}, {"name": "unknown", "op": "Const", "attr": {"dtype": {"type": "DT_FLOAT"}, "value": {"tensor": {"dtype": "DT_FLOAT", "tensorShape": {"dim": [{"size": "3"}, {"size": "1"}, {"size": "16"}]}}}}}, {"name": "unknown_0", "op": "Const", "attr": {"dtype": {"type": "DT_FLOAT"}, "value": {"tensor": {"dtype": "DT_FLOAT", "tensorShape": {"dim": [{"size": "3"}, {"size": "4"}, {"size": "16"}]}}}}}, {"name": "unknown_1", "op": "Const", "attr": {"dtype": {"type": "DT_FLOAT"}, "value": {"tensor": {"dtype": "DT_FLOAT", "tensorShape": {"dim": [{"size": "16"}]}}}}}, {"name": "StatefulPartitionedCall/sequential_8/conv_lstm1d_32/TensorArrayV2Stack/TensorListStack/element_shape", "op": "Const", "attr": {"value": {"tensor": {"dtype": "DT_INT32", "tensorShape": {"dim": [{"size": "3"}]}}}, "dtype": {"type": "DT_INT32"}}}, {"name": "StatefulPartitionedCall/sequential_8/conv_lstm1d_32/transpose_1/perm", "op": "Const", "attr": {"dtype": {"type": "DT_INT32"}, "value": {"tensor": {"dtype": "DT_INT32", "tensorShape": {"dim": [{"size": "4"}]}}}}}, {"name": "StatefulPartitionedCall/sequential_8/time_distributed_24/Reshape_1/shape", "op": "Const", "attr": {"dtype": {"type": "DT_INT32"}, "value": {"tensor": {"dtype": "DT_INT32", "tensorShape": {"dim": [{"size": "4"}]}}}}}, {"name": "StatefulPartitionedCall/sequential_8/conv_lstm1d_33/transpose/perm", "op": "Const", "attr": {"value": {"tensor": {"dtype": "DT_INT32", "tensorShape": {"dim": [{"size": "4"}]}}}, "dtype": {"type": "DT_INT32"}}}, {"name": "StatefulPartitionedCall/sequential_8/conv_lstm1d_33/TensorArrayUnstack/TensorListFromTensor/element_shape", "op": "Const", "attr": {"dtype": {"type": "DT_INT32"}, "value": {"tensor": {"dtype": "DT_INT32", "tensorShape": {"dim": [{"size": "3"}]}}}}}, {"name": "unknown_2", "op": "Const", "attr": {"dtype": {"type": "DT_FLOAT"}, "value": {"tensor": {"dtype": "DT_FLOAT", "tensorShape": {"dim": [{"size": "3"}, {"size": "4"}, {"size": "32"}]}}}}}, {"name": "unknown_3", "op": "Const", "attr": {"dtype": {"type": "DT_FLOAT"}, "value": {"tensor": {"dtype": "DT_FLOAT", "tensorShape": {"dim": [{"size": "3"}, {"size": "8"}, {"size": "32"}]}}}}}, {"name": "unknown_4", "op": "Const", "attr": {"value": {"tensor": {"dtype": "DT_FLOAT", "tensorShape": {"dim": [{"size": "32"}]}}}, "dtype": {"type": "DT_FLOAT"}}}, {"name": "StatefulPartitionedCall/sequential_8/conv_lstm1d_33/TensorArrayV2Stack/TensorListStack/element_shape", "op": "Const", "attr": {"value": {"tensor": {"dtype": "DT_INT32", "tensorShape": {"dim": [{"size": "3"}]}}}, "dtype": {"type": "DT_INT32"}}}, {"name": "StatefulPartitionedCall/sequential_8/conv_lstm1d_33/transpose_1/perm", "op": "Const", "attr": {"dtype": {"type": "DT_INT32"}, "value": {"tensor": {"dtype": "DT_INT32", "tensorShape": {"dim": [{"size": "4"}]}}}}}, {"name": "StatefulPartitionedCall/sequential_8/time_distributed_25/Reshape_1/shape", "op": "Const", "attr": {"dtype": {"type": "DT_INT32"}, "value": {"tensor": {"dtype": "DT_INT32", "tensorShape": {"dim": [{"size": "4"}]}}}}}, {"name": "StatefulPartitionedCall/sequential_8/conv_lstm1d_34/transpose/perm", "op": "Const", "attr": {"dtype": {"type": "DT_INT32"}, "value": {"tensor": {"dtype": "DT_INT32", "tensorShape": {"dim": [{"size": "4"}]}}}}}, {"name": "StatefulPartitionedCall/sequential_8/conv_lstm1d_34/TensorArrayUnstack/TensorListFromTensor/element_shape", "op": "Const", "attr": {"value": {"tensor": {"dtype": "DT_INT32", "tensorShape": {"dim": [{"size": "3"}]}}}, "dtype": {"type": "DT_INT32"}}}, {"name": "unknown_5", "op": "Const", "attr": {"dtype": {"type": "DT_FLOAT"}, "value": {"tensor": {"dtype": "DT_FLOAT", "tensorShape": {"dim": [{"size": "3"}, {"size": "8"}, {"size": "56"}]}}}}}, {"name": "unknown_6", "op": "Const", "attr": {"value": {"tensor": {"dtype": "DT_FLOAT", "tensorShape": {"dim": [{"size": "3"}, {"size": "14"}, {"size": "56"}]}}}, "dtype": {"type": "DT_FLOAT"}}}, {"name": "unknown_7", "op": "Const", "attr": {"dtype": {"type": "DT_FLOAT"}, "value": {"tensor": {"dtype": "DT_FLOAT", "tensorShape": {"dim": [{"size": "56"}]}}}}}, {"name": "StatefulPartitionedCall/sequential_8/conv_lstm1d_34/TensorArrayV2Stack/TensorListStack/element_shape", "op": "Const", "attr": {"value": {"tensor": {"dtype": "DT_INT32", "tensorShape": {"dim": [{"size": "3"}]}}}, "dtype": {"type": "DT_INT32"}}}, {"name": "StatefulPartitionedCall/sequential_8/conv_lstm1d_34/transpose_1/perm", "op": "Const", "attr": {"value": {"tensor": {"dtype": "DT_INT32", "tensorShape": {"dim": [{"size": "4"}]}}}, "dtype": {"type": "DT_INT32"}}}, {"name": "StatefulPartitionedCall/sequential_8/time_distributed_26/Reshape_1/shape", "op": "Const", "attr": {"dtype": {"type": "DT_INT32"}, "value": {"tensor": {"dtype": "DT_INT32", "tensorShape": {"dim": [{"size": "4"}]}}}}}, {"name": "StatefulPartitionedCall/sequential_8/conv_lstm1d_35/transpose/perm", "op": "Const", "attr": {"value": {"tensor": {"dtype": "DT_INT32", "tensorShape": {"dim": [{"size": "4"}]}}}, "dtype": {"type": "DT_INT32"}}}, {"name": "StatefulPartitionedCall/sequential_8/conv_lstm1d_35/TensorArrayUnstack/TensorListFromTensor/element_shape", "op": "Const", "attr": {"dtype": {"type": "DT_INT32"}, "value": {"tensor": {"dtype": "DT_INT32", "tensorShape": {"dim": [{"size": "3"}]}}}}}, {"name": "unknown_8", "op": "Const", "attr": {"dtype": {"type": "DT_FLOAT"}, "value": {"tensor": {"dtype": "DT_FLOAT", "tensorShape": {"dim": [{"size": "3"}, {"size": "14"}, {"size": "64"}]}}}}}, {"name": "unknown_9", "op": "Const", "attr": {"value": {"tensor": {"dtype": "DT_FLOAT", "tensorShape": {"dim": [{"size": "3"}, {"size": "16"}, {"size": "64"}]}}}, "dtype": {"type": "DT_FLOAT"}}}, {"name": "unknown_10", "op": "Const", "attr": {"dtype": {"type": "DT_FLOAT"}, "value": {"tensor": {"dtype": "DT_FLOAT", "tensorShape": {"dim": [{"size": "64"}]}}}}}, {"name": "StatefulPartitionedCall/sequential_8/conv_lstm1d_35/TensorArrayV2Stack/TensorListStack/element_shape", "op": "Const", "attr": {"dtype": {"type": "DT_INT32"}, "value": {"tensor": {"dtype": "DT_INT32", "tensorShape": {"dim": [{"size": "3"}]}}}}}, {"name": "StatefulPartitionedCall/sequential_8/conv_lstm1d_35/transpose_1/perm", "op": "Const", "attr": {"dtype": {"type": "DT_INT32"}, "value": {"tensor": {"dtype": "DT_INT32", "tensorShape": {"dim": [{"size": "4"}]}}}}}, {"name": "StatefulPartitionedCall/sequential_8/flatten_8/Const", "op": "Const", "attr": {"dtype": {"type": "DT_INT32"}, "value": {"tensor": {"dtype": "DT_INT32", "tensorShape": {"dim": [{"size": "2"}]}}}}}, {"name": "StatefulPartitionedCall/sequential_8/dense_8/MatMul/ReadVariableOp", "op": "Const", "attr": {"value": {"tensor": {"dtype": "DT_FLOAT", "tensorShape": {"dim": [{"size": "48960"}, {"size": "9"}]}}}, "dtype": {"type": "DT_FLOAT"}}}, {"name": "StatefulPartitionedCall/sequential_8/dense_8/BiasAdd/ReadVariableOp", "op": "Const", "attr": {"dtype": {"type": "DT_FLOAT"}, "value": {"tensor": {"dtype": "DT_FLOAT", "tensorShape": {"dim": [{"size": "9"}]}}}}}, {"name": "conv_lstm1d_32_input", "op": "Placeholder", "attr": {"shape": {"shape": {"dim": [{"size": "-1"}, {"size": "30"}, {"size": "1662"}, {"size": "1"}]}}, "dtype": {"type": "DT_FLOAT"}}}, {"name": "StatefulPartitionedCall/sequential_8/conv_lstm1d_32/zeros_like", "op": "ZerosLike", "input": ["conv_lstm1d_32_input"], "attr": {"T": {"type": "DT_FLOAT"}}}, {"name": "StatefulPartitionedCall/sequential_8/conv_lstm1d_32/transpose", "op": "Transpose", "input": ["conv_lstm1d_32_input", "StatefulPartitionedCall/sequential_8/conv_lstm1d_32/transpose/perm"], "attr": {"Tperm": {"type": "DT_INT32"}, "T": {"type": "DT_FLOAT"}}}, {"name": "StatefulPartitionedCall/sequential_8/conv_lstm1d_32/Sum", "op": "Sum", "input": ["StatefulPartitionedCall/sequential_8/conv_lstm1d_32/zeros_like", "StatefulPartitionedCall/sequential_8/conv_lstm1d_32/Sum/reduction_indices"], "attr": {"keep_dims": {"b": false}, "Tidx": {"type": "DT_INT32"}, "T": {"type": "DT_FLOAT"}}}, {"name": "StatefulPartitionedCall/sequential_8/conv_lstm1d_32/Shape", "op": "Shape", "input": ["StatefulPartitionedCall/sequential_8/conv_lstm1d_32/transpose"], "attr": {"out_type": {"type": "DT_INT32"}, "T": {"type": "DT_FLOAT"}}}, {"name": "StatefulPartitionedCall/sequential_8/conv_lstm1d_32/TensorArrayUnstack/TensorListFromTensor", "op": "TensorListFromTensor", "input": ["StatefulPartitionedCall/sequential_8/conv_lstm1d_32/transpose", "StatefulPartitionedCall/sequential_8/conv_lstm1d_32/TensorArrayUnstack/TensorListFromTensor/element_shape"], "attr": {"shape_type": {"type": "DT_INT32"}, "element_dtype": {"type": "DT_FLOAT"}}, "experimentalType": {"typeId": "TFT_PRODUCT", "args": [{"typeId": "TFT_ARRAY", "args": [{"typeId": "TFT_TENSOR", "args": [{"typeId": "TFT_FLOAT"}]}]}]}}, {"name": "StatefulPartitionedCall/sequential_8/conv_lstm1d_32/convolution/ExpandDims", "op": "ExpandDims", "input": ["StatefulPartitionedCall/sequential_8/conv_lstm1d_32/Sum", "StatefulPartitionedCall/sequential_8/conv_lstm1d_32/convolution/ExpandDims/dim"], "attr": {"T": {"type": "DT_FLOAT"}, "Tdim": {"type": "DT_INT32"}}}, {"name": "StatefulPartitionedCall/sequential_8/conv_lstm1d_32/strided_slice", "op": "StridedSlice", "input": ["StatefulPartitionedCall/sequential_8/conv_lstm1d_32/Shape", "StatefulPartitionedCall/sequential_8/conv_lstm1d_32/strided_slice/stack", "StatefulPartitionedCall/sequential_8/conv_lstm1d_32/strided_slice/stack_1", "StatefulPartitionedCall/sequential_8/conv_lstm1d_32/strided_slice/stack_2"], "attr": {"shrink_axis_mask": {"i": "1"}, "begin_mask": {"i": "0"}, "Index": {"type": "DT_INT32"}, "T": {"type": "DT_INT32"}, "end_mask": {"i": "0"}, "new_axis_mask": {"i": "0"}, "ellipsis_mask": {"i": "0"}}}, {"name": "StatefulPartitionedCall/sequential_8/conv_lstm1d_32/convolution", "op": "Conv2D", "input": ["StatefulPartitionedCall/sequential_8/conv_lstm1d_32/convolution/ExpandDims", "StatefulPartitionedCall/sequential_8/conv_lstm1d_32/convolution/ExpandDims_1"], "device": "/device:CPU:0", "attr": {"dilations": {"list": {"i": ["1", "1", "1", "1"]}}, "data_format": {"s": "TkhXQw=="}, "T": {"type": "DT_FLOAT"}, "padding": {"s": "VkFMSUQ="}, "strides": {"list": {"i": ["1", "1", "1", "1"]}}, "explicit_paddings": {"list": {}}, "use_cudnn_on_gpu": {"b": true}}}, {"name": "StatefulPartitionedCall/sequential_8/conv_lstm1d_32/TensorArrayV2_1", "op": "TensorListReserve", "input": ["StatefulPartitionedCall/sequential_8/conv_lstm1d_32/TensorArrayV2_1/element_shape", "StatefulPartitionedCall/sequential_8/conv_lstm1d_32/strided_slice"], "attr": {"shape_type": {"type": "DT_INT32"}, "element_dtype": {"type": "DT_FLOAT"}}, "experimentalType": {"typeId": "TFT_PRODUCT", "args": [{"typeId": "TFT_ARRAY", "args": [{"typeId": "TFT_TENSOR", "args": [{"typeId": "TFT_FLOAT"}]}]}]}}, {"name": "StatefulPartitionedCall/sequential_8/conv_lstm1d_32/convolution/Squeeze", "op": "Squeeze", "input": ["StatefulPartitionedCall/sequential_8/conv_lstm1d_32/convolution"], "attr": {"T": {"type": "DT_FLOAT"}, "squeeze_dims": {"list": {"i": ["-3"]}}}}, {"name": "StatefulPartitionedCall/sequential_8/conv_lstm1d_32/while", "op": "While", "input": ["StatefulPartitionedCall/sequential_8/conv_lstm1d_32/while/loop_counter", "StatefulPartitionedCall/sequential_8/conv_lstm1d_32/while/maximum_iterations", "StatefulPartitionedCall/sequential_8/conv_lstm1d_32/time", "StatefulPartitionedCall/sequential_8/conv_lstm1d_32/TensorArrayV2_1", "StatefulPartitionedCall/sequential_8/conv_lstm1d_32/convolution/Squeeze", "StatefulPartitionedCall/sequential_8/conv_lstm1d_32/convolution/Squeeze", "StatefulPartitionedCall/sequential_8/conv_lstm1d_32/strided_slice", "StatefulPartitionedCall/sequential_8/conv_lstm1d_32/TensorArrayUnstack/TensorListFromTensor", "unknown", "unknown_0", "unknown_1"], "attr": {"_num_original_outputs": {"i": "11"}, "body": {"func": {"name": "__inference_sequential_8_conv_lstm1d_32_while_body_1641_frozen_36116"}}, "parallel_iterations": {"i": "32"}, "_stateful_parallelism": {"b": false}, "T": {"list": {"type": ["DT_INT32", "DT_INT32", "DT_INT32", "DT_VARIANT", "DT_FLOAT", "DT_FLOAT", "DT_INT32", "DT_VARIANT", "DT_FLOAT", "DT_FLOAT", "DT_FLOAT"]}}, "_read_only_resource_inputs": {"list": {"i": ["8", "9", "10"]}}, "_lower_using_switch_merge": {"b": false}, "output_shapes": {"list": {"shape": [{}, {}, {}, {}, {"dim": [{"size": "-1"}, {"size": "1660"}, {"size": "4"}]}, {"dim": [{"size": "-1"}, {"size": "1660"}, {"size": "4"}]}, {}, {}, {"dim": [{"size": "3"}, {"size": "1"}, {"size": "16"}]}, {"dim": [{"size": "3"}, {"size": "4"}, {"size": "16"}]}, {"dim": [{"size": "16"}]}]}}, "cond": {"func": {"name": "__inference_sequential_8_conv_lstm1d_32_while_cond_1640_frozen_36121"}}}}, {"name": "StatefulPartitionedCall/sequential_8/conv_lstm1d_32/TensorArrayV2Stack/TensorListStack", "op": "TensorListStack", "input": ["StatefulPartitionedCall/sequential_8/conv_lstm1d_32/while:3", "StatefulPartitionedCall/sequential_8/conv_lstm1d_32/TensorArrayV2Stack/TensorListStack/element_shape"], "attr": {"element_dtype": {"type": "DT_FLOAT"}, "num_elements": {"i": "-1"}}}, {"name": "StatefulPartitionedCall/sequential_8/conv_lstm1d_32/transpose_1", "op": "Transpose", "input": ["StatefulPartitionedCall/sequential_8/conv_lstm1d_32/TensorArrayV2Stack/TensorListStack", "StatefulPartitionedCall/sequential_8/conv_lstm1d_32/transpose_1/perm"], "attr": {"T": {"type": "DT_FLOAT"}, "Tperm": {"type": "DT_INT32"}}}, {"name": "StatefulPartitionedCall/sequential_8/max_pooling2d_32/MaxPool", "op": "MaxPool", "input": ["StatefulPartitionedCall/sequential_8/conv_lstm1d_32/transpose_1"], "attr": {"padding": {"s": "U0FNRQ=="}, "ksize": {"list": {"i": ["1", "1", "2", "1"]}}, "strides": {"list": {"i": ["1", "1", "2", "1"]}}, "explicit_paddings": {"list": {}}, "T": {"type": "DT_FLOAT"}, "data_format": {"s": "TkhXQw=="}}}, {"name": "StatefulPartitionedCall/sequential_8/time_distributed_24/Reshape_1", "op": "Reshape", "input": ["StatefulPartitionedCall/sequential_8/max_pooling2d_32/MaxPool", "StatefulPartitionedCall/sequential_8/time_distributed_24/Reshape_1/shape"], "attr": {"Tshape": {"type": "DT_INT32"}, "T": {"type": "DT_FLOAT"}}}, {"name": "StatefulPartitionedCall/sequential_8/conv_lstm1d_33/zeros_like", "op": "ZerosLike", "input": ["StatefulPartitionedCall/sequential_8/time_distributed_24/Reshape_1"], "attr": {"T": {"type": "DT_FLOAT"}}}, {"name": "StatefulPartitionedCall/sequential_8/conv_lstm1d_33/transpose", "op": "Transpose", "input": ["StatefulPartitionedCall/sequential_8/time_distributed_24/Reshape_1", "StatefulPartitionedCall/sequential_8/conv_lstm1d_33/transpose/perm"], "attr": {"Tperm": {"type": "DT_INT32"}, "T": {"type": "DT_FLOAT"}}}, {"name": "StatefulPartitionedCall/sequential_8/conv_lstm1d_33/Sum", "op": "Sum", "input": ["StatefulPartitionedCall/sequential_8/conv_lstm1d_33/zeros_like", "StatefulPartitionedCall/sequential_8/conv_lstm1d_33/Sum/reduction_indices"], "attr": {"keep_dims": {"b": false}, "Tidx": {"type": "DT_INT32"}, "T": {"type": "DT_FLOAT"}}}, {"name": "StatefulPartitionedCall/sequential_8/conv_lstm1d_33/Shape", "op": "Shape", "input": ["StatefulPartitionedCall/sequential_8/conv_lstm1d_33/transpose"], "attr": {"T": {"type": "DT_FLOAT"}, "out_type": {"type": "DT_INT32"}}}, {"name": "StatefulPartitionedCall/sequential_8/conv_lstm1d_33/TensorArrayUnstack/TensorListFromTensor", "op": "TensorListFromTensor", "input": ["StatefulPartitionedCall/sequential_8/conv_lstm1d_33/transpose", "StatefulPartitionedCall/sequential_8/conv_lstm1d_33/TensorArrayUnstack/TensorListFromTensor/element_shape"], "attr": {"shape_type": {"type": "DT_INT32"}, "element_dtype": {"type": "DT_FLOAT"}}, "experimentalType": {"typeId": "TFT_PRODUCT", "args": [{"typeId": "TFT_ARRAY", "args": [{"typeId": "TFT_TENSOR", "args": [{"typeId": "TFT_FLOAT"}]}]}]}}, {"name": "StatefulPartitionedCall/sequential_8/conv_lstm1d_33/convolution/ExpandDims", "op": "ExpandDims", "input": ["StatefulPartitionedCall/sequential_8/conv_lstm1d_33/Sum", "StatefulPartitionedCall/sequential_8/conv_lstm1d_33/convolution/ExpandDims/dim"], "attr": {"Tdim": {"type": "DT_INT32"}, "T": {"type": "DT_FLOAT"}}}, {"name": "StatefulPartitionedCall/sequential_8/conv_lstm1d_33/strided_slice", "op": "StridedSlice", "input": ["StatefulPartitionedCall/sequential_8/conv_lstm1d_33/Shape", "StatefulPartitionedCall/sequential_8/conv_lstm1d_33/strided_slice/stack", "StatefulPartitionedCall/sequential_8/conv_lstm1d_33/strided_slice/stack_1", "StatefulPartitionedCall/sequential_8/conv_lstm1d_33/strided_slice/stack_2"], "attr": {"shrink_axis_mask": {"i": "1"}, "ellipsis_mask": {"i": "0"}, "end_mask": {"i": "0"}, "T": {"type": "DT_INT32"}, "new_axis_mask": {"i": "0"}, "Index": {"type": "DT_INT32"}, "begin_mask": {"i": "0"}}}, {"name": "StatefulPartitionedCall/sequential_8/conv_lstm1d_33/convolution", "op": "Conv2D", "input": ["StatefulPartitionedCall/sequential_8/conv_lstm1d_33/convolution/ExpandDims", "StatefulPartitionedCall/sequential_8/conv_lstm1d_33/convolution/ExpandDims_1"], "device": "/device:CPU:0", "attr": {"padding": {"s": "VkFMSUQ="}, "strides": {"list": {"i": ["1", "1", "1", "1"]}}, "data_format": {"s": "TkhXQw=="}, "dilations": {"list": {"i": ["1", "1", "1", "1"]}}, "explicit_paddings": {"list": {}}, "T": {"type": "DT_FLOAT"}, "use_cudnn_on_gpu": {"b": true}}}, {"name": "StatefulPartitionedCall/sequential_8/conv_lstm1d_33/TensorArrayV2_1", "op": "TensorListReserve", "input": ["StatefulPartitionedCall/sequential_8/conv_lstm1d_33/TensorArrayV2_1/element_shape", "StatefulPartitionedCall/sequential_8/conv_lstm1d_33/strided_slice"], "attr": {"shape_type": {"type": "DT_INT32"}, "element_dtype": {"type": "DT_FLOAT"}}, "experimentalType": {"typeId": "TFT_PRODUCT", "args": [{"typeId": "TFT_ARRAY", "args": [{"typeId": "TFT_TENSOR", "args": [{"typeId": "TFT_FLOAT"}]}]}]}}, {"name": "StatefulPartitionedCall/sequential_8/conv_lstm1d_33/convolution/Squeeze", "op": "Squeeze", "input": ["StatefulPartitionedCall/sequential_8/conv_lstm1d_33/convolution"], "attr": {"T": {"type": "DT_FLOAT"}, "squeeze_dims": {"list": {"i": ["-3"]}}}}, {"name": "StatefulPartitionedCall/sequential_8/conv_lstm1d_33/while", "op": "While", "input": ["StatefulPartitionedCall/sequential_8/conv_lstm1d_33/while/loop_counter", "StatefulPartitionedCall/sequential_8/conv_lstm1d_33/while/maximum_iterations", "StatefulPartitionedCall/sequential_8/conv_lstm1d_33/time", "StatefulPartitionedCall/sequential_8/conv_lstm1d_33/TensorArrayV2_1", "StatefulPartitionedCall/sequential_8/conv_lstm1d_33/convolution/Squeeze", "StatefulPartitionedCall/sequential_8/conv_lstm1d_33/convolution/Squeeze", "StatefulPartitionedCall/sequential_8/conv_lstm1d_33/strided_slice", "StatefulPartitionedCall/sequential_8/conv_lstm1d_33/TensorArrayUnstack/TensorListFromTensor", "unknown_2", "unknown_3", "unknown_4"], "attr": {"cond": {"func": {"name": "__inference_sequential_8_conv_lstm1d_33_while_cond_1963_frozen_36120"}}, "_read_only_resource_inputs": {"list": {"i": ["8", "9", "10"]}}, "parallel_iterations": {"i": "32"}, "_lower_using_switch_merge": {"b": false}, "_num_original_outputs": {"i": "11"}, "output_shapes": {"list": {"shape": [{}, {}, {}, {}, {"dim": [{"size": "-1"}, {"size": "828"}, {"size": "8"}]}, {"dim": [{"size": "-1"}, {"size": "828"}, {"size": "8"}]}, {}, {}, {"dim": [{"size": "3"}, {"size": "4"}, {"size": "32"}]}, {"dim": [{"size": "3"}, {"size": "8"}, {"size": "32"}]}, {"dim": [{"size": "32"}]}]}}, "_stateful_parallelism": {"b": false}, "T": {"list": {"type": ["DT_INT32", "DT_INT32", "DT_INT32", "DT_VARIANT", "DT_FLOAT", "DT_FLOAT", "DT_INT32", "DT_VARIANT", "DT_FLOAT", "DT_FLOAT", "DT_FLOAT"]}}, "body": {"func": {"name": "__inference_sequential_8_conv_lstm1d_33_while_body_1964_frozen_36119"}}}}, {"name": "StatefulPartitionedCall/sequential_8/conv_lstm1d_33/TensorArrayV2Stack/TensorListStack", "op": "TensorListStack", "input": ["StatefulPartitionedCall/sequential_8/conv_lstm1d_33/while:3", "StatefulPartitionedCall/sequential_8/conv_lstm1d_33/TensorArrayV2Stack/TensorListStack/element_shape"], "attr": {"element_dtype": {"type": "DT_FLOAT"}, "num_elements": {"i": "-1"}}}, {"name": "StatefulPartitionedCall/sequential_8/conv_lstm1d_33/transpose_1", "op": "Transpose", "input": ["StatefulPartitionedCall/sequential_8/conv_lstm1d_33/TensorArrayV2Stack/TensorListStack", "StatefulPartitionedCall/sequential_8/conv_lstm1d_33/transpose_1/perm"], "attr": {"Tperm": {"type": "DT_INT32"}, "T": {"type": "DT_FLOAT"}}}, {"name": "StatefulPartitionedCall/sequential_8/max_pooling2d_33/MaxPool", "op": "MaxPool", "input": ["StatefulPartitionedCall/sequential_8/conv_lstm1d_33/transpose_1"], "attr": {"explicit_paddings": {"list": {}}, "padding": {"s": "U0FNRQ=="}, "data_format": {"s": "TkhXQw=="}, "strides": {"list": {"i": ["1", "1", "2", "1"]}}, "T": {"type": "DT_FLOAT"}, "ksize": {"list": {"i": ["1", "1", "2", "1"]}}}}, {"name": "StatefulPartitionedCall/sequential_8/time_distributed_25/Reshape_1", "op": "Reshape", "input": ["StatefulPartitionedCall/sequential_8/max_pooling2d_33/MaxPool", "StatefulPartitionedCall/sequential_8/time_distributed_25/Reshape_1/shape"], "attr": {"Tshape": {"type": "DT_INT32"}, "T": {"type": "DT_FLOAT"}}}, {"name": "StatefulPartitionedCall/sequential_8/conv_lstm1d_34/zeros_like", "op": "ZerosLike", "input": ["StatefulPartitionedCall/sequential_8/time_distributed_25/Reshape_1"], "attr": {"T": {"type": "DT_FLOAT"}}}, {"name": "StatefulPartitionedCall/sequential_8/conv_lstm1d_34/transpose", "op": "Transpose", "input": ["StatefulPartitionedCall/sequential_8/time_distributed_25/Reshape_1", "StatefulPartitionedCall/sequential_8/conv_lstm1d_34/transpose/perm"], "attr": {"T": {"type": "DT_FLOAT"}, "Tperm": {"type": "DT_INT32"}}}, {"name": "StatefulPartitionedCall/sequential_8/conv_lstm1d_34/Sum", "op": "Sum", "input": ["StatefulPartitionedCall/sequential_8/conv_lstm1d_34/zeros_like", "StatefulPartitionedCall/sequential_8/conv_lstm1d_34/Sum/reduction_indices"], "attr": {"T": {"type": "DT_FLOAT"}, "keep_dims": {"b": false}, "Tidx": {"type": "DT_INT32"}}}, {"name": "StatefulPartitionedCall/sequential_8/conv_lstm1d_34/Shape", "op": "Shape", "input": ["StatefulPartitionedCall/sequential_8/conv_lstm1d_34/transpose"], "attr": {"T": {"type": "DT_FLOAT"}, "out_type": {"type": "DT_INT32"}}}, {"name": "StatefulPartitionedCall/sequential_8/conv_lstm1d_34/TensorArrayUnstack/TensorListFromTensor", "op": "TensorListFromTensor", "input": ["StatefulPartitionedCall/sequential_8/conv_lstm1d_34/transpose", "StatefulPartitionedCall/sequential_8/conv_lstm1d_34/TensorArrayUnstack/TensorListFromTensor/element_shape"], "attr": {"element_dtype": {"type": "DT_FLOAT"}, "shape_type": {"type": "DT_INT32"}}, "experimentalType": {"typeId": "TFT_PRODUCT", "args": [{"typeId": "TFT_ARRAY", "args": [{"typeId": "TFT_TENSOR", "args": [{"typeId": "TFT_FLOAT"}]}]}]}}, {"name": "StatefulPartitionedCall/sequential_8/conv_lstm1d_34/convolution/ExpandDims", "op": "ExpandDims", "input": ["StatefulPartitionedCall/sequential_8/conv_lstm1d_34/Sum", "StatefulPartitionedCall/sequential_8/conv_lstm1d_34/convolution/ExpandDims/dim"], "attr": {"T": {"type": "DT_FLOAT"}, "Tdim": {"type": "DT_INT32"}}}, {"name": "StatefulPartitionedCall/sequential_8/conv_lstm1d_34/strided_slice", "op": "StridedSlice", "input": ["StatefulPartitionedCall/sequential_8/conv_lstm1d_34/Shape", "StatefulPartitionedCall/sequential_8/conv_lstm1d_34/strided_slice/stack", "StatefulPartitionedCall/sequential_8/conv_lstm1d_34/strided_slice/stack_1", "StatefulPartitionedCall/sequential_8/conv_lstm1d_34/strided_slice/stack_2"], "attr": {"end_mask": {"i": "0"}, "Index": {"type": "DT_INT32"}, "shrink_axis_mask": {"i": "1"}, "new_axis_mask": {"i": "0"}, "T": {"type": "DT_INT32"}, "ellipsis_mask": {"i": "0"}, "begin_mask": {"i": "0"}}}, {"name": "StatefulPartitionedCall/sequential_8/conv_lstm1d_34/convolution", "op": "Conv2D", "input": ["StatefulPartitionedCall/sequential_8/conv_lstm1d_34/convolution/ExpandDims", "StatefulPartitionedCall/sequential_8/conv_lstm1d_34/convolution/ExpandDims_1"], "device": "/device:CPU:0", "attr": {"T": {"type": "DT_FLOAT"}, "strides": {"list": {"i": ["1", "1", "1", "1"]}}, "padding": {"s": "VkFMSUQ="}, "use_cudnn_on_gpu": {"b": true}, "data_format": {"s": "TkhXQw=="}, "explicit_paddings": {"list": {}}, "dilations": {"list": {"i": ["1", "1", "1", "1"]}}}}, {"name": "StatefulPartitionedCall/sequential_8/conv_lstm1d_34/TensorArrayV2_1", "op": "TensorListReserve", "input": ["StatefulPartitionedCall/sequential_8/conv_lstm1d_34/TensorArrayV2_1/element_shape", "StatefulPartitionedCall/sequential_8/conv_lstm1d_34/strided_slice"], "attr": {"element_dtype": {"type": "DT_FLOAT"}, "shape_type": {"type": "DT_INT32"}}, "experimentalType": {"typeId": "TFT_PRODUCT", "args": [{"typeId": "TFT_ARRAY", "args": [{"typeId": "TFT_TENSOR", "args": [{"typeId": "TFT_FLOAT"}]}]}]}}, {"name": "StatefulPartitionedCall/sequential_8/conv_lstm1d_34/convolution/Squeeze", "op": "Squeeze", "input": ["StatefulPartitionedCall/sequential_8/conv_lstm1d_34/convolution"], "attr": {"T": {"type": "DT_FLOAT"}, "squeeze_dims": {"list": {"i": ["-3"]}}}}, {"name": "StatefulPartitionedCall/sequential_8/conv_lstm1d_34/while", "op": "While", "input": ["StatefulPartitionedCall/sequential_8/conv_lstm1d_34/while/loop_counter", "StatefulPartitionedCall/sequential_8/conv_lstm1d_34/while/maximum_iterations", "StatefulPartitionedCall/sequential_8/conv_lstm1d_34/time", "StatefulPartitionedCall/sequential_8/conv_lstm1d_34/TensorArrayV2_1", "StatefulPartitionedCall/sequential_8/conv_lstm1d_34/convolution/Squeeze", "StatefulPartitionedCall/sequential_8/conv_lstm1d_34/convolution/Squeeze", "StatefulPartitionedCall/sequential_8/conv_lstm1d_34/strided_slice", "StatefulPartitionedCall/sequential_8/conv_lstm1d_34/TensorArrayUnstack/TensorListFromTensor", "unknown_5", "unknown_6", "unknown_7"], "attr": {"_stateful_parallelism": {"b": false}, "output_shapes": {"list": {"shape": [{}, {}, {}, {}, {"dim": [{"size": "-1"}, {"size": "412"}, {"size": "14"}]}, {"dim": [{"size": "-1"}, {"size": "412"}, {"size": "14"}]}, {}, {}, {"dim": [{"size": "3"}, {"size": "8"}, {"size": "56"}]}, {"dim": [{"size": "3"}, {"size": "14"}, {"size": "56"}]}, {"dim": [{"size": "56"}]}]}}, "_num_original_outputs": {"i": "11"}, "_read_only_resource_inputs": {"list": {"i": ["8", "9", "10"]}}, "T": {"list": {"type": ["DT_INT32", "DT_INT32", "DT_INT32", "DT_VARIANT", "DT_FLOAT", "DT_FLOAT", "DT_INT32", "DT_VARIANT", "DT_FLOAT", "DT_FLOAT", "DT_FLOAT"]}}, "cond": {"func": {"name": "__inference_sequential_8_conv_lstm1d_34_while_cond_2286_frozen_36118"}}, "parallel_iterations": {"i": "32"}, "body": {"func": {"name": "__inference_sequential_8_conv_lstm1d_34_while_body_2287_frozen_36117"}}, "_lower_using_switch_merge": {"b": false}}}, {"name": "StatefulPartitionedCall/sequential_8/conv_lstm1d_34/TensorArrayV2Stack/TensorListStack", "op": "TensorListStack", "input": ["StatefulPartitionedCall/sequential_8/conv_lstm1d_34/while:3", "StatefulPartitionedCall/sequential_8/conv_lstm1d_34/TensorArrayV2Stack/TensorListStack/element_shape"], "attr": {"num_elements": {"i": "-1"}, "element_dtype": {"type": "DT_FLOAT"}}}, {"name": "StatefulPartitionedCall/sequential_8/conv_lstm1d_34/transpose_1", "op": "Transpose", "input": ["StatefulPartitionedCall/sequential_8/conv_lstm1d_34/TensorArrayV2Stack/TensorListStack", "StatefulPartitionedCall/sequential_8/conv_lstm1d_34/transpose_1/perm"], "attr": {"Tperm": {"type": "DT_INT32"}, "T": {"type": "DT_FLOAT"}}}, {"name": "StatefulPartitionedCall/sequential_8/max_pooling2d_34/MaxPool", "op": "MaxPool", "input": ["StatefulPartitionedCall/sequential_8/conv_lstm1d_34/transpose_1"], "attr": {"strides": {"list": {"i": ["1", "1", "2", "1"]}}, "T": {"type": "DT_FLOAT"}, "data_format": {"s": "TkhXQw=="}, "explicit_paddings": {"list": {}}, "ksize": {"list": {"i": ["1", "1", "2", "1"]}}, "padding": {"s": "U0FNRQ=="}}}, {"name": "StatefulPartitionedCall/sequential_8/time_distributed_26/Reshape_1", "op": "Reshape", "input": ["StatefulPartitionedCall/sequential_8/max_pooling2d_34/MaxPool", "StatefulPartitionedCall/sequential_8/time_distributed_26/Reshape_1/shape"], "attr": {"Tshape": {"type": "DT_INT32"}, "T": {"type": "DT_FLOAT"}}}, {"name": "StatefulPartitionedCall/sequential_8/conv_lstm1d_35/zeros_like", "op": "ZerosLike", "input": ["StatefulPartitionedCall/sequential_8/time_distributed_26/Reshape_1"], "attr": {"T": {"type": "DT_FLOAT"}}}, {"name": "StatefulPartitionedCall/sequential_8/conv_lstm1d_35/transpose", "op": "Transpose", "input": ["StatefulPartitionedCall/sequential_8/time_distributed_26/Reshape_1", "StatefulPartitionedCall/sequential_8/conv_lstm1d_35/transpose/perm"], "attr": {"Tperm": {"type": "DT_INT32"}, "T": {"type": "DT_FLOAT"}}}, {"name": "StatefulPartitionedCall/sequential_8/conv_lstm1d_35/Sum", "op": "Sum", "input": ["StatefulPartitionedCall/sequential_8/conv_lstm1d_35/zeros_like", "StatefulPartitionedCall/sequential_8/conv_lstm1d_35/Sum/reduction_indices"], "attr": {"T": {"type": "DT_FLOAT"}, "Tidx": {"type": "DT_INT32"}, "keep_dims": {"b": false}}}, {"name": "StatefulPartitionedCall/sequential_8/conv_lstm1d_35/Shape", "op": "Shape", "input": ["StatefulPartitionedCall/sequential_8/conv_lstm1d_35/transpose"], "attr": {"out_type": {"type": "DT_INT32"}, "T": {"type": "DT_FLOAT"}}}, {"name": "StatefulPartitionedCall/sequential_8/conv_lstm1d_35/TensorArrayUnstack/TensorListFromTensor", "op": "TensorListFromTensor", "input": ["StatefulPartitionedCall/sequential_8/conv_lstm1d_35/transpose", "StatefulPartitionedCall/sequential_8/conv_lstm1d_35/TensorArrayUnstack/TensorListFromTensor/element_shape"], "attr": {"element_dtype": {"type": "DT_FLOAT"}, "shape_type": {"type": "DT_INT32"}}, "experimentalType": {"typeId": "TFT_PRODUCT", "args": [{"typeId": "TFT_ARRAY", "args": [{"typeId": "TFT_TENSOR", "args": [{"typeId": "TFT_FLOAT"}]}]}]}}, {"name": "StatefulPartitionedCall/sequential_8/conv_lstm1d_35/convolution/ExpandDims", "op": "ExpandDims", "input": ["StatefulPartitionedCall/sequential_8/conv_lstm1d_35/Sum", "StatefulPartitionedCall/sequential_8/conv_lstm1d_35/convolution/ExpandDims/dim"], "attr": {"Tdim": {"type": "DT_INT32"}, "T": {"type": "DT_FLOAT"}}}, {"name": "StatefulPartitionedCall/sequential_8/conv_lstm1d_35/strided_slice", "op": "StridedSlice", "input": ["StatefulPartitionedCall/sequential_8/conv_lstm1d_35/Shape", "StatefulPartitionedCall/sequential_8/conv_lstm1d_35/strided_slice/stack", "StatefulPartitionedCall/sequential_8/conv_lstm1d_35/strided_slice/stack_1", "StatefulPartitionedCall/sequential_8/conv_lstm1d_35/strided_slice/stack_2"], "attr": {"Index": {"type": "DT_INT32"}, "ellipsis_mask": {"i": "0"}, "T": {"type": "DT_INT32"}, "begin_mask": {"i": "0"}, "new_axis_mask": {"i": "0"}, "shrink_axis_mask": {"i": "1"}, "end_mask": {"i": "0"}}}, {"name": "StatefulPartitionedCall/sequential_8/conv_lstm1d_35/convolution", "op": "Conv2D", "input": ["StatefulPartitionedCall/sequential_8/conv_lstm1d_35/convolution/ExpandDims", "StatefulPartitionedCall/sequential_8/conv_lstm1d_35/convolution/ExpandDims_1"], "device": "/device:CPU:0", "attr": {"explicit_paddings": {"list": {}}, "data_format": {"s": "TkhXQw=="}, "strides": {"list": {"i": ["1", "1", "1", "1"]}}, "use_cudnn_on_gpu": {"b": true}, "dilations": {"list": {"i": ["1", "1", "1", "1"]}}, "padding": {"s": "VkFMSUQ="}, "T": {"type": "DT_FLOAT"}}}, {"name": "StatefulPartitionedCall/sequential_8/conv_lstm1d_35/TensorArrayV2_1", "op": "TensorListReserve", "input": ["StatefulPartitionedCall/sequential_8/conv_lstm1d_35/TensorArrayV2_1/element_shape", "StatefulPartitionedCall/sequential_8/conv_lstm1d_35/strided_slice"], "attr": {"element_dtype": {"type": "DT_FLOAT"}, "shape_type": {"type": "DT_INT32"}}, "experimentalType": {"typeId": "TFT_PRODUCT", "args": [{"typeId": "TFT_ARRAY", "args": [{"typeId": "TFT_TENSOR", "args": [{"typeId": "TFT_FLOAT"}]}]}]}}, {"name": "StatefulPartitionedCall/sequential_8/conv_lstm1d_35/convolution/Squeeze", "op": "Squeeze", "input": ["StatefulPartitionedCall/sequential_8/conv_lstm1d_35/convolution"], "attr": {"squeeze_dims": {"list": {"i": ["-3"]}}, "T": {"type": "DT_FLOAT"}}}, {"name": "StatefulPartitionedCall/sequential_8/conv_lstm1d_35/while", "op": "While", "input": ["StatefulPartitionedCall/sequential_8/conv_lstm1d_35/while/loop_counter", "StatefulPartitionedCall/sequential_8/conv_lstm1d_35/while/maximum_iterations", "StatefulPartitionedCall/sequential_8/conv_lstm1d_35/time", "StatefulPartitionedCall/sequential_8/conv_lstm1d_35/TensorArrayV2_1", "StatefulPartitionedCall/sequential_8/conv_lstm1d_35/convolution/Squeeze", "StatefulPartitionedCall/sequential_8/conv_lstm1d_35/convolution/Squeeze", "StatefulPartitionedCall/sequential_8/conv_lstm1d_35/strided_slice", "StatefulPartitionedCall/sequential_8/conv_lstm1d_35/TensorArrayUnstack/TensorListFromTensor", "unknown_8", "unknown_9", "unknown_10"], "attr": {"T": {"list": {"type": ["DT_INT32", "DT_INT32", "DT_INT32", "DT_VARIANT", "DT_FLOAT", "DT_FLOAT", "DT_INT32", "DT_VARIANT", "DT_FLOAT", "DT_FLOAT", "DT_FLOAT"]}}, "_lower_using_switch_merge": {"b": false}, "_stateful_parallelism": {"b": false}, "_num_original_outputs": {"i": "11"}, "body": {"func": {"name": "__inference_sequential_8_conv_lstm1d_35_while_body_2610_frozen_36115"}}, "cond": {"func": {"name": "__inference_sequential_8_conv_lstm1d_35_while_cond_2609_frozen_36114"}}, "parallel_iterations": {"i": "32"}, "output_shapes": {"list": {"shape": [{}, {}, {}, {}, {"dim": [{"size": "-1"}, {"size": "204"}, {"size": "16"}]}, {"dim": [{"size": "-1"}, {"size": "204"}, {"size": "16"}]}, {}, {}, {"dim": [{"size": "3"}, {"size": "14"}, {"size": "64"}]}, {"dim": [{"size": "3"}, {"size": "16"}, {"size": "64"}]}, {"dim": [{"size": "64"}]}]}}, "_read_only_resource_inputs": {"list": {"i": ["8", "9", "10"]}}}}, {"name": "StatefulPartitionedCall/sequential_8/conv_lstm1d_35/TensorArrayV2Stack/TensorListStack", "op": "TensorListStack", "input": ["StatefulPartitionedCall/sequential_8/conv_lstm1d_35/while:3", "StatefulPartitionedCall/sequential_8/conv_lstm1d_35/TensorArrayV2Stack/TensorListStack/element_shape"], "attr": {"num_elements": {"i": "-1"}, "element_dtype": {"type": "DT_FLOAT"}}}, {"name": "StatefulPartitionedCall/sequential_8/conv_lstm1d_35/transpose_1", "op": "Transpose", "input": ["StatefulPartitionedCall/sequential_8/conv_lstm1d_35/TensorArrayV2Stack/TensorListStack", "StatefulPartitionedCall/sequential_8/conv_lstm1d_35/transpose_1/perm"], "attr": {"Tperm": {"type": "DT_INT32"}, "T": {"type": "DT_FLOAT"}}}, {"name": "StatefulPartitionedCall/sequential_8/max_pooling2d_35/MaxPool", "op": "MaxPool", "input": ["StatefulPartitionedCall/sequential_8/conv_lstm1d_35/transpose_1"], "attr": {"data_format": {"s": "TkhXQw=="}, "strides": {"list": {"i": ["1", "1", "2", "1"]}}, "padding": {"s": "U0FNRQ=="}, "explicit_paddings": {"list": {}}, "T": {"type": "DT_FLOAT"}, "ksize": {"list": {"i": ["1", "1", "2", "1"]}}}}, {"name": "StatefulPartitionedCall/sequential_8/flatten_8/Reshape", "op": "Reshape", "input": ["StatefulPartitionedCall/sequential_8/max_pooling2d_35/MaxPool", "StatefulPartitionedCall/sequential_8/flatten_8/Const"], "attr": {"T": {"type": "DT_FLOAT"}, "Tshape": {"type": "DT_INT32"}}}, {"name": "StatefulPartitionedCall/sequential_8/dense_8/BiasAdd", "op": "_FusedMatMul", "input": ["StatefulPartitionedCall/sequential_8/flatten_8/Reshape", "StatefulPartitionedCall/sequential_8/dense_8/MatMul/ReadVariableOp", "StatefulPartitionedCall/sequential_8/dense_8/BiasAdd/ReadVariableOp"], "device": "/device:CPU:0", "attr": {"fused_ops": {"list": {"s": ["Qmlhc0FkZA=="]}}, "T": {"type": "DT_FLOAT"}, "epsilon": {"f": 0.0}, "num_args": {"i": "1"}, "transpose_a": {"b": false}, "transpose_b": {"b": false}}}, {"name": "StatefulPartitionedCall/sequential_8/dense_8/Softmax", "op": "Softmax", "input": ["StatefulPartitionedCall/sequential_8/dense_8/BiasAdd"], "attr": {"T": {"type": "DT_FLOAT"}}}, {"name": "Identity", "op": "Identity", "input": ["StatefulPartitionedCall/sequential_8/dense_8/Softmax"], "attr": {"T": {"type": "DT_FLOAT"}}}], "library": {"function": [{"signature": {"name": "__inference_sequential_8_conv_lstm1d_35_while_cond_2609_frozen_36114", "inputArg": [{"name": "sequential_8_conv_lstm1d_35_while_sequential_8_conv_lstm1d_35_while_loop_counter", "type": "DT_INT32"}, {"name": "sequential_8_conv_lstm1d_35_while_sequential_8_conv_lstm1d_35_while_maximum_iterations", "type": "DT_INT32"}, {"name": "sequential_8_conv_lstm1d_35_while_placeholder", "type": "DT_INT32"}, {"name": "sequential_8_conv_lstm1d_35_while_placeholder_1", "type": "DT_VARIANT"}, {"name": "sequential_8_conv_lstm1d_35_while_placeholder_2", "type": "DT_FLOAT"}, {"name": "sequential_8_conv_lstm1d_35_while_placeholder_3", "type": "DT_FLOAT"}, {"name": "sequential_8_conv_lstm1d_35_while_less_sequential_8_conv_lstm1d_35_strided_slice", "type": "DT_INT32"}, {"name": "sequential_8_conv_lstm1d_35_while_sequential_8_conv_lstm1d_35_while_cond_2609___redundant_placeholder0", "type": "DT_VARIANT"}, {"name": "sequential_8_conv_lstm1d_35_while_sequential_8_conv_lstm1d_35_while_cond_2609___redundant_placeholder1", "type": "DT_FLOAT"}, {"name": "sequential_8_conv_lstm1d_35_while_sequential_8_conv_lstm1d_35_while_cond_2609___redundant_placeholder2", "type": "DT_FLOAT"}, {"name": "sequential_8_conv_lstm1d_35_while_sequential_8_conv_lstm1d_35_while_cond_2609___redundant_placeholder3", "type": "DT_FLOAT"}], "outputArg": [{"name": "sequential_8_conv_lstm1d_35_while_identity", "type": "DT_BOOL"}]}, "nodeDef": [{"name": "sequential_8/conv_lstm1d_35/while/Less", "op": "Less", "input": ["sequential_8_conv_lstm1d_35_while_placeholder", "sequential_8_conv_lstm1d_35_while_less_sequential_8_conv_lstm1d_35_strided_slice"], "attr": {"T": {"type": "DT_INT32"}}}], "ret": {"sequential_8_conv_lstm1d_35_while_identity": "sequential_8/conv_lstm1d_35/while/Less:z:0"}, "attr": {"_construction_context": {"s": "a0VhZ2VyUnVudGltZQ=="}}, "argAttr": {"2": {"attr": {"_output_shapes": {"list": {"shape": [{}]}}}}, "4": {"attr": {"_output_shapes": {"list": {"shape": [{"dim": [{"size": "-1"}, {"size": "204"}, {"size": "16"}]}]}}}}, "1": {"attr": {"_output_shapes": {"list": {"shape": [{}]}}}}, "6": {"attr": {"_output_shapes": {"list": {"shape": [{}]}}}}, "3": {"attr": {"_output_shapes": {"list": {"shape": [{}]}}}}, "5": {"attr": {"_output_shapes": {"list": {"shape": [{"dim": [{"size": "-1"}, {"size": "204"}, {"size": "16"}]}]}}}}, "0": {"attr": {"_output_shapes": {"list": {"shape": [{}]}}}}, "7": {"attr": {"_output_shapes": {"list": {"shape": [{"unknownRank": true}]}}}}}}, {"signature": {"name": "__inference_sequential_8_conv_lstm1d_33_while_body_1964_frozen_36119", "inputArg": [{"name": "sequential_8_conv_lstm1d_33_while_sequential_8_conv_lstm1d_33_while_loop_counter", "type": "DT_INT32"}, {"name": "sequential_8_conv_lstm1d_33_while_sequential_8_conv_lstm1d_33_while_maximum_iterations", "type": "DT_INT32"}, {"name": "sequential_8_conv_lstm1d_33_while_placeholder", "type": "DT_INT32"}, {"name": "sequential_8_conv_lstm1d_33_while_placeholder_1", "type": "DT_VARIANT"}, {"name": "sequential_8_conv_lstm1d_33_while_placeholder_2", "type": "DT_FLOAT"}, {"name": "sequential_8_conv_lstm1d_33_while_placeholder_3", "type": "DT_FLOAT"}, {"name": "sequential_8_conv_lstm1d_33_while_sequential_8_conv_lstm1d_33_strided_slice_0", "type": "DT_INT32"}, {"name": "sequential_8_conv_lstm1d_33_while_tensorarrayv2read_tensorlistgetitem_sequential_8_conv_lstm1d_33_tensorarrayunstack_tensorlistfromtensor_0", "type": "DT_VARIANT"}, {"name": "sequential_8_conv_lstm1d_33_while_split_readvariableop_resource_0", "type": "DT_FLOAT"}, {"name": "sequential_8_conv_lstm1d_33_while_split_1_readvariableop_resource_0", "type": "DT_FLOAT"}, {"name": "sequential_8_conv_lstm1d_33_while_split_2_readvariableop_resource_0", "type": "DT_FLOAT"}], "outputArg": [{"name": "sequential_8_conv_lstm1d_33_while_identity", "type": "DT_INT32"}, {"name": "sequential_8_conv_lstm1d_33_while_identity_1", "type": "DT_INT32"}, {"name": "sequential_8_conv_lstm1d_33_while_identity_2", "type": "DT_INT32"}, {"name": "sequential_8_conv_lstm1d_33_while_identity_3", "type": "DT_VARIANT"}, {"name": "sequential_8_conv_lstm1d_33_while_identity_4", "type": "DT_FLOAT"}, {"name": "sequential_8_conv_lstm1d_33_while_identity_5", "type": "DT_FLOAT"}, {"name": "sequential_8_conv_lstm1d_33_while_sequential_8_conv_lstm1d_33_strided_slice", "type": "DT_INT32"}, {"name": "sequential_8_conv_lstm1d_33_while_tensorarrayv2read_tensorlistgetitem_sequential_8_conv_lstm1d_33_tensorarrayunstack_tensorlistfromtensor", "type": "DT_VARIANT"}, {"name": "sequential_8_conv_lstm1d_33_while_split_readvariableop_resource", "type": "DT_FLOAT"}, {"name": "sequential_8_conv_lstm1d_33_while_split_1_readvariableop_resource", "type": "DT_FLOAT"}, {"name": "sequential_8_conv_lstm1d_33_while_split_2_readvariableop_resource", "type": "DT_FLOAT"}], "isStateful": true, "controlOutput": ["sequential_8/conv_lstm1d_33/while/split/ReadVariableOp", "sequential_8/conv_lstm1d_33/while/split_1/ReadVariableOp", "sequential_8/conv_lstm1d_33/while/split_2/ReadVariableOp"]}, "nodeDef": [{"name": "__inference_sequential_8_conv_lstm1d_33_while_body_1964_frozen_36119/sequential_8/conv_lstm1d_33/while/add_8/y", "op": "Const", "attr": {"dtype": {"type": "DT_INT32"}, "value": {"tensor": {"dtype": "DT_INT32", "tensorShape": {}}}}}, {"name": "__inference_sequential_8_conv_lstm1d_33_while_body_1964_frozen_36119/sequential_8/conv_lstm1d_33/while/convolution_3/ExpandDims/dim", "op": "Const", "attr": {"value": {"tensor": {"dtype": "DT_INT32", "tensorShape": {}}}, "dtype": {"type": "DT_INT32"}}}, {"name": "__inference_sequential_8_conv_lstm1d_33_while_body_1964_frozen_36119/sequential_8/conv_lstm1d_33/while/convolution_3/ExpandDims_1/dim", "op": "Const", "attr": {"dtype": {"type": "DT_INT32"}, "value": {"tensor": {"dtype": "DT_INT32", "tensorShape": {}}}}}, {"name": "__inference_sequential_8_conv_lstm1d_33_while_body_1964_frozen_36119/sequential_8/conv_lstm1d_33/while/convolution_7/ExpandDims/dim", "op": "Const", "attr": {"dtype": {"type": "DT_INT32"}, "value": {"tensor": {"dtype": "DT_INT32", "tensorShape": {}}}}}, {"name": "__inference_sequential_8_conv_lstm1d_33_while_body_1964_frozen_36119/sequential_8/conv_lstm1d_33/while/convolution_7/ExpandDims_1/dim", "op": "Const", "attr": {"dtype": {"type": "DT_INT32"}, "value": {"tensor": {"dtype": "DT_INT32", "tensorShape": {}}}}}, {"name": "__inference_sequential_8_conv_lstm1d_33_while_body_1964_frozen_36119/sequential_8/conv_lstm1d_33/while/Const_4", "op": "Const", "attr": {"dtype": {"type": "DT_FLOAT"}, "value": {"tensor": {"dtype": "DT_FLOAT", "tensorShape": {}}}}}, {"name": "__inference_sequential_8_conv_lstm1d_33_while_body_1964_frozen_36119/sequential_8/conv_lstm1d_33/while/Const_5", "op": "Const", "attr": {"value": {"tensor": {"dtype": "DT_FLOAT", "tensorShape": {}}}, "dtype": {"type": "DT_FLOAT"}}}, {"name": "__inference_sequential_8_conv_lstm1d_33_while_body_1964_frozen_36119/sequential_8/conv_lstm1d_33/while/clip_by_value_2/Minimum/y", "op": "Const", "attr": {"dtype": {"type": "DT_FLOAT"}, "value": {"tensor": {"dtype": "DT_FLOAT", "tensorShape": {}}}}}, {"name": "__inference_sequential_8_conv_lstm1d_33_while_body_1964_frozen_36119/sequential_8/conv_lstm1d_33/while/clip_by_value_2/y", "op": "Const", "attr": {"value": {"tensor": {"dtype": "DT_FLOAT", "tensorShape": {}}}, "dtype": {"type": "DT_FLOAT"}}}, {"name": "__inference_sequential_8_conv_lstm1d_33_while_body_1964_frozen_36119/sequential_8/conv_lstm1d_33/while/convolution_1/ExpandDims/dim", "op": "Const", "attr": {"value": {"tensor": {"dtype": "DT_INT32", "tensorShape": {}}}, "dtype": {"type": "DT_INT32"}}}, {"name": "__inference_sequential_8_conv_lstm1d_33_while_body_1964_frozen_36119/sequential_8/conv_lstm1d_33/while/convolution_1/ExpandDims_1/dim", "op": "Const", "attr": {"value": {"tensor": {"dtype": "DT_INT32", "tensorShape": {}}}, "dtype": {"type": "DT_INT32"}}}, {"name": "__inference_sequential_8_conv_lstm1d_33_while_body_1964_frozen_36119/sequential_8/conv_lstm1d_33/while/convolution_5/ExpandDims/dim", "op": "Const", "attr": {"dtype": {"type": "DT_INT32"}, "value": {"tensor": {"dtype": "DT_INT32", "tensorShape": {}}}}}, {"name": "__inference_sequential_8_conv_lstm1d_33_while_body_1964_frozen_36119/sequential_8/conv_lstm1d_33/while/convolution_5/ExpandDims_1/dim", "op": "Const", "attr": {"value": {"tensor": {"dtype": "DT_INT32", "tensorShape": {}}}, "dtype": {"type": "DT_INT32"}}}, {"name": "__inference_sequential_8_conv_lstm1d_33_while_body_1964_frozen_36119/sequential_8/conv_lstm1d_33/while/Const_2", "op": "Const", "attr": {"value": {"tensor": {"dtype": "DT_FLOAT", "tensorShape": {}}}, "dtype": {"type": "DT_FLOAT"}}}, {"name": "__inference_sequential_8_conv_lstm1d_33_while_body_1964_frozen_36119/sequential_8/conv_lstm1d_33/while/Const_3", "op": "Const", "attr": {"dtype": {"type": "DT_FLOAT"}, "value": {"tensor": {"dtype": "DT_FLOAT", "tensorShape": {}}}}}, {"name": "__inference_sequential_8_conv_lstm1d_33_while_body_1964_frozen_36119/sequential_8/conv_lstm1d_33/while/clip_by_value_1/Minimum/y", "op": "Const", "attr": {"value": {"tensor": {"dtype": "DT_FLOAT", "tensorShape": {}}}, "dtype": {"type": "DT_FLOAT"}}}, {"name": "__inference_sequential_8_conv_lstm1d_33_while_body_1964_frozen_36119/sequential_8/conv_lstm1d_33/while/clip_by_value_1/y", "op": "Const", "attr": {"dtype": {"type": "DT_FLOAT"}, "value": {"tensor": {"dtype": "DT_FLOAT", "tensorShape": {}}}}}, {"name": "__inference_sequential_8_conv_lstm1d_33_while_body_1964_frozen_36119/sequential_8/conv_lstm1d_33/while/convolution/ExpandDims/dim", "op": "Const", "attr": {"value": {"tensor": {"dtype": "DT_INT32", "tensorShape": {}}}, "dtype": {"type": "DT_INT32"}}}, {"name": "__inference_sequential_8_conv_lstm1d_33_while_body_1964_frozen_36119/sequential_8/conv_lstm1d_33/while/convolution/ExpandDims_1/dim", "op": "Const", "attr": {"value": {"tensor": {"dtype": "DT_INT32", "tensorShape": {}}}, "dtype": {"type": "DT_INT32"}}}, {"name": "__inference_sequential_8_conv_lstm1d_33_while_body_1964_frozen_36119/sequential_8/conv_lstm1d_33/while/convolution_4/ExpandDims/dim", "op": "Const", "attr": {"dtype": {"type": "DT_INT32"}, "value": {"tensor": {"dtype": "DT_INT32", "tensorShape": {}}}}}, {"name": "__inference_sequential_8_conv_lstm1d_33_while_body_1964_frozen_36119/sequential_8/conv_lstm1d_33/while/convolution_4/ExpandDims_1/dim", "op": "Const", "attr": {"value": {"tensor": {"dtype": "DT_INT32", "tensorShape": {}}}, "dtype": {"type": "DT_INT32"}}}, {"name": "__inference_sequential_8_conv_lstm1d_33_while_body_1964_frozen_36119/sequential_8/conv_lstm1d_33/while/Const", "op": "Const", "attr": {"dtype": {"type": "DT_FLOAT"}, "value": {"tensor": {"dtype": "DT_FLOAT", "tensorShape": {}}}}}, {"name": "__inference_sequential_8_conv_lstm1d_33_while_body_1964_frozen_36119/sequential_8/conv_lstm1d_33/while/Const_1", "op": "Const", "attr": {"dtype": {"type": "DT_FLOAT"}, "value": {"tensor": {"dtype": "DT_FLOAT", "tensorShape": {}}}}}, {"name": "__inference_sequential_8_conv_lstm1d_33_while_body_1964_frozen_36119/sequential_8/conv_lstm1d_33/while/clip_by_value/Minimum/y", "op": "Const", "attr": {"dtype": {"type": "DT_FLOAT"}, "value": {"tensor": {"dtype": "DT_FLOAT", "tensorShape": {}}}}}, {"name": "__inference_sequential_8_conv_lstm1d_33_while_body_1964_frozen_36119/sequential_8/conv_lstm1d_33/while/clip_by_value/y", "op": "Const", "attr": {"value": {"tensor": {"dtype": "DT_FLOAT", "tensorShape": {}}}, "dtype": {"type": "DT_FLOAT"}}}, {"name": "__inference_sequential_8_conv_lstm1d_33_while_body_1964_frozen_36119/sequential_8/conv_lstm1d_33/while/TensorArrayV2Read/TensorListGetItem/element_shape", "op": "Const", "attr": {"dtype": {"type": "DT_INT32"}, "value": {"tensor": {"dtype": "DT_INT32", "tensorShape": {"dim": [{"size": "3"}]}}}}}, {"name": "__inference_sequential_8_conv_lstm1d_33_while_body_1964_frozen_36119/sequential_8/conv_lstm1d_33/while/convolution_2/ExpandDims/dim", "op": "Const", "attr": {"dtype": {"type": "DT_INT32"}, "value": {"tensor": {"dtype": "DT_INT32", "tensorShape": {}}}}}, {"name": "__inference_sequential_8_conv_lstm1d_33_while_body_1964_frozen_36119/sequential_8/conv_lstm1d_33/while/split/split_dim", "op": "Const", "attr": {"dtype": {"type": "DT_INT32"}, "value": {"tensor": {"dtype": "DT_INT32", "tensorShape": {}}}}}, {"name": "__inference_sequential_8_conv_lstm1d_33_while_body_1964_frozen_36119/sequential_8/conv_lstm1d_33/while/convolution_2/ExpandDims_1/dim", "op": "Const", "attr": {"value": {"tensor": {"dtype": "DT_INT32", "tensorShape": {}}}, "dtype": {"type": "DT_INT32"}}}, {"name": "__inference_sequential_8_conv_lstm1d_33_while_body_1964_frozen_36119/sequential_8/conv_lstm1d_33/while/split_2/split_dim", "op": "Const", "attr": {"value": {"tensor": {"dtype": "DT_INT32", "tensorShape": {}}}, "dtype": {"type": "DT_INT32"}}}, {"name": "__inference_sequential_8_conv_lstm1d_33_while_body_1964_frozen_36119/sequential_8/conv_lstm1d_33/while/ones_like/Const", "op": "Const", "attr": {"value": {"tensor": {"dtype": "DT_FLOAT", "tensorShape": {}}}, "dtype": {"type": "DT_FLOAT"}}}, {"name": "__inference_sequential_8_conv_lstm1d_33_while_body_1964_frozen_36119/sequential_8/conv_lstm1d_33/while/convolution_6/ExpandDims/dim", "op": "Const", "attr": {"value": {"tensor": {"dtype": "DT_INT32", "tensorShape": {}}}, "dtype": {"type": "DT_INT32"}}}, {"name": "__inference_sequential_8_conv_lstm1d_33_while_body_1964_frozen_36119/sequential_8/conv_lstm1d_33/while/split_1/split_dim", "op": "Const", "attr": {"value": {"tensor": {"dtype": "DT_INT32", "tensorShape": {}}}, "dtype": {"type": "DT_INT32"}}}, {"name": "__inference_sequential_8_conv_lstm1d_33_while_body_1964_frozen_36119/sequential_8/conv_lstm1d_33/while/convolution_6/ExpandDims_1/dim", "op": "Const", "attr": {"dtype": {"type": "DT_INT32"}, "value": {"tensor": {"dtype": "DT_INT32", "tensorShape": {}}}}}, {"name": "__inference_sequential_8_conv_lstm1d_33_while_body_1964_frozen_36119/sequential_8/conv_lstm1d_33/while/add_9/y", "op": "Const", "attr": {"value": {"tensor": {"dtype": "DT_INT32", "tensorShape": {}}}, "dtype": {"type": "DT_INT32"}}}, {"name": "sequential_8/conv_lstm1d_33/while/ones_like/Shape", "op": "Shape", "input": ["sequential_8_conv_lstm1d_33_while_placeholder_2"], "attr": {"T": {"type": "DT_FLOAT"}, "out_type": {"type": "DT_INT32"}}}, {"name": "sequential_8/conv_lstm1d_33/while/split/ReadVariableOp", "op": "Identity", "input": ["sequential_8_conv_lstm1d_33_while_split_readvariableop_resource_0"], "attr": {"T": {"type": "DT_FLOAT"}}}, {"name": "sequential_8/conv_lstm1d_33/while/split_1/ReadVariableOp", "op": "Identity", "input": ["sequential_8_conv_lstm1d_33_while_split_1_readvariableop_resource_0"], "attr": {"T": {"type": "DT_FLOAT"}}}, {"name": "sequential_8/conv_lstm1d_33/while/split_2/ReadVariableOp", "op": "Identity", "input": ["sequential_8_conv_lstm1d_33_while_split_2_readvariableop_resource_0"], "attr": {"T": {"type": "DT_FLOAT"}}}, {"name": "sequential_8/conv_lstm1d_33/while/add_8", "op": "AddV2", "input": ["sequential_8_conv_lstm1d_33_while_placeholder", "__inference_sequential_8_conv_lstm1d_33_while_body_1964_frozen_36119/sequential_8/conv_lstm1d_33/while/add_8/y:output:0"], "attr": {"T": {"type": "DT_INT32"}}}, {"name": "sequential_8/conv_lstm1d_33/while/TensorArrayV2Read/TensorListGetItem", "op": "TensorListGetItem", "input": ["sequential_8_conv_lstm1d_33_while_tensorarrayv2read_tensorlistgetitem_sequential_8_conv_lstm1d_33_tensorarrayunstack_tensorlistfromtensor_0", "sequential_8_conv_lstm1d_33_while_placeholder", "__inference_sequential_8_conv_lstm1d_33_while_body_1964_frozen_36119/sequential_8/conv_lstm1d_33/while/TensorArrayV2Read/TensorListGetItem/element_shape:output:0"], "attr": {"element_dtype": {"type": "DT_FLOAT"}}}, {"name": "sequential_8/conv_lstm1d_33/while/add_9", "op": "AddV2", "input": ["sequential_8_conv_lstm1d_33_while_sequential_8_conv_lstm1d_33_while_loop_counter", "__inference_sequential_8_conv_lstm1d_33_while_body_1964_frozen_36119/sequential_8/conv_lstm1d_33/while/add_9/y:output:0"], "attr": {"T": {"type": "DT_INT32"}}}, {"name": "sequential_8/conv_lstm1d_33/while/ones_like", "op": "Fill", "input": ["sequential_8/conv_lstm1d_33/while/ones_like/Shape:output:0", "__inference_sequential_8_conv_lstm1d_33_while_body_1964_frozen_36119/sequential_8/conv_lstm1d_33/while/ones_like/Const:output:0"], "attr": {"T": {"type": "DT_FLOAT"}, "index_type": {"type": "DT_INT32"}}}, {"name": "sequential_8/conv_lstm1d_33/while/split", "op": "Split", "input": ["__inference_sequential_8_conv_lstm1d_33_while_body_1964_frozen_36119/sequential_8/conv_lstm1d_33/while/split/split_dim:output:0", "sequential_8/conv_lstm1d_33/while/split/ReadVariableOp:output:0"], "attr": {"num_split": {"i": "4"}, "T": {"type": "DT_FLOAT"}}}, {"name": "sequential_8/conv_lstm1d_33/while/split_1", "op": "Split", "input": ["__inference_sequential_8_conv_lstm1d_33_while_body_1964_frozen_36119/sequential_8/conv_lstm1d_33/while/split_1/split_dim:output:0", "sequential_8/conv_lstm1d_33/while/split_1/ReadVariableOp:output:0"], "attr": {"num_split": {"i": "4"}, "T": {"type": "DT_FLOAT"}}}, {"name": "sequential_8/conv_lstm1d_33/while/NoOp", "op": "NoOp", "input": ["^sequential_8/conv_lstm1d_33/while/split/ReadVariableOp", "^sequential_8/conv_lstm1d_33/while/split_1/ReadVariableOp", "^sequential_8/conv_lstm1d_33/while/split_2/ReadVariableOp"], "attr": {"_acd_function_control_output": {"b": true}}}, {"name": "sequential_8/conv_lstm1d_33/while/split_2", "op": "Split", "input": ["__inference_sequential_8_conv_lstm1d_33_while_body_1964_frozen_36119/sequential_8/conv_lstm1d_33/while/split_2/split_dim:output:0", "sequential_8/conv_lstm1d_33/while/split_2/ReadVariableOp:output:0"], "attr": {"T": {"type": "DT_FLOAT"}, "num_split": {"i": "4"}}}, {"name": "sequential_8/conv_lstm1d_33/while/convolution_3/ExpandDims", "op": "ExpandDims", "input": ["sequential_8/conv_lstm1d_33/while/TensorArrayV2Read/TensorListGetItem:item:0", "__inference_sequential_8_conv_lstm1d_33_while_body_1964_frozen_36119/sequential_8/conv_lstm1d_33/while/convolution_3/ExpandDims/dim:output:0"], "attr": {"T": {"type": "DT_FLOAT"}, "Tdim": {"type": "DT_INT32"}}}, {"name": "sequential_8/conv_lstm1d_33/while/convolution_1/ExpandDims", "op": "ExpandDims", "input": ["sequential_8/conv_lstm1d_33/while/TensorArrayV2Read/TensorListGetItem:item:0", "__inference_sequential_8_conv_lstm1d_33_while_body_1964_frozen_36119/sequential_8/conv_lstm1d_33/while/convolution_1/ExpandDims/dim:output:0"], "attr": {"Tdim": {"type": "DT_INT32"}, "T": {"type": "DT_FLOAT"}}}, {"name": "sequential_8/conv_lstm1d_33/while/convolution/ExpandDims", "op": "ExpandDims", "input": ["sequential_8/conv_lstm1d_33/while/TensorArrayV2Read/TensorListGetItem:item:0", "__inference_sequential_8_conv_lstm1d_33_while_body_1964_frozen_36119/sequential_8/conv_lstm1d_33/while/convolution/ExpandDims/dim:output:0"], "attr": {"T": {"type": "DT_FLOAT"}, "Tdim": {"type": "DT_INT32"}}}, {"name": "sequential_8/conv_lstm1d_33/while/convolution_2/ExpandDims", "op": "ExpandDims", "input": ["sequential_8/conv_lstm1d_33/while/TensorArrayV2Read/TensorListGetItem:item:0", "__inference_sequential_8_conv_lstm1d_33_while_body_1964_frozen_36119/sequential_8/conv_lstm1d_33/while/convolution_2/ExpandDims/dim:output:0"], "attr": {"T": {"type": "DT_FLOAT"}, "Tdim": {"type": "DT_INT32"}}}, {"name": "sequential_8/conv_lstm1d_33/while/mul_3", "op": "Mul", "input": ["sequential_8_conv_lstm1d_33_while_placeholder_2", "sequential_8/conv_lstm1d_33/while/ones_like:output:0"], "attr": {"T": {"type": "DT_FLOAT"}}}, {"name": "sequential_8/conv_lstm1d_33/while/mul_1", "op": "Mul", "input": ["sequential_8_conv_lstm1d_33_while_placeholder_2", "sequential_8/conv_lstm1d_33/while/ones_like:output:0"], "attr": {"T": {"type": "DT_FLOAT"}}}, {"name": "sequential_8/conv_lstm1d_33/while/mul", "op": "Mul", "input": ["sequential_8_conv_lstm1d_33_while_placeholder_2", "sequential_8/conv_lstm1d_33/while/ones_like:output:0"], "attr": {"T": {"type": "DT_FLOAT"}}}, {"name": "sequential_8/conv_lstm1d_33/while/mul_2", "op": "Mul", "input": ["sequential_8_conv_lstm1d_33_while_placeholder_2", "sequential_8/conv_lstm1d_33/while/ones_like:output:0"], "attr": {"T": {"type": "DT_FLOAT"}}}, {"name": "sequential_8/conv_lstm1d_33/while/convolution/ExpandDims_1", "op": "ExpandDims", "input": ["sequential_8/conv_lstm1d_33/while/split:output:0", "__inference_sequential_8_conv_lstm1d_33_while_body_1964_frozen_36119/sequential_8/conv_lstm1d_33/while/convolution/ExpandDims_1/dim:output:0"], "attr": {"Tdim": {"type": "DT_INT32"}, "T": {"type": "DT_FLOAT"}}}, {"name": "sequential_8/conv_lstm1d_33/while/convolution_1/ExpandDims_1", "op": "ExpandDims", "input": ["sequential_8/conv_lstm1d_33/while/split:output:1", "__inference_sequential_8_conv_lstm1d_33_while_body_1964_frozen_36119/sequential_8/conv_lstm1d_33/while/convolution_1/ExpandDims_1/dim:output:0"], "attr": {"Tdim": {"type": "DT_INT32"}, "T": {"type": "DT_FLOAT"}}}, {"name": "sequential_8/conv_lstm1d_33/while/convolution_3/ExpandDims_1", "op": "ExpandDims", "input": ["sequential_8/conv_lstm1d_33/while/split:output:3", "__inference_sequential_8_conv_lstm1d_33_while_body_1964_frozen_36119/sequential_8/conv_lstm1d_33/while/convolution_3/ExpandDims_1/dim:output:0"], "attr": {"Tdim": {"type": "DT_INT32"}, "T": {"type": "DT_FLOAT"}}}, {"name": "sequential_8/conv_lstm1d_33/while/convolution_2/ExpandDims_1", "op": "ExpandDims", "input": ["sequential_8/conv_lstm1d_33/while/split:output:2", "__inference_sequential_8_conv_lstm1d_33_while_body_1964_frozen_36119/sequential_8/conv_lstm1d_33/while/convolution_2/ExpandDims_1/dim:output:0"], "attr": {"T": {"type": "DT_FLOAT"}, "Tdim": {"type": "DT_INT32"}}}, {"name": "sequential_8/conv_lstm1d_33/while/convolution_4/ExpandDims_1", "op": "ExpandDims", "input": ["sequential_8/conv_lstm1d_33/while/split_1:output:0", "__inference_sequential_8_conv_lstm1d_33_while_body_1964_frozen_36119/sequential_8/conv_lstm1d_33/while/convolution_4/ExpandDims_1/dim:output:0"], "attr": {"T": {"type": "DT_FLOAT"}, "Tdim": {"type": "DT_INT32"}}}, {"name": "sequential_8/conv_lstm1d_33/while/convolution_5/ExpandDims_1", "op": "ExpandDims", "input": ["sequential_8/conv_lstm1d_33/while/split_1:output:1", "__inference_sequential_8_conv_lstm1d_33_while_body_1964_frozen_36119/sequential_8/conv_lstm1d_33/while/convolution_5/ExpandDims_1/dim:output:0"], "attr": {"T": {"type": "DT_FLOAT"}, "Tdim": {"type": "DT_INT32"}}}, {"name": "sequential_8/conv_lstm1d_33/while/convolution_7/ExpandDims_1", "op": "ExpandDims", "input": ["sequential_8/conv_lstm1d_33/while/split_1:output:3", "__inference_sequential_8_conv_lstm1d_33_while_body_1964_frozen_36119/sequential_8/conv_lstm1d_33/while/convolution_7/ExpandDims_1/dim:output:0"], "attr": {"Tdim": {"type": "DT_INT32"}, "T": {"type": "DT_FLOAT"}}}, {"name": "sequential_8/conv_lstm1d_33/while/convolution_6/ExpandDims_1", "op": "ExpandDims", "input": ["sequential_8/conv_lstm1d_33/while/split_1:output:2", "__inference_sequential_8_conv_lstm1d_33_while_body_1964_frozen_36119/sequential_8/conv_lstm1d_33/while/convolution_6/ExpandDims_1/dim:output:0"], "attr": {"T": {"type": "DT_FLOAT"}, "Tdim": {"type": "DT_INT32"}}}, {"name": "sequential_8/conv_lstm1d_33/while/Identity_1", "op": "Identity", "input": ["sequential_8_conv_lstm1d_33_while_sequential_8_conv_lstm1d_33_while_maximum_iterations", "^sequential_8/conv_lstm1d_33/while/NoOp"], "attr": {"T": {"type": "DT_INT32"}}}, {"name": "sequential_8/conv_lstm1d_33/while/Identity_2", "op": "Identity", "input": ["sequential_8/conv_lstm1d_33/while/add_8:z:0", "^sequential_8/conv_lstm1d_33/while/NoOp"], "attr": {"T": {"type": "DT_INT32"}}}, {"name": "sequential_8/conv_lstm1d_33/while/Identity", "op": "Identity", "input": ["sequential_8/conv_lstm1d_33/while/add_9:z:0", "^sequential_8/conv_lstm1d_33/while/NoOp"], "attr": {"T": {"type": "DT_INT32"}}}, {"name": "sequential_8/conv_lstm1d_33/while/convolution_7/ExpandDims", "op": "ExpandDims", "input": ["sequential_8/conv_lstm1d_33/while/mul_3:z:0", "__inference_sequential_8_conv_lstm1d_33_while_body_1964_frozen_36119/sequential_8/conv_lstm1d_33/while/convolution_7/ExpandDims/dim:output:0"], "attr": {"Tdim": {"type": "DT_INT32"}, "T": {"type": "DT_FLOAT"}}}, {"name": "sequential_8/conv_lstm1d_33/while/convolution_5/ExpandDims", "op": "ExpandDims", "input": ["sequential_8/conv_lstm1d_33/while/mul_1:z:0", "__inference_sequential_8_conv_lstm1d_33_while_body_1964_frozen_36119/sequential_8/conv_lstm1d_33/while/convolution_5/ExpandDims/dim:output:0"], "attr": {"Tdim": {"type": "DT_INT32"}, "T": {"type": "DT_FLOAT"}}}, {"name": "sequential_8/conv_lstm1d_33/while/convolution_4/ExpandDims", "op": "ExpandDims", "input": ["sequential_8/conv_lstm1d_33/while/mul:z:0", "__inference_sequential_8_conv_lstm1d_33_while_body_1964_frozen_36119/sequential_8/conv_lstm1d_33/while/convolution_4/ExpandDims/dim:output:0"], "attr": {"Tdim": {"type": "DT_INT32"}, "T": {"type": "DT_FLOAT"}}}, {"name": "sequential_8/conv_lstm1d_33/while/convolution_6/ExpandDims", "op": "ExpandDims", "input": ["sequential_8/conv_lstm1d_33/while/mul_2:z:0", "__inference_sequential_8_conv_lstm1d_33_while_body_1964_frozen_36119/sequential_8/conv_lstm1d_33/while/convolution_6/ExpandDims/dim:output:0"], "attr": {"Tdim": {"type": "DT_INT32"}, "T": {"type": "DT_FLOAT"}}}, {"name": "sequential_8/conv_lstm1d_33/while/convolution", "op": "Conv2D", "input": ["sequential_8/conv_lstm1d_33/while/convolution/ExpandDims:output:0", "sequential_8/conv_lstm1d_33/while/convolution/ExpandDims_1:output:0"], "attr": {"T": {"type": "DT_FLOAT"}, "use_cudnn_on_gpu": {"b": true}, "explicit_paddings": {"list": {}}, "padding": {"s": "VkFMSUQ="}, "data_format": {"s": "TkhXQw=="}, "dilations": {"list": {"i": ["1", "1", "1", "1"]}}, "strides": {"list": {"i": ["1", "1", "1", "1"]}}}}, {"name": "sequential_8/conv_lstm1d_33/while/convolution_1", "op": "Conv2D", "input": ["sequential_8/conv_lstm1d_33/while/convolution_1/ExpandDims:output:0", "sequential_8/conv_lstm1d_33/while/convolution_1/ExpandDims_1:output:0"], "attr": {"use_cudnn_on_gpu": {"b": true}, "T": {"type": "DT_FLOAT"}, "padding": {"s": "VkFMSUQ="}, "dilations": {"list": {"i": ["1", "1", "1", "1"]}}, "strides": {"list": {"i": ["1", "1", "1", "1"]}}, "explicit_paddings": {"list": {}}, "data_format": {"s": "TkhXQw=="}}}, {"name": "sequential_8/conv_lstm1d_33/while/convolution_3", "op": "Conv2D", "input": ["sequential_8/conv_lstm1d_33/while/convolution_3/ExpandDims:output:0", "sequential_8/conv_lstm1d_33/while/convolution_3/ExpandDims_1:output:0"], "attr": {"padding": {"s": "VkFMSUQ="}, "strides": {"list": {"i": ["1", "1", "1", "1"]}}, "data_format": {"s": "TkhXQw=="}, "explicit_paddings": {"list": {}}, "T": {"type": "DT_FLOAT"}, "use_cudnn_on_gpu": {"b": true}, "dilations": {"list": {"i": ["1", "1", "1", "1"]}}}}, {"name": "sequential_8/conv_lstm1d_33/while/convolution_2", "op": "Conv2D", "input": ["sequential_8/conv_lstm1d_33/while/convolution_2/ExpandDims:output:0", "sequential_8/conv_lstm1d_33/while/convolution_2/ExpandDims_1:output:0"], "attr": {"explicit_paddings": {"list": {}}, "T": {"type": "DT_FLOAT"}, "strides": {"list": {"i": ["1", "1", "1", "1"]}}, "dilations": {"list": {"i": ["1", "1", "1", "1"]}}, "padding": {"s": "VkFMSUQ="}, "data_format": {"s": "TkhXQw=="}, "use_cudnn_on_gpu": {"b": true}}}, {"name": "sequential_8/conv_lstm1d_33/while/convolution_7", "op": "Conv2D", "input": ["sequential_8/conv_lstm1d_33/while/convolution_7/ExpandDims:output:0", "sequential_8/conv_lstm1d_33/while/convolution_7/ExpandDims_1:output:0"], "attr": {"T": {"type": "DT_FLOAT"}, "data_format": {"s": "TkhXQw=="}, "strides": {"list": {"i": ["1", "1", "1", "1"]}}, "explicit_paddings": {"list": {}}, "padding": {"s": "U0FNRQ=="}, "dilations": {"list": {"i": ["1", "1", "1", "1"]}}, "use_cudnn_on_gpu": {"b": true}}}, {"name": "sequential_8/conv_lstm1d_33/while/convolution_5", "op": "Conv2D", "input": ["sequential_8/conv_lstm1d_33/while/convolution_5/ExpandDims:output:0", "sequential_8/conv_lstm1d_33/while/convolution_5/ExpandDims_1:output:0"], "attr": {"explicit_paddings": {"list": {}}, "padding": {"s": "U0FNRQ=="}, "strides": {"list": {"i": ["1", "1", "1", "1"]}}, "use_cudnn_on_gpu": {"b": true}, "data_format": {"s": "TkhXQw=="}, "T": {"type": "DT_FLOAT"}, "dilations": {"list": {"i": ["1", "1", "1", "1"]}}}}, {"name": "sequential_8/conv_lstm1d_33/while/convolution_4", "op": "Conv2D", "input": ["sequential_8/conv_lstm1d_33/while/convolution_4/ExpandDims:output:0", "sequential_8/conv_lstm1d_33/while/convolution_4/ExpandDims_1:output:0"], "attr": {"padding": {"s": "U0FNRQ=="}, "T": {"type": "DT_FLOAT"}, "use_cudnn_on_gpu": {"b": true}, "strides": {"list": {"i": ["1", "1", "1", "1"]}}, "explicit_paddings": {"list": {}}, "dilations": {"list": {"i": ["1", "1", "1", "1"]}}, "data_format": {"s": "TkhXQw=="}}}, {"name": "sequential_8/conv_lstm1d_33/while/convolution_6", "op": "Conv2D", "input": ["sequential_8/conv_lstm1d_33/while/convolution_6/ExpandDims:output:0", "sequential_8/conv_lstm1d_33/while/convolution_6/ExpandDims_1:output:0"], "attr": {"data_format": {"s": "TkhXQw=="}, "use_cudnn_on_gpu": {"b": true}, "dilations": {"list": {"i": ["1", "1", "1", "1"]}}, "strides": {"list": {"i": ["1", "1", "1", "1"]}}, "explicit_paddings": {"list": {}}, "padding": {"s": "U0FNRQ=="}, "T": {"type": "DT_FLOAT"}}}, {"name": "sequential_8/conv_lstm1d_33/while/convolution/Squeeze", "op": "Squeeze", "input": ["sequential_8/conv_lstm1d_33/while/convolution:output:0"], "attr": {"T": {"type": "DT_FLOAT"}, "squeeze_dims": {"list": {"i": ["-3"]}}}}, {"name": "sequential_8/conv_lstm1d_33/while/convolution_1/Squeeze", "op": "Squeeze", "input": ["sequential_8/conv_lstm1d_33/while/convolution_1:output:0"], "attr": {"T": {"type": "DT_FLOAT"}, "squeeze_dims": {"list": {"i": ["-3"]}}}}, {"name": "sequential_8/conv_lstm1d_33/while/convolution_3/Squeeze", "op": "Squeeze", "input": ["sequential_8/conv_lstm1d_33/while/convolution_3:output:0"], "attr": {"squeeze_dims": {"list": {"i": ["-3"]}}, "T": {"type": "DT_FLOAT"}}}, {"name": "sequential_8/conv_lstm1d_33/while/convolution_2/Squeeze", "op": "Squeeze", "input": ["sequential_8/conv_lstm1d_33/while/convolution_2:output:0"], "attr": {"squeeze_dims": {"list": {"i": ["-3"]}}, "T": {"type": "DT_FLOAT"}}}, {"name": "sequential_8/conv_lstm1d_33/while/convolution_7/Squeeze", "op": "Squeeze", "input": ["sequential_8/conv_lstm1d_33/while/convolution_7:output:0"], "attr": {"squeeze_dims": {"list": {"i": ["-3"]}}, "T": {"type": "DT_FLOAT"}}}, {"name": "sequential_8/conv_lstm1d_33/while/convolution_5/Squeeze", "op": "Squeeze", "input": ["sequential_8/conv_lstm1d_33/while/convolution_5:output:0"], "attr": {"T": {"type": "DT_FLOAT"}, "squeeze_dims": {"list": {"i": ["-3"]}}}}, {"name": "sequential_8/conv_lstm1d_33/while/convolution_4/Squeeze", "op": "Squeeze", "input": ["sequential_8/conv_lstm1d_33/while/convolution_4:output:0"], "attr": {"T": {"type": "DT_FLOAT"}, "squeeze_dims": {"list": {"i": ["-3"]}}}}, {"name": "sequential_8/conv_lstm1d_33/while/convolution_6/Squeeze", "op": "Squeeze", "input": ["sequential_8/conv_lstm1d_33/while/convolution_6:output:0"], "attr": {"squeeze_dims": {"list": {"i": ["-3"]}}, "T": {"type": "DT_FLOAT"}}}, {"name": "sequential_8/conv_lstm1d_33/while/BiasAdd", "op": "BiasAdd", "input": ["sequential_8/conv_lstm1d_33/while/convolution/Squeeze:output:0", "sequential_8/conv_lstm1d_33/while/split_2:output:0"], "attr": {"T": {"type": "DT_FLOAT"}, "data_format": {"s": "TkhXQw=="}}}, {"name": "sequential_8/conv_lstm1d_33/while/BiasAdd_1", "op": "BiasAdd", "input": ["sequential_8/conv_lstm1d_33/while/convolution_1/Squeeze:output:0", "sequential_8/conv_lstm1d_33/while/split_2:output:1"], "attr": {"T": {"type": "DT_FLOAT"}, "data_format": {"s": "TkhXQw=="}}}, {"name": "sequential_8/conv_lstm1d_33/while/BiasAdd_3", "op": "BiasAdd", "input": ["sequential_8/conv_lstm1d_33/while/convolution_3/Squeeze:output:0", "sequential_8/conv_lstm1d_33/while/split_2:output:3"], "attr": {"T": {"type": "DT_FLOAT"}, "data_format": {"s": "TkhXQw=="}}}, {"name": "sequential_8/conv_lstm1d_33/while/BiasAdd_2", "op": "BiasAdd", "input": ["sequential_8/conv_lstm1d_33/while/convolution_2/Squeeze:output:0", "sequential_8/conv_lstm1d_33/while/split_2:output:2"], "attr": {"T": {"type": "DT_FLOAT"}, "data_format": {"s": "TkhXQw=="}}}, {"name": "sequential_8/conv_lstm1d_33/while/add", "op": "AddV2", "input": ["sequential_8/conv_lstm1d_33/while/BiasAdd:output:0", "sequential_8/conv_lstm1d_33/while/convolution_4/Squeeze:output:0"], "attr": {"T": {"type": "DT_FLOAT"}}}, {"name": "sequential_8/conv_lstm1d_33/while/add_2", "op": "AddV2", "input": ["sequential_8/conv_lstm1d_33/while/BiasAdd_1:output:0", "sequential_8/conv_lstm1d_33/while/convolution_5/Squeeze:output:0"], "attr": {"T": {"type": "DT_FLOAT"}}}, {"name": "sequential_8/conv_lstm1d_33/while/add_6", "op": "AddV2", "input": ["sequential_8/conv_lstm1d_33/while/BiasAdd_3:output:0", "sequential_8/conv_lstm1d_33/while/convolution_7/Squeeze:output:0"], "attr": {"T": {"type": "DT_FLOAT"}}}, {"name": "sequential_8/conv_lstm1d_33/while/add_4", "op": "AddV2", "input": ["sequential_8/conv_lstm1d_33/while/BiasAdd_2:output:0", "sequential_8/conv_lstm1d_33/while/convolution_6/Squeeze:output:0"], "attr": {"T": {"type": "DT_FLOAT"}}}, {"name": "sequential_8/conv_lstm1d_33/while/Mul_4", "op": "Mul", "input": ["sequential_8/conv_lstm1d_33/while/add:z:0", "__inference_sequential_8_conv_lstm1d_33_while_body_1964_frozen_36119/sequential_8/conv_lstm1d_33/while/Const:output:0"], "attr": {"T": {"type": "DT_FLOAT"}}}, {"name": "sequential_8/conv_lstm1d_33/while/Mul_5", "op": "Mul", "input": ["sequential_8/conv_lstm1d_33/while/add_2:z:0", "__inference_sequential_8_conv_lstm1d_33_while_body_1964_frozen_36119/sequential_8/conv_lstm1d_33/while/Const_2:output:0"], "attr": {"T": {"type": "DT_FLOAT"}}}, {"name": "sequential_8/conv_lstm1d_33/while/Mul_8", "op": "Mul", "input": ["sequential_8/conv_lstm1d_33/while/add_6:z:0", "__inference_sequential_8_conv_lstm1d_33_while_body_1964_frozen_36119/sequential_8/conv_lstm1d_33/while/Const_4:output:0"], "attr": {"T": {"type": "DT_FLOAT"}}}, {"name": "sequential_8/conv_lstm1d_33/while/Tanh", "op": "Tanh", "input": ["sequential_8/conv_lstm1d_33/while/add_4:z:0"], "attr": {"T": {"type": "DT_FLOAT"}}}, {"name": "sequential_8/conv_lstm1d_33/while/Add_1", "op": "AddV2", "input": ["sequential_8/conv_lstm1d_33/while/Mul_4:z:0", "__inference_sequential_8_conv_lstm1d_33_while_body_1964_frozen_36119/sequential_8/conv_lstm1d_33/while/Const_1:output:0"], "attr": {"T": {"type": "DT_FLOAT"}}}, {"name": "sequential_8/conv_lstm1d_33/while/Add_3", "op": "AddV2", "input": ["sequential_8/conv_lstm1d_33/while/Mul_5:z:0", "__inference_sequential_8_conv_lstm1d_33_while_body_1964_frozen_36119/sequential_8/conv_lstm1d_33/while/Const_3:output:0"], "attr": {"T": {"type": "DT_FLOAT"}}}, {"name": "sequential_8/conv_lstm1d_33/while/Add_7", "op": "AddV2", "input": ["sequential_8/conv_lstm1d_33/while/Mul_8:z:0", "__inference_sequential_8_conv_lstm1d_33_while_body_1964_frozen_36119/sequential_8/conv_lstm1d_33/while/Const_5:output:0"], "attr": {"T": {"type": "DT_FLOAT"}}}, {"name": "sequential_8/conv_lstm1d_33/while/clip_by_value/Minimum", "op": "Minimum", "input": ["sequential_8/conv_lstm1d_33/while/Add_1:z:0", "__inference_sequential_8_conv_lstm1d_33_while_body_1964_frozen_36119/sequential_8/conv_lstm1d_33/while/clip_by_value/Minimum/y:output:0"], "attr": {"T": {"type": "DT_FLOAT"}}}, {"name": "sequential_8/conv_lstm1d_33/while/clip_by_value_1/Minimum", "op": "Minimum", "input": ["sequential_8/conv_lstm1d_33/while/Add_3:z:0", "__inference_sequential_8_conv_lstm1d_33_while_body_1964_frozen_36119/sequential_8/conv_lstm1d_33/while/clip_by_value_1/Minimum/y:output:0"], "attr": {"T": {"type": "DT_FLOAT"}}}, {"name": "sequential_8/conv_lstm1d_33/while/clip_by_value_2/Minimum", "op": "Minimum", "input": ["sequential_8/conv_lstm1d_33/while/Add_7:z:0", "__inference_sequential_8_conv_lstm1d_33_while_body_1964_frozen_36119/sequential_8/conv_lstm1d_33/while/clip_by_value_2/Minimum/y:output:0"], "attr": {"T": {"type": "DT_FLOAT"}}}, {"name": "sequential_8/conv_lstm1d_33/while/clip_by_value", "op": "Maximum", "input": ["sequential_8/conv_lstm1d_33/while/clip_by_value/Minimum:z:0", "__inference_sequential_8_conv_lstm1d_33_while_body_1964_frozen_36119/sequential_8/conv_lstm1d_33/while/clip_by_value/y:output:0"], "attr": {"T": {"type": "DT_FLOAT"}}}, {"name": "sequential_8/conv_lstm1d_33/while/clip_by_value_1", "op": "Maximum", "input": ["sequential_8/conv_lstm1d_33/while/clip_by_value_1/Minimum:z:0", "__inference_sequential_8_conv_lstm1d_33_while_body_1964_frozen_36119/sequential_8/conv_lstm1d_33/while/clip_by_value_1/y:output:0"], "attr": {"T": {"type": "DT_FLOAT"}}}, {"name": "sequential_8/conv_lstm1d_33/while/clip_by_value_2", "op": "Maximum", "input": ["sequential_8/conv_lstm1d_33/while/clip_by_value_2/Minimum:z:0", "__inference_sequential_8_conv_lstm1d_33_while_body_1964_frozen_36119/sequential_8/conv_lstm1d_33/while/clip_by_value_2/y:output:0"], "attr": {"T": {"type": "DT_FLOAT"}}}, {"name": "sequential_8/conv_lstm1d_33/while/mul_7", "op": "Mul", "input": ["sequential_8/conv_lstm1d_33/while/clip_by_value:z:0", "sequential_8/conv_lstm1d_33/while/Tanh:y:0"], "attr": {"T": {"type": "DT_FLOAT"}}}, {"name": "sequential_8/conv_lstm1d_33/while/mul_6", "op": "Mul", "input": ["sequential_8/conv_lstm1d_33/while/clip_by_value_1:z:0", "sequential_8_conv_lstm1d_33_while_placeholder_3"], "attr": {"T": {"type": "DT_FLOAT"}}}, {"name": "sequential_8/conv_lstm1d_33/while/add_5", "op": "AddV2", "input": ["sequential_8/conv_lstm1d_33/while/mul_6:z:0", "sequential_8/conv_lstm1d_33/while/mul_7:z:0"], "attr": {"T": {"type": "DT_FLOAT"}}}, {"name": "sequential_8/conv_lstm1d_33/while/Tanh_1", "op": "Tanh", "input": ["sequential_8/conv_lstm1d_33/while/add_5:z:0"], "attr": {"T": {"type": "DT_FLOAT"}}}, {"name": "sequential_8/conv_lstm1d_33/while/Identity_5", "op": "Identity", "input": ["sequential_8/conv_lstm1d_33/while/add_5:z:0", "^sequential_8/conv_lstm1d_33/while/NoOp"], "attr": {"T": {"type": "DT_FLOAT"}}}, {"name": "sequential_8/conv_lstm1d_33/while/mul_9", "op": "Mul", "input": ["sequential_8/conv_lstm1d_33/while/clip_by_value_2:z:0", "sequential_8/conv_lstm1d_33/while/Tanh_1:y:0"], "attr": {"T": {"type": "DT_FLOAT"}}}, {"name": "sequential_8/conv_lstm1d_33/while/TensorArrayV2Write/TensorListSetItem", "op": "TensorListSetItem", "input": ["sequential_8_conv_lstm1d_33_while_placeholder_1", "sequential_8_conv_lstm1d_33_while_placeholder", "sequential_8/conv_lstm1d_33/while/mul_9:z:0"], "attr": {"element_dtype": {"type": "DT_FLOAT"}}, "experimentalType": {"typeId": "TFT_PRODUCT", "args": [{"typeId": "TFT_ARRAY", "args": [{"typeId": "TFT_TENSOR", "args": [{"typeId": "TFT_FLOAT"}]}]}]}}, {"name": "sequential_8/conv_lstm1d_33/while/Identity_4", "op": "Identity", "input": ["sequential_8/conv_lstm1d_33/while/mul_9:z:0", "^sequential_8/conv_lstm1d_33/while/NoOp"], "attr": {"T": {"type": "DT_FLOAT"}}}, {"name": "sequential_8/conv_lstm1d_33/while/Identity_3", "op": "Identity", "input": ["sequential_8/conv_lstm1d_33/while/TensorArrayV2Write/TensorListSetItem:output_handle:0", "^sequential_8/conv_lstm1d_33/while/NoOp"], "attr": {"T": {"type": "DT_VARIANT"}}}], "ret": {"sequential_8_conv_lstm1d_33_while_sequential_8_conv_lstm1d_33_strided_slice": "sequential_8_conv_lstm1d_33_while_sequential_8_conv_lstm1d_33_strided_slice_0", "sequential_8_conv_lstm1d_33_while_tensorarrayv2read_tensorlistgetitem_sequential_8_conv_lstm1d_33_tensorarrayunstack_tensorlistfromtensor": "sequential_8_conv_lstm1d_33_while_tensorarrayv2read_tensorlistgetitem_sequential_8_conv_lstm1d_33_tensorarrayunstack_tensorlistfromtensor_0", "sequential_8_conv_lstm1d_33_while_identity_1": "sequential_8/conv_lstm1d_33/while/Identity_1:output:0", "sequential_8_conv_lstm1d_33_while_identity": "sequential_8/conv_lstm1d_33/while/Identity:output:0", "sequential_8_conv_lstm1d_33_while_identity_3": "sequential_8/conv_lstm1d_33/while/Identity_3:output:0", "sequential_8_conv_lstm1d_33_while_split_1_readvariableop_resource": "sequential_8_conv_lstm1d_33_while_split_1_readvariableop_resource_0", "sequential_8_conv_lstm1d_33_while_identity_4": "sequential_8/conv_lstm1d_33/while/Identity_4:output:0", "sequential_8_conv_lstm1d_33_while_identity_5": "sequential_8/conv_lstm1d_33/while/Identity_5:output:0", "sequential_8_conv_lstm1d_33_while_split_2_readvariableop_resource": "sequential_8_conv_lstm1d_33_while_split_2_readvariableop_resource_0", "sequential_8_conv_lstm1d_33_while_identity_2": "sequential_8/conv_lstm1d_33/while/Identity_2:output:0", "sequential_8_conv_lstm1d_33_while_split_readvariableop_resource": "sequential_8_conv_lstm1d_33_while_split_readvariableop_resource_0"}, "attr": {"_construction_context": {"s": "a0VhZ2VyUnVudGltZQ=="}}, "controlRet": {"sequential_8/conv_lstm1d_33/while/split_1/ReadVariableOp": "sequential_8/conv_lstm1d_33/while/split_1/ReadVariableOp", "sequential_8/conv_lstm1d_33/while/split_2/ReadVariableOp": "sequential_8/conv_lstm1d_33/while/split_2/ReadVariableOp", "sequential_8/conv_lstm1d_33/while/split/ReadVariableOp": "sequential_8/conv_lstm1d_33/while/split/ReadVariableOp"}, "argAttr": {"3": {"attr": {"_output_shapes": {"list": {"shape": [{}]}}}}, "6": {"attr": {"_output_shapes": {"list": {"shape": [{}]}}}}, "4": {"attr": {"_output_shapes": {"list": {"shape": [{"dim": [{"size": "-1"}, {"size": "828"}, {"size": "8"}]}]}}}}, "1": {"attr": {"_output_shapes": {"list": {"shape": [{}]}}}}, "7": {"attr": {"_output_shapes": {"list": {"shape": [{}]}}}}, "5": {"attr": {"_output_shapes": {"list": {"shape": [{"dim": [{"size": "-1"}, {"size": "828"}, {"size": "8"}]}]}}}}, "2": {"attr": {"_output_shapes": {"list": {"shape": [{}]}}}}, "0": {"attr": {"_output_shapes": {"list": {"shape": [{}]}}}}}}, {"signature": {"name": "__inference_sequential_8_conv_lstm1d_34_while_cond_2286_frozen_36118", "inputArg": [{"name": "sequential_8_conv_lstm1d_34_while_sequential_8_conv_lstm1d_34_while_loop_counter", "type": "DT_INT32"}, {"name": "sequential_8_conv_lstm1d_34_while_sequential_8_conv_lstm1d_34_while_maximum_iterations", "type": "DT_INT32"}, {"name": "sequential_8_conv_lstm1d_34_while_placeholder", "type": "DT_INT32"}, {"name": "sequential_8_conv_lstm1d_34_while_placeholder_1", "type": "DT_VARIANT"}, {"name": "sequential_8_conv_lstm1d_34_while_placeholder_2", "type": "DT_FLOAT"}, {"name": "sequential_8_conv_lstm1d_34_while_placeholder_3", "type": "DT_FLOAT"}, {"name": "sequential_8_conv_lstm1d_34_while_less_sequential_8_conv_lstm1d_34_strided_slice", "type": "DT_INT32"}, {"name": "sequential_8_conv_lstm1d_34_while_sequential_8_conv_lstm1d_34_while_cond_2286___redundant_placeholder0", "type": "DT_VARIANT"}, {"name": "sequential_8_conv_lstm1d_34_while_sequential_8_conv_lstm1d_34_while_cond_2286___redundant_placeholder1", "type": "DT_FLOAT"}, {"name": "sequential_8_conv_lstm1d_34_while_sequential_8_conv_lstm1d_34_while_cond_2286___redundant_placeholder2", "type": "DT_FLOAT"}, {"name": "sequential_8_conv_lstm1d_34_while_sequential_8_conv_lstm1d_34_while_cond_2286___redundant_placeholder3", "type": "DT_FLOAT"}], "outputArg": [{"name": "sequential_8_conv_lstm1d_34_while_identity", "type": "DT_BOOL"}]}, "nodeDef": [{"name": "sequential_8/conv_lstm1d_34/while/Less", "op": "Less", "input": ["sequential_8_conv_lstm1d_34_while_placeholder", "sequential_8_conv_lstm1d_34_while_less_sequential_8_conv_lstm1d_34_strided_slice"], "attr": {"T": {"type": "DT_INT32"}}}], "ret": {"sequential_8_conv_lstm1d_34_while_identity": "sequential_8/conv_lstm1d_34/while/Less:z:0"}, "attr": {"_construction_context": {"s": "a0VhZ2VyUnVudGltZQ=="}}, "argAttr": {"1": {"attr": {"_output_shapes": {"list": {"shape": [{}]}}}}, "3": {"attr": {"_output_shapes": {"list": {"shape": [{}]}}}}, "4": {"attr": {"_output_shapes": {"list": {"shape": [{"dim": [{"size": "-1"}, {"size": "412"}, {"size": "14"}]}]}}}}, "6": {"attr": {"_output_shapes": {"list": {"shape": [{}]}}}}, "5": {"attr": {"_output_shapes": {"list": {"shape": [{"dim": [{"size": "-1"}, {"size": "412"}, {"size": "14"}]}]}}}}, "0": {"attr": {"_output_shapes": {"list": {"shape": [{}]}}}}, "2": {"attr": {"_output_shapes": {"list": {"shape": [{}]}}}}, "7": {"attr": {"_output_shapes": {"list": {"shape": [{"unknownRank": true}]}}}}}}, {"signature": {"name": "__inference_sequential_8_conv_lstm1d_32_while_body_1641_frozen_36116", "inputArg": [{"name": "sequential_8_conv_lstm1d_32_while_sequential_8_conv_lstm1d_32_while_loop_counter", "type": "DT_INT32"}, {"name": "sequential_8_conv_lstm1d_32_while_sequential_8_conv_lstm1d_32_while_maximum_iterations", "type": "DT_INT32"}, {"name": "sequential_8_conv_lstm1d_32_while_placeholder", "type": "DT_INT32"}, {"name": "sequential_8_conv_lstm1d_32_while_placeholder_1", "type": "DT_VARIANT"}, {"name": "sequential_8_conv_lstm1d_32_while_placeholder_2", "type": "DT_FLOAT"}, {"name": "sequential_8_conv_lstm1d_32_while_placeholder_3", "type": "DT_FLOAT"}, {"name": "sequential_8_conv_lstm1d_32_while_sequential_8_conv_lstm1d_32_strided_slice_0", "type": "DT_INT32"}, {"name": "sequential_8_conv_lstm1d_32_while_tensorarrayv2read_tensorlistgetitem_sequential_8_conv_lstm1d_32_tensorarrayunstack_tensorlistfromtensor_0", "type": "DT_VARIANT"}, {"name": "sequential_8_conv_lstm1d_32_while_split_readvariableop_resource_0", "type": "DT_FLOAT"}, {"name": "sequential_8_conv_lstm1d_32_while_split_1_readvariableop_resource_0", "type": "DT_FLOAT"}, {"name": "sequential_8_conv_lstm1d_32_while_split_2_readvariableop_resource_0", "type": "DT_FLOAT"}], "outputArg": [{"name": "sequential_8_conv_lstm1d_32_while_identity", "type": "DT_INT32"}, {"name": "sequential_8_conv_lstm1d_32_while_identity_1", "type": "DT_INT32"}, {"name": "sequential_8_conv_lstm1d_32_while_identity_2", "type": "DT_INT32"}, {"name": "sequential_8_conv_lstm1d_32_while_identity_3", "type": "DT_VARIANT"}, {"name": "sequential_8_conv_lstm1d_32_while_identity_4", "type": "DT_FLOAT"}, {"name": "sequential_8_conv_lstm1d_32_while_identity_5", "type": "DT_FLOAT"}, {"name": "sequential_8_conv_lstm1d_32_while_sequential_8_conv_lstm1d_32_strided_slice", "type": "DT_INT32"}, {"name": "sequential_8_conv_lstm1d_32_while_tensorarrayv2read_tensorlistgetitem_sequential_8_conv_lstm1d_32_tensorarrayunstack_tensorlistfromtensor", "type": "DT_VARIANT"}, {"name": "sequential_8_conv_lstm1d_32_while_split_readvariableop_resource", "type": "DT_FLOAT"}, {"name": "sequential_8_conv_lstm1d_32_while_split_1_readvariableop_resource", "type": "DT_FLOAT"}, {"name": "sequential_8_conv_lstm1d_32_while_split_2_readvariableop_resource", "type": "DT_FLOAT"}], "isStateful": true, "controlOutput": ["sequential_8/conv_lstm1d_32/while/split/ReadVariableOp", "sequential_8/conv_lstm1d_32/while/split_1/ReadVariableOp", "sequential_8/conv_lstm1d_32/while/split_2/ReadVariableOp"]}, "nodeDef": [{"name": "__inference_sequential_8_conv_lstm1d_32_while_body_1641_frozen_36116/sequential_8/conv_lstm1d_32/while/add_8/y", "op": "Const", "attr": {"dtype": {"type": "DT_INT32"}, "value": {"tensor": {"dtype": "DT_INT32", "tensorShape": {}}}}}, {"name": "__inference_sequential_8_conv_lstm1d_32_while_body_1641_frozen_36116/sequential_8/conv_lstm1d_32/while/convolution_3/ExpandDims/dim", "op": "Const", "attr": {"value": {"tensor": {"dtype": "DT_INT32", "tensorShape": {}}}, "dtype": {"type": "DT_INT32"}}}, {"name": "__inference_sequential_8_conv_lstm1d_32_while_body_1641_frozen_36116/sequential_8/conv_lstm1d_32/while/convolution_3/ExpandDims_1/dim", "op": "Const", "attr": {"value": {"tensor": {"dtype": "DT_INT32", "tensorShape": {}}}, "dtype": {"type": "DT_INT32"}}}, {"name": "__inference_sequential_8_conv_lstm1d_32_while_body_1641_frozen_36116/sequential_8/conv_lstm1d_32/while/convolution_7/ExpandDims/dim", "op": "Const", "attr": {"dtype": {"type": "DT_INT32"}, "value": {"tensor": {"dtype": "DT_INT32", "tensorShape": {}}}}}, {"name": "__inference_sequential_8_conv_lstm1d_32_while_body_1641_frozen_36116/sequential_8/conv_lstm1d_32/while/convolution_7/ExpandDims_1/dim", "op": "Const", "attr": {"value": {"tensor": {"dtype": "DT_INT32", "tensorShape": {}}}, "dtype": {"type": "DT_INT32"}}}, {"name": "__inference_sequential_8_conv_lstm1d_32_while_body_1641_frozen_36116/sequential_8/conv_lstm1d_32/while/Const_4", "op": "Const", "attr": {"value": {"tensor": {"dtype": "DT_FLOAT", "tensorShape": {}}}, "dtype": {"type": "DT_FLOAT"}}}, {"name": "__inference_sequential_8_conv_lstm1d_32_while_body_1641_frozen_36116/sequential_8/conv_lstm1d_32/while/Const_5", "op": "Const", "attr": {"value": {"tensor": {"dtype": "DT_FLOAT", "tensorShape": {}}}, "dtype": {"type": "DT_FLOAT"}}}, {"name": "__inference_sequential_8_conv_lstm1d_32_while_body_1641_frozen_36116/sequential_8/conv_lstm1d_32/while/clip_by_value_2/Minimum/y", "op": "Const", "attr": {"dtype": {"type": "DT_FLOAT"}, "value": {"tensor": {"dtype": "DT_FLOAT", "tensorShape": {}}}}}, {"name": "__inference_sequential_8_conv_lstm1d_32_while_body_1641_frozen_36116/sequential_8/conv_lstm1d_32/while/clip_by_value_2/y", "op": "Const", "attr": {"dtype": {"type": "DT_FLOAT"}, "value": {"tensor": {"dtype": "DT_FLOAT", "tensorShape": {}}}}}, {"name": "__inference_sequential_8_conv_lstm1d_32_while_body_1641_frozen_36116/sequential_8/conv_lstm1d_32/while/convolution_1/ExpandDims/dim", "op": "Const", "attr": {"value": {"tensor": {"dtype": "DT_INT32", "tensorShape": {}}}, "dtype": {"type": "DT_INT32"}}}, {"name": "__inference_sequential_8_conv_lstm1d_32_while_body_1641_frozen_36116/sequential_8/conv_lstm1d_32/while/convolution_1/ExpandDims_1/dim", "op": "Const", "attr": {"value": {"tensor": {"dtype": "DT_INT32", "tensorShape": {}}}, "dtype": {"type": "DT_INT32"}}}, {"name": "__inference_sequential_8_conv_lstm1d_32_while_body_1641_frozen_36116/sequential_8/conv_lstm1d_32/while/convolution_5/ExpandDims/dim", "op": "Const", "attr": {"value": {"tensor": {"dtype": "DT_INT32", "tensorShape": {}}}, "dtype": {"type": "DT_INT32"}}}, {"name": "__inference_sequential_8_conv_lstm1d_32_while_body_1641_frozen_36116/sequential_8/conv_lstm1d_32/while/convolution_5/ExpandDims_1/dim", "op": "Const", "attr": {"value": {"tensor": {"dtype": "DT_INT32", "tensorShape": {}}}, "dtype": {"type": "DT_INT32"}}}, {"name": "__inference_sequential_8_conv_lstm1d_32_while_body_1641_frozen_36116/sequential_8/conv_lstm1d_32/while/Const_2", "op": "Const", "attr": {"dtype": {"type": "DT_FLOAT"}, "value": {"tensor": {"dtype": "DT_FLOAT", "tensorShape": {}}}}}, {"name": "__inference_sequential_8_conv_lstm1d_32_while_body_1641_frozen_36116/sequential_8/conv_lstm1d_32/while/Const_3", "op": "Const", "attr": {"dtype": {"type": "DT_FLOAT"}, "value": {"tensor": {"dtype": "DT_FLOAT", "tensorShape": {}}}}}, {"name": "__inference_sequential_8_conv_lstm1d_32_while_body_1641_frozen_36116/sequential_8/conv_lstm1d_32/while/clip_by_value_1/Minimum/y", "op": "Const", "attr": {"value": {"tensor": {"dtype": "DT_FLOAT", "tensorShape": {}}}, "dtype": {"type": "DT_FLOAT"}}}, {"name": "__inference_sequential_8_conv_lstm1d_32_while_body_1641_frozen_36116/sequential_8/conv_lstm1d_32/while/clip_by_value_1/y", "op": "Const", "attr": {"value": {"tensor": {"dtype": "DT_FLOAT", "tensorShape": {}}}, "dtype": {"type": "DT_FLOAT"}}}, {"name": "__inference_sequential_8_conv_lstm1d_32_while_body_1641_frozen_36116/sequential_8/conv_lstm1d_32/while/convolution/ExpandDims/dim", "op": "Const", "attr": {"value": {"tensor": {"dtype": "DT_INT32", "tensorShape": {}}}, "dtype": {"type": "DT_INT32"}}}, {"name": "__inference_sequential_8_conv_lstm1d_32_while_body_1641_frozen_36116/sequential_8/conv_lstm1d_32/while/convolution/ExpandDims_1/dim", "op": "Const", "attr": {"value": {"tensor": {"dtype": "DT_INT32", "tensorShape": {}}}, "dtype": {"type": "DT_INT32"}}}, {"name": "__inference_sequential_8_conv_lstm1d_32_while_body_1641_frozen_36116/sequential_8/conv_lstm1d_32/while/convolution_4/ExpandDims/dim", "op": "Const", "attr": {"dtype": {"type": "DT_INT32"}, "value": {"tensor": {"dtype": "DT_INT32", "tensorShape": {}}}}}, {"name": "__inference_sequential_8_conv_lstm1d_32_while_body_1641_frozen_36116/sequential_8/conv_lstm1d_32/while/convolution_4/ExpandDims_1/dim", "op": "Const", "attr": {"value": {"tensor": {"dtype": "DT_INT32", "tensorShape": {}}}, "dtype": {"type": "DT_INT32"}}}, {"name": "__inference_sequential_8_conv_lstm1d_32_while_body_1641_frozen_36116/sequential_8/conv_lstm1d_32/while/Const", "op": "Const", "attr": {"value": {"tensor": {"dtype": "DT_FLOAT", "tensorShape": {}}}, "dtype": {"type": "DT_FLOAT"}}}, {"name": "__inference_sequential_8_conv_lstm1d_32_while_body_1641_frozen_36116/sequential_8/conv_lstm1d_32/while/Const_1", "op": "Const", "attr": {"value": {"tensor": {"dtype": "DT_FLOAT", "tensorShape": {}}}, "dtype": {"type": "DT_FLOAT"}}}, {"name": "__inference_sequential_8_conv_lstm1d_32_while_body_1641_frozen_36116/sequential_8/conv_lstm1d_32/while/clip_by_value/Minimum/y", "op": "Const", "attr": {"value": {"tensor": {"dtype": "DT_FLOAT", "tensorShape": {}}}, "dtype": {"type": "DT_FLOAT"}}}, {"name": "__inference_sequential_8_conv_lstm1d_32_while_body_1641_frozen_36116/sequential_8/conv_lstm1d_32/while/clip_by_value/y", "op": "Const", "attr": {"value": {"tensor": {"dtype": "DT_FLOAT", "tensorShape": {}}}, "dtype": {"type": "DT_FLOAT"}}}, {"name": "__inference_sequential_8_conv_lstm1d_32_while_body_1641_frozen_36116/sequential_8/conv_lstm1d_32/while/TensorArrayV2Read/TensorListGetItem/element_shape", "op": "Const", "attr": {"value": {"tensor": {"dtype": "DT_INT32", "tensorShape": {"dim": [{"size": "3"}]}}}, "dtype": {"type": "DT_INT32"}}}, {"name": "__inference_sequential_8_conv_lstm1d_32_while_body_1641_frozen_36116/sequential_8/conv_lstm1d_32/while/convolution_2/ExpandDims/dim", "op": "Const", "attr": {"value": {"tensor": {"dtype": "DT_INT32", "tensorShape": {}}}, "dtype": {"type": "DT_INT32"}}}, {"name": "__inference_sequential_8_conv_lstm1d_32_while_body_1641_frozen_36116/sequential_8/conv_lstm1d_32/while/split/split_dim", "op": "Const", "attr": {"value": {"tensor": {"dtype": "DT_INT32", "tensorShape": {}}}, "dtype": {"type": "DT_INT32"}}}, {"name": "__inference_sequential_8_conv_lstm1d_32_while_body_1641_frozen_36116/sequential_8/conv_lstm1d_32/while/convolution_2/ExpandDims_1/dim", "op": "Const", "attr": {"value": {"tensor": {"dtype": "DT_INT32", "tensorShape": {}}}, "dtype": {"type": "DT_INT32"}}}, {"name": "__inference_sequential_8_conv_lstm1d_32_while_body_1641_frozen_36116/sequential_8/conv_lstm1d_32/while/split_2/split_dim", "op": "Const", "attr": {"dtype": {"type": "DT_INT32"}, "value": {"tensor": {"dtype": "DT_INT32", "tensorShape": {}}}}}, {"name": "__inference_sequential_8_conv_lstm1d_32_while_body_1641_frozen_36116/sequential_8/conv_lstm1d_32/while/ones_like/Const", "op": "Const", "attr": {"dtype": {"type": "DT_FLOAT"}, "value": {"tensor": {"dtype": "DT_FLOAT", "tensorShape": {}}}}}, {"name": "__inference_sequential_8_conv_lstm1d_32_while_body_1641_frozen_36116/sequential_8/conv_lstm1d_32/while/convolution_6/ExpandDims/dim", "op": "Const", "attr": {"value": {"tensor": {"dtype": "DT_INT32", "tensorShape": {}}}, "dtype": {"type": "DT_INT32"}}}, {"name": "__inference_sequential_8_conv_lstm1d_32_while_body_1641_frozen_36116/sequential_8/conv_lstm1d_32/while/split_1/split_dim", "op": "Const", "attr": {"dtype": {"type": "DT_INT32"}, "value": {"tensor": {"dtype": "DT_INT32", "tensorShape": {}}}}}, {"name": "__inference_sequential_8_conv_lstm1d_32_while_body_1641_frozen_36116/sequential_8/conv_lstm1d_32/while/convolution_6/ExpandDims_1/dim", "op": "Const", "attr": {"dtype": {"type": "DT_INT32"}, "value": {"tensor": {"dtype": "DT_INT32", "tensorShape": {}}}}}, {"name": "__inference_sequential_8_conv_lstm1d_32_while_body_1641_frozen_36116/sequential_8/conv_lstm1d_32/while/add_9/y", "op": "Const", "attr": {"dtype": {"type": "DT_INT32"}, "value": {"tensor": {"dtype": "DT_INT32", "tensorShape": {}}}}}, {"name": "sequential_8/conv_lstm1d_32/while/ones_like/Shape", "op": "Shape", "input": ["sequential_8_conv_lstm1d_32_while_placeholder_2"], "attr": {"out_type": {"type": "DT_INT32"}, "T": {"type": "DT_FLOAT"}}}, {"name": "sequential_8/conv_lstm1d_32/while/split/ReadVariableOp", "op": "Identity", "input": ["sequential_8_conv_lstm1d_32_while_split_readvariableop_resource_0"], "attr": {"T": {"type": "DT_FLOAT"}}}, {"name": "sequential_8/conv_lstm1d_32/while/split_1/ReadVariableOp", "op": "Identity", "input": ["sequential_8_conv_lstm1d_32_while_split_1_readvariableop_resource_0"], "attr": {"T": {"type": "DT_FLOAT"}}}, {"name": "sequential_8/conv_lstm1d_32/while/split_2/ReadVariableOp", "op": "Identity", "input": ["sequential_8_conv_lstm1d_32_while_split_2_readvariableop_resource_0"], "attr": {"T": {"type": "DT_FLOAT"}}}, {"name": "sequential_8/conv_lstm1d_32/while/add_8", "op": "AddV2", "input": ["sequential_8_conv_lstm1d_32_while_placeholder", "__inference_sequential_8_conv_lstm1d_32_while_body_1641_frozen_36116/sequential_8/conv_lstm1d_32/while/add_8/y:output:0"], "attr": {"T": {"type": "DT_INT32"}}}, {"name": "sequential_8/conv_lstm1d_32/while/TensorArrayV2Read/TensorListGetItem", "op": "TensorListGetItem", "input": ["sequential_8_conv_lstm1d_32_while_tensorarrayv2read_tensorlistgetitem_sequential_8_conv_lstm1d_32_tensorarrayunstack_tensorlistfromtensor_0", "sequential_8_conv_lstm1d_32_while_placeholder", "__inference_sequential_8_conv_lstm1d_32_while_body_1641_frozen_36116/sequential_8/conv_lstm1d_32/while/TensorArrayV2Read/TensorListGetItem/element_shape:output:0"], "attr": {"element_dtype": {"type": "DT_FLOAT"}}}, {"name": "sequential_8/conv_lstm1d_32/while/add_9", "op": "AddV2", "input": ["sequential_8_conv_lstm1d_32_while_sequential_8_conv_lstm1d_32_while_loop_counter", "__inference_sequential_8_conv_lstm1d_32_while_body_1641_frozen_36116/sequential_8/conv_lstm1d_32/while/add_9/y:output:0"], "attr": {"T": {"type": "DT_INT32"}}}, {"name": "sequential_8/conv_lstm1d_32/while/ones_like", "op": "Fill", "input": ["sequential_8/conv_lstm1d_32/while/ones_like/Shape:output:0", "__inference_sequential_8_conv_lstm1d_32_while_body_1641_frozen_36116/sequential_8/conv_lstm1d_32/while/ones_like/Const:output:0"], "attr": {"index_type": {"type": "DT_INT32"}, "T": {"type": "DT_FLOAT"}}}, {"name": "sequential_8/conv_lstm1d_32/while/split", "op": "Split", "input": ["__inference_sequential_8_conv_lstm1d_32_while_body_1641_frozen_36116/sequential_8/conv_lstm1d_32/while/split/split_dim:output:0", "sequential_8/conv_lstm1d_32/while/split/ReadVariableOp:output:0"], "attr": {"T": {"type": "DT_FLOAT"}, "num_split": {"i": "4"}}}, {"name": "sequential_8/conv_lstm1d_32/while/split_1", "op": "Split", "input": ["__inference_sequential_8_conv_lstm1d_32_while_body_1641_frozen_36116/sequential_8/conv_lstm1d_32/while/split_1/split_dim:output:0", "sequential_8/conv_lstm1d_32/while/split_1/ReadVariableOp:output:0"], "attr": {"T": {"type": "DT_FLOAT"}, "num_split": {"i": "4"}}}, {"name": "sequential_8/conv_lstm1d_32/while/NoOp", "op": "NoOp", "input": ["^sequential_8/conv_lstm1d_32/while/split/ReadVariableOp", "^sequential_8/conv_lstm1d_32/while/split_1/ReadVariableOp", "^sequential_8/conv_lstm1d_32/while/split_2/ReadVariableOp"], "attr": {"_acd_function_control_output": {"b": true}}}, {"name": "sequential_8/conv_lstm1d_32/while/split_2", "op": "Split", "input": ["__inference_sequential_8_conv_lstm1d_32_while_body_1641_frozen_36116/sequential_8/conv_lstm1d_32/while/split_2/split_dim:output:0", "sequential_8/conv_lstm1d_32/while/split_2/ReadVariableOp:output:0"], "attr": {"num_split": {"i": "4"}, "T": {"type": "DT_FLOAT"}}}, {"name": "sequential_8/conv_lstm1d_32/while/convolution_3/ExpandDims", "op": "ExpandDims", "input": ["sequential_8/conv_lstm1d_32/while/TensorArrayV2Read/TensorListGetItem:item:0", "__inference_sequential_8_conv_lstm1d_32_while_body_1641_frozen_36116/sequential_8/conv_lstm1d_32/while/convolution_3/ExpandDims/dim:output:0"], "attr": {"T": {"type": "DT_FLOAT"}, "Tdim": {"type": "DT_INT32"}}}, {"name": "sequential_8/conv_lstm1d_32/while/convolution_1/ExpandDims", "op": "ExpandDims", "input": ["sequential_8/conv_lstm1d_32/while/TensorArrayV2Read/TensorListGetItem:item:0", "__inference_sequential_8_conv_lstm1d_32_while_body_1641_frozen_36116/sequential_8/conv_lstm1d_32/while/convolution_1/ExpandDims/dim:output:0"], "attr": {"T": {"type": "DT_FLOAT"}, "Tdim": {"type": "DT_INT32"}}}, {"name": "sequential_8/conv_lstm1d_32/while/convolution/ExpandDims", "op": "ExpandDims", "input": ["sequential_8/conv_lstm1d_32/while/TensorArrayV2Read/TensorListGetItem:item:0", "__inference_sequential_8_conv_lstm1d_32_while_body_1641_frozen_36116/sequential_8/conv_lstm1d_32/while/convolution/ExpandDims/dim:output:0"], "attr": {"T": {"type": "DT_FLOAT"}, "Tdim": {"type": "DT_INT32"}}}, {"name": "sequential_8/conv_lstm1d_32/while/convolution_2/ExpandDims", "op": "ExpandDims", "input": ["sequential_8/conv_lstm1d_32/while/TensorArrayV2Read/TensorListGetItem:item:0", "__inference_sequential_8_conv_lstm1d_32_while_body_1641_frozen_36116/sequential_8/conv_lstm1d_32/while/convolution_2/ExpandDims/dim:output:0"], "attr": {"T": {"type": "DT_FLOAT"}, "Tdim": {"type": "DT_INT32"}}}, {"name": "sequential_8/conv_lstm1d_32/while/mul_3", "op": "Mul", "input": ["sequential_8_conv_lstm1d_32_while_placeholder_2", "sequential_8/conv_lstm1d_32/while/ones_like:output:0"], "attr": {"T": {"type": "DT_FLOAT"}}}, {"name": "sequential_8/conv_lstm1d_32/while/mul_1", "op": "Mul", "input": ["sequential_8_conv_lstm1d_32_while_placeholder_2", "sequential_8/conv_lstm1d_32/while/ones_like:output:0"], "attr": {"T": {"type": "DT_FLOAT"}}}, {"name": "sequential_8/conv_lstm1d_32/while/mul", "op": "Mul", "input": ["sequential_8_conv_lstm1d_32_while_placeholder_2", "sequential_8/conv_lstm1d_32/while/ones_like:output:0"], "attr": {"T": {"type": "DT_FLOAT"}}}, {"name": "sequential_8/conv_lstm1d_32/while/mul_2", "op": "Mul", "input": ["sequential_8_conv_lstm1d_32_while_placeholder_2", "sequential_8/conv_lstm1d_32/while/ones_like:output:0"], "attr": {"T": {"type": "DT_FLOAT"}}}, {"name": "sequential_8/conv_lstm1d_32/while/convolution/ExpandDims_1", "op": "ExpandDims", "input": ["sequential_8/conv_lstm1d_32/while/split:output:0", "__inference_sequential_8_conv_lstm1d_32_while_body_1641_frozen_36116/sequential_8/conv_lstm1d_32/while/convolution/ExpandDims_1/dim:output:0"], "attr": {"T": {"type": "DT_FLOAT"}, "Tdim": {"type": "DT_INT32"}}}, {"name": "sequential_8/conv_lstm1d_32/while/convolution_1/ExpandDims_1", "op": "ExpandDims", "input": ["sequential_8/conv_lstm1d_32/while/split:output:1", "__inference_sequential_8_conv_lstm1d_32_while_body_1641_frozen_36116/sequential_8/conv_lstm1d_32/while/convolution_1/ExpandDims_1/dim:output:0"], "attr": {"Tdim": {"type": "DT_INT32"}, "T": {"type": "DT_FLOAT"}}}, {"name": "sequential_8/conv_lstm1d_32/while/convolution_3/ExpandDims_1", "op": "ExpandDims", "input": ["sequential_8/conv_lstm1d_32/while/split:output:3", "__inference_sequential_8_conv_lstm1d_32_while_body_1641_frozen_36116/sequential_8/conv_lstm1d_32/while/convolution_3/ExpandDims_1/dim:output:0"], "attr": {"Tdim": {"type": "DT_INT32"}, "T": {"type": "DT_FLOAT"}}}, {"name": "sequential_8/conv_lstm1d_32/while/convolution_2/ExpandDims_1", "op": "ExpandDims", "input": ["sequential_8/conv_lstm1d_32/while/split:output:2", "__inference_sequential_8_conv_lstm1d_32_while_body_1641_frozen_36116/sequential_8/conv_lstm1d_32/while/convolution_2/ExpandDims_1/dim:output:0"], "attr": {"Tdim": {"type": "DT_INT32"}, "T": {"type": "DT_FLOAT"}}}, {"name": "sequential_8/conv_lstm1d_32/while/convolution_4/ExpandDims_1", "op": "ExpandDims", "input": ["sequential_8/conv_lstm1d_32/while/split_1:output:0", "__inference_sequential_8_conv_lstm1d_32_while_body_1641_frozen_36116/sequential_8/conv_lstm1d_32/while/convolution_4/ExpandDims_1/dim:output:0"], "attr": {"Tdim": {"type": "DT_INT32"}, "T": {"type": "DT_FLOAT"}}}, {"name": "sequential_8/conv_lstm1d_32/while/convolution_5/ExpandDims_1", "op": "ExpandDims", "input": ["sequential_8/conv_lstm1d_32/while/split_1:output:1", "__inference_sequential_8_conv_lstm1d_32_while_body_1641_frozen_36116/sequential_8/conv_lstm1d_32/while/convolution_5/ExpandDims_1/dim:output:0"], "attr": {"T": {"type": "DT_FLOAT"}, "Tdim": {"type": "DT_INT32"}}}, {"name": "sequential_8/conv_lstm1d_32/while/convolution_7/ExpandDims_1", "op": "ExpandDims", "input": ["sequential_8/conv_lstm1d_32/while/split_1:output:3", "__inference_sequential_8_conv_lstm1d_32_while_body_1641_frozen_36116/sequential_8/conv_lstm1d_32/while/convolution_7/ExpandDims_1/dim:output:0"], "attr": {"T": {"type": "DT_FLOAT"}, "Tdim": {"type": "DT_INT32"}}}, {"name": "sequential_8/conv_lstm1d_32/while/convolution_6/ExpandDims_1", "op": "ExpandDims", "input": ["sequential_8/conv_lstm1d_32/while/split_1:output:2", "__inference_sequential_8_conv_lstm1d_32_while_body_1641_frozen_36116/sequential_8/conv_lstm1d_32/while/convolution_6/ExpandDims_1/dim:output:0"], "attr": {"Tdim": {"type": "DT_INT32"}, "T": {"type": "DT_FLOAT"}}}, {"name": "sequential_8/conv_lstm1d_32/while/Identity_1", "op": "Identity", "input": ["sequential_8_conv_lstm1d_32_while_sequential_8_conv_lstm1d_32_while_maximum_iterations", "^sequential_8/conv_lstm1d_32/while/NoOp"], "attr": {"T": {"type": "DT_INT32"}}}, {"name": "sequential_8/conv_lstm1d_32/while/Identity_2", "op": "Identity", "input": ["sequential_8/conv_lstm1d_32/while/add_8:z:0", "^sequential_8/conv_lstm1d_32/while/NoOp"], "attr": {"T": {"type": "DT_INT32"}}}, {"name": "sequential_8/conv_lstm1d_32/while/Identity", "op": "Identity", "input": ["sequential_8/conv_lstm1d_32/while/add_9:z:0", "^sequential_8/conv_lstm1d_32/while/NoOp"], "attr": {"T": {"type": "DT_INT32"}}}, {"name": "sequential_8/conv_lstm1d_32/while/convolution_7/ExpandDims", "op": "ExpandDims", "input": ["sequential_8/conv_lstm1d_32/while/mul_3:z:0", "__inference_sequential_8_conv_lstm1d_32_while_body_1641_frozen_36116/sequential_8/conv_lstm1d_32/while/convolution_7/ExpandDims/dim:output:0"], "attr": {"Tdim": {"type": "DT_INT32"}, "T": {"type": "DT_FLOAT"}}}, {"name": "sequential_8/conv_lstm1d_32/while/convolution_5/ExpandDims", "op": "ExpandDims", "input": ["sequential_8/conv_lstm1d_32/while/mul_1:z:0", "__inference_sequential_8_conv_lstm1d_32_while_body_1641_frozen_36116/sequential_8/conv_lstm1d_32/while/convolution_5/ExpandDims/dim:output:0"], "attr": {"T": {"type": "DT_FLOAT"}, "Tdim": {"type": "DT_INT32"}}}, {"name": "sequential_8/conv_lstm1d_32/while/convolution_4/ExpandDims", "op": "ExpandDims", "input": ["sequential_8/conv_lstm1d_32/while/mul:z:0", "__inference_sequential_8_conv_lstm1d_32_while_body_1641_frozen_36116/sequential_8/conv_lstm1d_32/while/convolution_4/ExpandDims/dim:output:0"], "attr": {"T": {"type": "DT_FLOAT"}, "Tdim": {"type": "DT_INT32"}}}, {"name": "sequential_8/conv_lstm1d_32/while/convolution_6/ExpandDims", "op": "ExpandDims", "input": ["sequential_8/conv_lstm1d_32/while/mul_2:z:0", "__inference_sequential_8_conv_lstm1d_32_while_body_1641_frozen_36116/sequential_8/conv_lstm1d_32/while/convolution_6/ExpandDims/dim:output:0"], "attr": {"Tdim": {"type": "DT_INT32"}, "T": {"type": "DT_FLOAT"}}}, {"name": "sequential_8/conv_lstm1d_32/while/convolution", "op": "Conv2D", "input": ["sequential_8/conv_lstm1d_32/while/convolution/ExpandDims:output:0", "sequential_8/conv_lstm1d_32/while/convolution/ExpandDims_1:output:0"], "attr": {"padding": {"s": "VkFMSUQ="}, "dilations": {"list": {"i": ["1", "1", "1", "1"]}}, "T": {"type": "DT_FLOAT"}, "explicit_paddings": {"list": {}}, "data_format": {"s": "TkhXQw=="}, "use_cudnn_on_gpu": {"b": true}, "strides": {"list": {"i": ["1", "1", "1", "1"]}}}}, {"name": "sequential_8/conv_lstm1d_32/while/convolution_1", "op": "Conv2D", "input": ["sequential_8/conv_lstm1d_32/while/convolution_1/ExpandDims:output:0", "sequential_8/conv_lstm1d_32/while/convolution_1/ExpandDims_1:output:0"], "attr": {"padding": {"s": "VkFMSUQ="}, "strides": {"list": {"i": ["1", "1", "1", "1"]}}, "use_cudnn_on_gpu": {"b": true}, "data_format": {"s": "TkhXQw=="}, "T": {"type": "DT_FLOAT"}, "explicit_paddings": {"list": {}}, "dilations": {"list": {"i": ["1", "1", "1", "1"]}}}}, {"name": "sequential_8/conv_lstm1d_32/while/convolution_3", "op": "Conv2D", "input": ["sequential_8/conv_lstm1d_32/while/convolution_3/ExpandDims:output:0", "sequential_8/conv_lstm1d_32/while/convolution_3/ExpandDims_1:output:0"], "attr": {"explicit_paddings": {"list": {}}, "use_cudnn_on_gpu": {"b": true}, "T": {"type": "DT_FLOAT"}, "data_format": {"s": "TkhXQw=="}, "dilations": {"list": {"i": ["1", "1", "1", "1"]}}, "padding": {"s": "VkFMSUQ="}, "strides": {"list": {"i": ["1", "1", "1", "1"]}}}}, {"name": "sequential_8/conv_lstm1d_32/while/convolution_2", "op": "Conv2D", "input": ["sequential_8/conv_lstm1d_32/while/convolution_2/ExpandDims:output:0", "sequential_8/conv_lstm1d_32/while/convolution_2/ExpandDims_1:output:0"], "attr": {"strides": {"list": {"i": ["1", "1", "1", "1"]}}, "use_cudnn_on_gpu": {"b": true}, "data_format": {"s": "TkhXQw=="}, "dilations": {"list": {"i": ["1", "1", "1", "1"]}}, "explicit_paddings": {"list": {}}, "padding": {"s": "VkFMSUQ="}, "T": {"type": "DT_FLOAT"}}}, {"name": "sequential_8/conv_lstm1d_32/while/convolution_7", "op": "Conv2D", "input": ["sequential_8/conv_lstm1d_32/while/convolution_7/ExpandDims:output:0", "sequential_8/conv_lstm1d_32/while/convolution_7/ExpandDims_1:output:0"], "attr": {"strides": {"list": {"i": ["1", "1", "1", "1"]}}, "dilations": {"list": {"i": ["1", "1", "1", "1"]}}, "data_format": {"s": "TkhXQw=="}, "T": {"type": "DT_FLOAT"}, "use_cudnn_on_gpu": {"b": true}, "explicit_paddings": {"list": {}}, "padding": {"s": "U0FNRQ=="}}}, {"name": "sequential_8/conv_lstm1d_32/while/convolution_5", "op": "Conv2D", "input": ["sequential_8/conv_lstm1d_32/while/convolution_5/ExpandDims:output:0", "sequential_8/conv_lstm1d_32/while/convolution_5/ExpandDims_1:output:0"], "attr": {"use_cudnn_on_gpu": {"b": true}, "T": {"type": "DT_FLOAT"}, "explicit_paddings": {"list": {}}, "data_format": {"s": "TkhXQw=="}, "strides": {"list": {"i": ["1", "1", "1", "1"]}}, "padding": {"s": "U0FNRQ=="}, "dilations": {"list": {"i": ["1", "1", "1", "1"]}}}}, {"name": "sequential_8/conv_lstm1d_32/while/convolution_4", "op": "Conv2D", "input": ["sequential_8/conv_lstm1d_32/while/convolution_4/ExpandDims:output:0", "sequential_8/conv_lstm1d_32/while/convolution_4/ExpandDims_1:output:0"], "attr": {"explicit_paddings": {"list": {}}, "padding": {"s": "U0FNRQ=="}, "dilations": {"list": {"i": ["1", "1", "1", "1"]}}, "data_format": {"s": "TkhXQw=="}, "use_cudnn_on_gpu": {"b": true}, "T": {"type": "DT_FLOAT"}, "strides": {"list": {"i": ["1", "1", "1", "1"]}}}}, {"name": "sequential_8/conv_lstm1d_32/while/convolution_6", "op": "Conv2D", "input": ["sequential_8/conv_lstm1d_32/while/convolution_6/ExpandDims:output:0", "sequential_8/conv_lstm1d_32/while/convolution_6/ExpandDims_1:output:0"], "attr": {"T": {"type": "DT_FLOAT"}, "use_cudnn_on_gpu": {"b": true}, "strides": {"list": {"i": ["1", "1", "1", "1"]}}, "explicit_paddings": {"list": {}}, "data_format": {"s": "TkhXQw=="}, "padding": {"s": "U0FNRQ=="}, "dilations": {"list": {"i": ["1", "1", "1", "1"]}}}}, {"name": "sequential_8/conv_lstm1d_32/while/convolution/Squeeze", "op": "Squeeze", "input": ["sequential_8/conv_lstm1d_32/while/convolution:output:0"], "attr": {"squeeze_dims": {"list": {"i": ["-3"]}}, "T": {"type": "DT_FLOAT"}}}, {"name": "sequential_8/conv_lstm1d_32/while/convolution_1/Squeeze", "op": "Squeeze", "input": ["sequential_8/conv_lstm1d_32/while/convolution_1:output:0"], "attr": {"squeeze_dims": {"list": {"i": ["-3"]}}, "T": {"type": "DT_FLOAT"}}}, {"name": "sequential_8/conv_lstm1d_32/while/convolution_3/Squeeze", "op": "Squeeze", "input": ["sequential_8/conv_lstm1d_32/while/convolution_3:output:0"], "attr": {"squeeze_dims": {"list": {"i": ["-3"]}}, "T": {"type": "DT_FLOAT"}}}, {"name": "sequential_8/conv_lstm1d_32/while/convolution_2/Squeeze", "op": "Squeeze", "input": ["sequential_8/conv_lstm1d_32/while/convolution_2:output:0"], "attr": {"squeeze_dims": {"list": {"i": ["-3"]}}, "T": {"type": "DT_FLOAT"}}}, {"name": "sequential_8/conv_lstm1d_32/while/convolution_7/Squeeze", "op": "Squeeze", "input": ["sequential_8/conv_lstm1d_32/while/convolution_7:output:0"], "attr": {"squeeze_dims": {"list": {"i": ["-3"]}}, "T": {"type": "DT_FLOAT"}}}, {"name": "sequential_8/conv_lstm1d_32/while/convolution_5/Squeeze", "op": "Squeeze", "input": ["sequential_8/conv_lstm1d_32/while/convolution_5:output:0"], "attr": {"squeeze_dims": {"list": {"i": ["-3"]}}, "T": {"type": "DT_FLOAT"}}}, {"name": "sequential_8/conv_lstm1d_32/while/convolution_4/Squeeze", "op": "Squeeze", "input": ["sequential_8/conv_lstm1d_32/while/convolution_4:output:0"], "attr": {"T": {"type": "DT_FLOAT"}, "squeeze_dims": {"list": {"i": ["-3"]}}}}, {"name": "sequential_8/conv_lstm1d_32/while/convolution_6/Squeeze", "op": "Squeeze", "input": ["sequential_8/conv_lstm1d_32/while/convolution_6:output:0"], "attr": {"squeeze_dims": {"list": {"i": ["-3"]}}, "T": {"type": "DT_FLOAT"}}}, {"name": "sequential_8/conv_lstm1d_32/while/BiasAdd", "op": "BiasAdd", "input": ["sequential_8/conv_lstm1d_32/while/convolution/Squeeze:output:0", "sequential_8/conv_lstm1d_32/while/split_2:output:0"], "attr": {"data_format": {"s": "TkhXQw=="}, "T": {"type": "DT_FLOAT"}}}, {"name": "sequential_8/conv_lstm1d_32/while/BiasAdd_1", "op": "BiasAdd", "input": ["sequential_8/conv_lstm1d_32/while/convolution_1/Squeeze:output:0", "sequential_8/conv_lstm1d_32/while/split_2:output:1"], "attr": {"data_format": {"s": "TkhXQw=="}, "T": {"type": "DT_FLOAT"}}}, {"name": "sequential_8/conv_lstm1d_32/while/BiasAdd_3", "op": "BiasAdd", "input": ["sequential_8/conv_lstm1d_32/while/convolution_3/Squeeze:output:0", "sequential_8/conv_lstm1d_32/while/split_2:output:3"], "attr": {"T": {"type": "DT_FLOAT"}, "data_format": {"s": "TkhXQw=="}}}, {"name": "sequential_8/conv_lstm1d_32/while/BiasAdd_2", "op": "BiasAdd", "input": ["sequential_8/conv_lstm1d_32/while/convolution_2/Squeeze:output:0", "sequential_8/conv_lstm1d_32/while/split_2:output:2"], "attr": {"data_format": {"s": "TkhXQw=="}, "T": {"type": "DT_FLOAT"}}}, {"name": "sequential_8/conv_lstm1d_32/while/add", "op": "AddV2", "input": ["sequential_8/conv_lstm1d_32/while/BiasAdd:output:0", "sequential_8/conv_lstm1d_32/while/convolution_4/Squeeze:output:0"], "attr": {"T": {"type": "DT_FLOAT"}}}, {"name": "sequential_8/conv_lstm1d_32/while/add_2", "op": "AddV2", "input": ["sequential_8/conv_lstm1d_32/while/BiasAdd_1:output:0", "sequential_8/conv_lstm1d_32/while/convolution_5/Squeeze:output:0"], "attr": {"T": {"type": "DT_FLOAT"}}}, {"name": "sequential_8/conv_lstm1d_32/while/add_6", "op": "AddV2", "input": ["sequential_8/conv_lstm1d_32/while/BiasAdd_3:output:0", "sequential_8/conv_lstm1d_32/while/convolution_7/Squeeze:output:0"], "attr": {"T": {"type": "DT_FLOAT"}}}, {"name": "sequential_8/conv_lstm1d_32/while/add_4", "op": "AddV2", "input": ["sequential_8/conv_lstm1d_32/while/BiasAdd_2:output:0", "sequential_8/conv_lstm1d_32/while/convolution_6/Squeeze:output:0"], "attr": {"T": {"type": "DT_FLOAT"}}}, {"name": "sequential_8/conv_lstm1d_32/while/Mul_4", "op": "Mul", "input": ["sequential_8/conv_lstm1d_32/while/add:z:0", "__inference_sequential_8_conv_lstm1d_32_while_body_1641_frozen_36116/sequential_8/conv_lstm1d_32/while/Const:output:0"], "attr": {"T": {"type": "DT_FLOAT"}}}, {"name": "sequential_8/conv_lstm1d_32/while/Mul_5", "op": "Mul", "input": ["sequential_8/conv_lstm1d_32/while/add_2:z:0", "__inference_sequential_8_conv_lstm1d_32_while_body_1641_frozen_36116/sequential_8/conv_lstm1d_32/while/Const_2:output:0"], "attr": {"T": {"type": "DT_FLOAT"}}}, {"name": "sequential_8/conv_lstm1d_32/while/Mul_8", "op": "Mul", "input": ["sequential_8/conv_lstm1d_32/while/add_6:z:0", "__inference_sequential_8_conv_lstm1d_32_while_body_1641_frozen_36116/sequential_8/conv_lstm1d_32/while/Const_4:output:0"], "attr": {"T": {"type": "DT_FLOAT"}}}, {"name": "sequential_8/conv_lstm1d_32/while/Tanh", "op": "Tanh", "input": ["sequential_8/conv_lstm1d_32/while/add_4:z:0"], "attr": {"T": {"type": "DT_FLOAT"}}}, {"name": "sequential_8/conv_lstm1d_32/while/Add_1", "op": "AddV2", "input": ["sequential_8/conv_lstm1d_32/while/Mul_4:z:0", "__inference_sequential_8_conv_lstm1d_32_while_body_1641_frozen_36116/sequential_8/conv_lstm1d_32/while/Const_1:output:0"], "attr": {"T": {"type": "DT_FLOAT"}}}, {"name": "sequential_8/conv_lstm1d_32/while/Add_3", "op": "AddV2", "input": ["sequential_8/conv_lstm1d_32/while/Mul_5:z:0", "__inference_sequential_8_conv_lstm1d_32_while_body_1641_frozen_36116/sequential_8/conv_lstm1d_32/while/Const_3:output:0"], "attr": {"T": {"type": "DT_FLOAT"}}}, {"name": "sequential_8/conv_lstm1d_32/while/Add_7", "op": "AddV2", "input": ["sequential_8/conv_lstm1d_32/while/Mul_8:z:0", "__inference_sequential_8_conv_lstm1d_32_while_body_1641_frozen_36116/sequential_8/conv_lstm1d_32/while/Const_5:output:0"], "attr": {"T": {"type": "DT_FLOAT"}}}, {"name": "sequential_8/conv_lstm1d_32/while/clip_by_value/Minimum", "op": "Minimum", "input": ["sequential_8/conv_lstm1d_32/while/Add_1:z:0", "__inference_sequential_8_conv_lstm1d_32_while_body_1641_frozen_36116/sequential_8/conv_lstm1d_32/while/clip_by_value/Minimum/y:output:0"], "attr": {"T": {"type": "DT_FLOAT"}}}, {"name": "sequential_8/conv_lstm1d_32/while/clip_by_value_1/Minimum", "op": "Minimum", "input": ["sequential_8/conv_lstm1d_32/while/Add_3:z:0", "__inference_sequential_8_conv_lstm1d_32_while_body_1641_frozen_36116/sequential_8/conv_lstm1d_32/while/clip_by_value_1/Minimum/y:output:0"], "attr": {"T": {"type": "DT_FLOAT"}}}, {"name": "sequential_8/conv_lstm1d_32/while/clip_by_value_2/Minimum", "op": "Minimum", "input": ["sequential_8/conv_lstm1d_32/while/Add_7:z:0", "__inference_sequential_8_conv_lstm1d_32_while_body_1641_frozen_36116/sequential_8/conv_lstm1d_32/while/clip_by_value_2/Minimum/y:output:0"], "attr": {"T": {"type": "DT_FLOAT"}}}, {"name": "sequential_8/conv_lstm1d_32/while/clip_by_value", "op": "Maximum", "input": ["sequential_8/conv_lstm1d_32/while/clip_by_value/Minimum:z:0", "__inference_sequential_8_conv_lstm1d_32_while_body_1641_frozen_36116/sequential_8/conv_lstm1d_32/while/clip_by_value/y:output:0"], "attr": {"T": {"type": "DT_FLOAT"}}}, {"name": "sequential_8/conv_lstm1d_32/while/clip_by_value_1", "op": "Maximum", "input": ["sequential_8/conv_lstm1d_32/while/clip_by_value_1/Minimum:z:0", "__inference_sequential_8_conv_lstm1d_32_while_body_1641_frozen_36116/sequential_8/conv_lstm1d_32/while/clip_by_value_1/y:output:0"], "attr": {"T": {"type": "DT_FLOAT"}}}, {"name": "sequential_8/conv_lstm1d_32/while/clip_by_value_2", "op": "Maximum", "input": ["sequential_8/conv_lstm1d_32/while/clip_by_value_2/Minimum:z:0", "__inference_sequential_8_conv_lstm1d_32_while_body_1641_frozen_36116/sequential_8/conv_lstm1d_32/while/clip_by_value_2/y:output:0"], "attr": {"T": {"type": "DT_FLOAT"}}}, {"name": "sequential_8/conv_lstm1d_32/while/mul_7", "op": "Mul", "input": ["sequential_8/conv_lstm1d_32/while/clip_by_value:z:0", "sequential_8/conv_lstm1d_32/while/Tanh:y:0"], "attr": {"T": {"type": "DT_FLOAT"}}}, {"name": "sequential_8/conv_lstm1d_32/while/mul_6", "op": "Mul", "input": ["sequential_8/conv_lstm1d_32/while/clip_by_value_1:z:0", "sequential_8_conv_lstm1d_32_while_placeholder_3"], "attr": {"T": {"type": "DT_FLOAT"}}}, {"name": "sequential_8/conv_lstm1d_32/while/add_5", "op": "AddV2", "input": ["sequential_8/conv_lstm1d_32/while/mul_6:z:0", "sequential_8/conv_lstm1d_32/while/mul_7:z:0"], "attr": {"T": {"type": "DT_FLOAT"}}}, {"name": "sequential_8/conv_lstm1d_32/while/Tanh_1", "op": "Tanh", "input": ["sequential_8/conv_lstm1d_32/while/add_5:z:0"], "attr": {"T": {"type": "DT_FLOAT"}}}, {"name": "sequential_8/conv_lstm1d_32/while/Identity_5", "op": "Identity", "input": ["sequential_8/conv_lstm1d_32/while/add_5:z:0", "^sequential_8/conv_lstm1d_32/while/NoOp"], "attr": {"T": {"type": "DT_FLOAT"}}}, {"name": "sequential_8/conv_lstm1d_32/while/mul_9", "op": "Mul", "input": ["sequential_8/conv_lstm1d_32/while/clip_by_value_2:z:0", "sequential_8/conv_lstm1d_32/while/Tanh_1:y:0"], "attr": {"T": {"type": "DT_FLOAT"}}}, {"name": "sequential_8/conv_lstm1d_32/while/TensorArrayV2Write/TensorListSetItem", "op": "TensorListSetItem", "input": ["sequential_8_conv_lstm1d_32_while_placeholder_1", "sequential_8_conv_lstm1d_32_while_placeholder", "sequential_8/conv_lstm1d_32/while/mul_9:z:0"], "attr": {"element_dtype": {"type": "DT_FLOAT"}}, "experimentalType": {"typeId": "TFT_PRODUCT", "args": [{"typeId": "TFT_ARRAY", "args": [{"typeId": "TFT_TENSOR", "args": [{"typeId": "TFT_FLOAT"}]}]}]}}, {"name": "sequential_8/conv_lstm1d_32/while/Identity_4", "op": "Identity", "input": ["sequential_8/conv_lstm1d_32/while/mul_9:z:0", "^sequential_8/conv_lstm1d_32/while/NoOp"], "attr": {"T": {"type": "DT_FLOAT"}}}, {"name": "sequential_8/conv_lstm1d_32/while/Identity_3", "op": "Identity", "input": ["sequential_8/conv_lstm1d_32/while/TensorArrayV2Write/TensorListSetItem:output_handle:0", "^sequential_8/conv_lstm1d_32/while/NoOp"], "attr": {"T": {"type": "DT_VARIANT"}}}], "ret": {"sequential_8_conv_lstm1d_32_while_identity": "sequential_8/conv_lstm1d_32/while/Identity:output:0", "sequential_8_conv_lstm1d_32_while_identity_4": "sequential_8/conv_lstm1d_32/while/Identity_4:output:0", "sequential_8_conv_lstm1d_32_while_split_readvariableop_resource": "sequential_8_conv_lstm1d_32_while_split_readvariableop_resource_0", "sequential_8_conv_lstm1d_32_while_split_2_readvariableop_resource": "sequential_8_conv_lstm1d_32_while_split_2_readvariableop_resource_0", "sequential_8_conv_lstm1d_32_while_identity_3": "sequential_8/conv_lstm1d_32/while/Identity_3:output:0", "sequential_8_conv_lstm1d_32_while_identity_5": "sequential_8/conv_lstm1d_32/while/Identity_5:output:0", "sequential_8_conv_lstm1d_32_while_sequential_8_conv_lstm1d_32_strided_slice": "sequential_8_conv_lstm1d_32_while_sequential_8_conv_lstm1d_32_strided_slice_0", "sequential_8_conv_lstm1d_32_while_identity_1": "sequential_8/conv_lstm1d_32/while/Identity_1:output:0", "sequential_8_conv_lstm1d_32_while_split_1_readvariableop_resource": "sequential_8_conv_lstm1d_32_while_split_1_readvariableop_resource_0", "sequential_8_conv_lstm1d_32_while_tensorarrayv2read_tensorlistgetitem_sequential_8_conv_lstm1d_32_tensorarrayunstack_tensorlistfromtensor": "sequential_8_conv_lstm1d_32_while_tensorarrayv2read_tensorlistgetitem_sequential_8_conv_lstm1d_32_tensorarrayunstack_tensorlistfromtensor_0", "sequential_8_conv_lstm1d_32_while_identity_2": "sequential_8/conv_lstm1d_32/while/Identity_2:output:0"}, "attr": {"_construction_context": {"s": "a0VhZ2VyUnVudGltZQ=="}}, "controlRet": {"sequential_8/conv_lstm1d_32/while/split_1/ReadVariableOp": "sequential_8/conv_lstm1d_32/while/split_1/ReadVariableOp", "sequential_8/conv_lstm1d_32/while/split/ReadVariableOp": "sequential_8/conv_lstm1d_32/while/split/ReadVariableOp", "sequential_8/conv_lstm1d_32/while/split_2/ReadVariableOp": "sequential_8/conv_lstm1d_32/while/split_2/ReadVariableOp"}, "argAttr": {"4": {"attr": {"_output_shapes": {"list": {"shape": [{"dim": [{"size": "-1"}, {"size": "1660"}, {"size": "4"}]}]}}}}, "1": {"attr": {"_output_shapes": {"list": {"shape": [{}]}}}}, "6": {"attr": {"_output_shapes": {"list": {"shape": [{}]}}}}, "3": {"attr": {"_output_shapes": {"list": {"shape": [{}]}}}}, "5": {"attr": {"_output_shapes": {"list": {"shape": [{"dim": [{"size": "-1"}, {"size": "1660"}, {"size": "4"}]}]}}}}, "0": {"attr": {"_output_shapes": {"list": {"shape": [{}]}}}}, "7": {"attr": {"_output_shapes": {"list": {"shape": [{}]}}}}, "2": {"attr": {"_output_shapes": {"list": {"shape": [{}]}}}}}}, {"signature": {"name": "__inference_sequential_8_conv_lstm1d_34_while_body_2287_frozen_36117", "inputArg": [{"name": "sequential_8_conv_lstm1d_34_while_sequential_8_conv_lstm1d_34_while_loop_counter", "type": "DT_INT32"}, {"name": "sequential_8_conv_lstm1d_34_while_sequential_8_conv_lstm1d_34_while_maximum_iterations", "type": "DT_INT32"}, {"name": "sequential_8_conv_lstm1d_34_while_placeholder", "type": "DT_INT32"}, {"name": "sequential_8_conv_lstm1d_34_while_placeholder_1", "type": "DT_VARIANT"}, {"name": "sequential_8_conv_lstm1d_34_while_placeholder_2", "type": "DT_FLOAT"}, {"name": "sequential_8_conv_lstm1d_34_while_placeholder_3", "type": "DT_FLOAT"}, {"name": "sequential_8_conv_lstm1d_34_while_sequential_8_conv_lstm1d_34_strided_slice_0", "type": "DT_INT32"}, {"name": "sequential_8_conv_lstm1d_34_while_tensorarrayv2read_tensorlistgetitem_sequential_8_conv_lstm1d_34_tensorarrayunstack_tensorlistfromtensor_0", "type": "DT_VARIANT"}, {"name": "sequential_8_conv_lstm1d_34_while_split_readvariableop_resource_0", "type": "DT_FLOAT"}, {"name": "sequential_8_conv_lstm1d_34_while_split_1_readvariableop_resource_0", "type": "DT_FLOAT"}, {"name": "sequential_8_conv_lstm1d_34_while_split_2_readvariableop_resource_0", "type": "DT_FLOAT"}], "outputArg": [{"name": "sequential_8_conv_lstm1d_34_while_identity", "type": "DT_INT32"}, {"name": "sequential_8_conv_lstm1d_34_while_identity_1", "type": "DT_INT32"}, {"name": "sequential_8_conv_lstm1d_34_while_identity_2", "type": "DT_INT32"}, {"name": "sequential_8_conv_lstm1d_34_while_identity_3", "type": "DT_VARIANT"}, {"name": "sequential_8_conv_lstm1d_34_while_identity_4", "type": "DT_FLOAT"}, {"name": "sequential_8_conv_lstm1d_34_while_identity_5", "type": "DT_FLOAT"}, {"name": "sequential_8_conv_lstm1d_34_while_sequential_8_conv_lstm1d_34_strided_slice", "type": "DT_INT32"}, {"name": "sequential_8_conv_lstm1d_34_while_tensorarrayv2read_tensorlistgetitem_sequential_8_conv_lstm1d_34_tensorarrayunstack_tensorlistfromtensor", "type": "DT_VARIANT"}, {"name": "sequential_8_conv_lstm1d_34_while_split_readvariableop_resource", "type": "DT_FLOAT"}, {"name": "sequential_8_conv_lstm1d_34_while_split_1_readvariableop_resource", "type": "DT_FLOAT"}, {"name": "sequential_8_conv_lstm1d_34_while_split_2_readvariableop_resource", "type": "DT_FLOAT"}], "isStateful": true, "controlOutput": ["sequential_8/conv_lstm1d_34/while/split/ReadVariableOp", "sequential_8/conv_lstm1d_34/while/split_1/ReadVariableOp", "sequential_8/conv_lstm1d_34/while/split_2/ReadVariableOp"]}, "nodeDef": [{"name": "__inference_sequential_8_conv_lstm1d_34_while_body_2287_frozen_36117/sequential_8/conv_lstm1d_34/while/add_8/y", "op": "Const", "attr": {"dtype": {"type": "DT_INT32"}, "value": {"tensor": {"dtype": "DT_INT32", "tensorShape": {}}}}}, {"name": "__inference_sequential_8_conv_lstm1d_34_while_body_2287_frozen_36117/sequential_8/conv_lstm1d_34/while/convolution_3/ExpandDims/dim", "op": "Const", "attr": {"value": {"tensor": {"dtype": "DT_INT32", "tensorShape": {}}}, "dtype": {"type": "DT_INT32"}}}, {"name": "__inference_sequential_8_conv_lstm1d_34_while_body_2287_frozen_36117/sequential_8/conv_lstm1d_34/while/convolution_3/ExpandDims_1/dim", "op": "Const", "attr": {"value": {"tensor": {"dtype": "DT_INT32", "tensorShape": {}}}, "dtype": {"type": "DT_INT32"}}}, {"name": "__inference_sequential_8_conv_lstm1d_34_while_body_2287_frozen_36117/sequential_8/conv_lstm1d_34/while/convolution_7/ExpandDims/dim", "op": "Const", "attr": {"dtype": {"type": "DT_INT32"}, "value": {"tensor": {"dtype": "DT_INT32", "tensorShape": {}}}}}, {"name": "__inference_sequential_8_conv_lstm1d_34_while_body_2287_frozen_36117/sequential_8/conv_lstm1d_34/while/convolution_7/ExpandDims_1/dim", "op": "Const", "attr": {"value": {"tensor": {"dtype": "DT_INT32", "tensorShape": {}}}, "dtype": {"type": "DT_INT32"}}}, {"name": "__inference_sequential_8_conv_lstm1d_34_while_body_2287_frozen_36117/sequential_8/conv_lstm1d_34/while/Const_4", "op": "Const", "attr": {"value": {"tensor": {"dtype": "DT_FLOAT", "tensorShape": {}}}, "dtype": {"type": "DT_FLOAT"}}}, {"name": "__inference_sequential_8_conv_lstm1d_34_while_body_2287_frozen_36117/sequential_8/conv_lstm1d_34/while/Const_5", "op": "Const", "attr": {"value": {"tensor": {"dtype": "DT_FLOAT", "tensorShape": {}}}, "dtype": {"type": "DT_FLOAT"}}}, {"name": "__inference_sequential_8_conv_lstm1d_34_while_body_2287_frozen_36117/sequential_8/conv_lstm1d_34/while/clip_by_value_2/Minimum/y", "op": "Const", "attr": {"value": {"tensor": {"dtype": "DT_FLOAT", "tensorShape": {}}}, "dtype": {"type": "DT_FLOAT"}}}, {"name": "__inference_sequential_8_conv_lstm1d_34_while_body_2287_frozen_36117/sequential_8/conv_lstm1d_34/while/clip_by_value_2/y", "op": "Const", "attr": {"value": {"tensor": {"dtype": "DT_FLOAT", "tensorShape": {}}}, "dtype": {"type": "DT_FLOAT"}}}, {"name": "__inference_sequential_8_conv_lstm1d_34_while_body_2287_frozen_36117/sequential_8/conv_lstm1d_34/while/convolution_1/ExpandDims/dim", "op": "Const", "attr": {"dtype": {"type": "DT_INT32"}, "value": {"tensor": {"dtype": "DT_INT32", "tensorShape": {}}}}}, {"name": "__inference_sequential_8_conv_lstm1d_34_while_body_2287_frozen_36117/sequential_8/conv_lstm1d_34/while/convolution_1/ExpandDims_1/dim", "op": "Const", "attr": {"dtype": {"type": "DT_INT32"}, "value": {"tensor": {"dtype": "DT_INT32", "tensorShape": {}}}}}, {"name": "__inference_sequential_8_conv_lstm1d_34_while_body_2287_frozen_36117/sequential_8/conv_lstm1d_34/while/convolution_5/ExpandDims/dim", "op": "Const", "attr": {"dtype": {"type": "DT_INT32"}, "value": {"tensor": {"dtype": "DT_INT32", "tensorShape": {}}}}}, {"name": "__inference_sequential_8_conv_lstm1d_34_while_body_2287_frozen_36117/sequential_8/conv_lstm1d_34/while/convolution_5/ExpandDims_1/dim", "op": "Const", "attr": {"value": {"tensor": {"dtype": "DT_INT32", "tensorShape": {}}}, "dtype": {"type": "DT_INT32"}}}, {"name": "__inference_sequential_8_conv_lstm1d_34_while_body_2287_frozen_36117/sequential_8/conv_lstm1d_34/while/Const_2", "op": "Const", "attr": {"dtype": {"type": "DT_FLOAT"}, "value": {"tensor": {"dtype": "DT_FLOAT", "tensorShape": {}}}}}, {"name": "__inference_sequential_8_conv_lstm1d_34_while_body_2287_frozen_36117/sequential_8/conv_lstm1d_34/while/Const_3", "op": "Const", "attr": {"dtype": {"type": "DT_FLOAT"}, "value": {"tensor": {"dtype": "DT_FLOAT", "tensorShape": {}}}}}, {"name": "__inference_sequential_8_conv_lstm1d_34_while_body_2287_frozen_36117/sequential_8/conv_lstm1d_34/while/clip_by_value_1/Minimum/y", "op": "Const", "attr": {"value": {"tensor": {"dtype": "DT_FLOAT", "tensorShape": {}}}, "dtype": {"type": "DT_FLOAT"}}}, {"name": "__inference_sequential_8_conv_lstm1d_34_while_body_2287_frozen_36117/sequential_8/conv_lstm1d_34/while/clip_by_value_1/y", "op": "Const", "attr": {"value": {"tensor": {"dtype": "DT_FLOAT", "tensorShape": {}}}, "dtype": {"type": "DT_FLOAT"}}}, {"name": "__inference_sequential_8_conv_lstm1d_34_while_body_2287_frozen_36117/sequential_8/conv_lstm1d_34/while/convolution/ExpandDims/dim", "op": "Const", "attr": {"value": {"tensor": {"dtype": "DT_INT32", "tensorShape": {}}}, "dtype": {"type": "DT_INT32"}}}, {"name": "__inference_sequential_8_conv_lstm1d_34_while_body_2287_frozen_36117/sequential_8/conv_lstm1d_34/while/convolution/ExpandDims_1/dim", "op": "Const", "attr": {"value": {"tensor": {"dtype": "DT_INT32", "tensorShape": {}}}, "dtype": {"type": "DT_INT32"}}}, {"name": "__inference_sequential_8_conv_lstm1d_34_while_body_2287_frozen_36117/sequential_8/conv_lstm1d_34/while/convolution_4/ExpandDims/dim", "op": "Const", "attr": {"dtype": {"type": "DT_INT32"}, "value": {"tensor": {"dtype": "DT_INT32", "tensorShape": {}}}}}, {"name": "__inference_sequential_8_conv_lstm1d_34_while_body_2287_frozen_36117/sequential_8/conv_lstm1d_34/while/convolution_4/ExpandDims_1/dim", "op": "Const", "attr": {"dtype": {"type": "DT_INT32"}, "value": {"tensor": {"dtype": "DT_INT32", "tensorShape": {}}}}}, {"name": "__inference_sequential_8_conv_lstm1d_34_while_body_2287_frozen_36117/sequential_8/conv_lstm1d_34/while/Const", "op": "Const", "attr": {"dtype": {"type": "DT_FLOAT"}, "value": {"tensor": {"dtype": "DT_FLOAT", "tensorShape": {}}}}}, {"name": "__inference_sequential_8_conv_lstm1d_34_while_body_2287_frozen_36117/sequential_8/conv_lstm1d_34/while/Const_1", "op": "Const", "attr": {"value": {"tensor": {"dtype": "DT_FLOAT", "tensorShape": {}}}, "dtype": {"type": "DT_FLOAT"}}}, {"name": "__inference_sequential_8_conv_lstm1d_34_while_body_2287_frozen_36117/sequential_8/conv_lstm1d_34/while/clip_by_value/Minimum/y", "op": "Const", "attr": {"value": {"tensor": {"dtype": "DT_FLOAT", "tensorShape": {}}}, "dtype": {"type": "DT_FLOAT"}}}, {"name": "__inference_sequential_8_conv_lstm1d_34_while_body_2287_frozen_36117/sequential_8/conv_lstm1d_34/while/clip_by_value/y", "op": "Const", "attr": {"dtype": {"type": "DT_FLOAT"}, "value": {"tensor": {"dtype": "DT_FLOAT", "tensorShape": {}}}}}, {"name": "__inference_sequential_8_conv_lstm1d_34_while_body_2287_frozen_36117/sequential_8/conv_lstm1d_34/while/TensorArrayV2Read/TensorListGetItem/element_shape", "op": "Const", "attr": {"value": {"tensor": {"dtype": "DT_INT32", "tensorShape": {"dim": [{"size": "3"}]}}}, "dtype": {"type": "DT_INT32"}}}, {"name": "__inference_sequential_8_conv_lstm1d_34_while_body_2287_frozen_36117/sequential_8/conv_lstm1d_34/while/convolution_2/ExpandDims/dim", "op": "Const", "attr": {"value": {"tensor": {"dtype": "DT_INT32", "tensorShape": {}}}, "dtype": {"type": "DT_INT32"}}}, {"name": "__inference_sequential_8_conv_lstm1d_34_while_body_2287_frozen_36117/sequential_8/conv_lstm1d_34/while/split/split_dim", "op": "Const", "attr": {"value": {"tensor": {"dtype": "DT_INT32", "tensorShape": {}}}, "dtype": {"type": "DT_INT32"}}}, {"name": "__inference_sequential_8_conv_lstm1d_34_while_body_2287_frozen_36117/sequential_8/conv_lstm1d_34/while/convolution_2/ExpandDims_1/dim", "op": "Const", "attr": {"dtype": {"type": "DT_INT32"}, "value": {"tensor": {"dtype": "DT_INT32", "tensorShape": {}}}}}, {"name": "__inference_sequential_8_conv_lstm1d_34_while_body_2287_frozen_36117/sequential_8/conv_lstm1d_34/while/split_2/split_dim", "op": "Const", "attr": {"dtype": {"type": "DT_INT32"}, "value": {"tensor": {"dtype": "DT_INT32", "tensorShape": {}}}}}, {"name": "__inference_sequential_8_conv_lstm1d_34_while_body_2287_frozen_36117/sequential_8/conv_lstm1d_34/while/ones_like/Const", "op": "Const", "attr": {"value": {"tensor": {"dtype": "DT_FLOAT", "tensorShape": {}}}, "dtype": {"type": "DT_FLOAT"}}}, {"name": "__inference_sequential_8_conv_lstm1d_34_while_body_2287_frozen_36117/sequential_8/conv_lstm1d_34/while/convolution_6/ExpandDims/dim", "op": "Const", "attr": {"value": {"tensor": {"dtype": "DT_INT32", "tensorShape": {}}}, "dtype": {"type": "DT_INT32"}}}, {"name": "__inference_sequential_8_conv_lstm1d_34_while_body_2287_frozen_36117/sequential_8/conv_lstm1d_34/while/split_1/split_dim", "op": "Const", "attr": {"value": {"tensor": {"dtype": "DT_INT32", "tensorShape": {}}}, "dtype": {"type": "DT_INT32"}}}, {"name": "__inference_sequential_8_conv_lstm1d_34_while_body_2287_frozen_36117/sequential_8/conv_lstm1d_34/while/convolution_6/ExpandDims_1/dim", "op": "Const", "attr": {"dtype": {"type": "DT_INT32"}, "value": {"tensor": {"dtype": "DT_INT32", "tensorShape": {}}}}}, {"name": "__inference_sequential_8_conv_lstm1d_34_while_body_2287_frozen_36117/sequential_8/conv_lstm1d_34/while/add_9/y", "op": "Const", "attr": {"value": {"tensor": {"dtype": "DT_INT32", "tensorShape": {}}}, "dtype": {"type": "DT_INT32"}}}, {"name": "sequential_8/conv_lstm1d_34/while/ones_like/Shape", "op": "Shape", "input": ["sequential_8_conv_lstm1d_34_while_placeholder_2"], "attr": {"T": {"type": "DT_FLOAT"}, "out_type": {"type": "DT_INT32"}}}, {"name": "sequential_8/conv_lstm1d_34/while/split/ReadVariableOp", "op": "Identity", "input": ["sequential_8_conv_lstm1d_34_while_split_readvariableop_resource_0"], "attr": {"T": {"type": "DT_FLOAT"}}}, {"name": "sequential_8/conv_lstm1d_34/while/split_1/ReadVariableOp", "op": "Identity", "input": ["sequential_8_conv_lstm1d_34_while_split_1_readvariableop_resource_0"], "attr": {"T": {"type": "DT_FLOAT"}}}, {"name": "sequential_8/conv_lstm1d_34/while/split_2/ReadVariableOp", "op": "Identity", "input": ["sequential_8_conv_lstm1d_34_while_split_2_readvariableop_resource_0"], "attr": {"T": {"type": "DT_FLOAT"}}}, {"name": "sequential_8/conv_lstm1d_34/while/add_8", "op": "AddV2", "input": ["sequential_8_conv_lstm1d_34_while_placeholder", "__inference_sequential_8_conv_lstm1d_34_while_body_2287_frozen_36117/sequential_8/conv_lstm1d_34/while/add_8/y:output:0"], "attr": {"T": {"type": "DT_INT32"}}}, {"name": "sequential_8/conv_lstm1d_34/while/TensorArrayV2Read/TensorListGetItem", "op": "TensorListGetItem", "input": ["sequential_8_conv_lstm1d_34_while_tensorarrayv2read_tensorlistgetitem_sequential_8_conv_lstm1d_34_tensorarrayunstack_tensorlistfromtensor_0", "sequential_8_conv_lstm1d_34_while_placeholder", "__inference_sequential_8_conv_lstm1d_34_while_body_2287_frozen_36117/sequential_8/conv_lstm1d_34/while/TensorArrayV2Read/TensorListGetItem/element_shape:output:0"], "attr": {"element_dtype": {"type": "DT_FLOAT"}}}, {"name": "sequential_8/conv_lstm1d_34/while/add_9", "op": "AddV2", "input": ["sequential_8_conv_lstm1d_34_while_sequential_8_conv_lstm1d_34_while_loop_counter", "__inference_sequential_8_conv_lstm1d_34_while_body_2287_frozen_36117/sequential_8/conv_lstm1d_34/while/add_9/y:output:0"], "attr": {"T": {"type": "DT_INT32"}}}, {"name": "sequential_8/conv_lstm1d_34/while/ones_like", "op": "Fill", "input": ["sequential_8/conv_lstm1d_34/while/ones_like/Shape:output:0", "__inference_sequential_8_conv_lstm1d_34_while_body_2287_frozen_36117/sequential_8/conv_lstm1d_34/while/ones_like/Const:output:0"], "attr": {"T": {"type": "DT_FLOAT"}, "index_type": {"type": "DT_INT32"}}}, {"name": "sequential_8/conv_lstm1d_34/while/split", "op": "Split", "input": ["__inference_sequential_8_conv_lstm1d_34_while_body_2287_frozen_36117/sequential_8/conv_lstm1d_34/while/split/split_dim:output:0", "sequential_8/conv_lstm1d_34/while/split/ReadVariableOp:output:0"], "attr": {"num_split": {"i": "4"}, "T": {"type": "DT_FLOAT"}}}, {"name": "sequential_8/conv_lstm1d_34/while/split_1", "op": "Split", "input": ["__inference_sequential_8_conv_lstm1d_34_while_body_2287_frozen_36117/sequential_8/conv_lstm1d_34/while/split_1/split_dim:output:0", "sequential_8/conv_lstm1d_34/while/split_1/ReadVariableOp:output:0"], "attr": {"num_split": {"i": "4"}, "T": {"type": "DT_FLOAT"}}}, {"name": "sequential_8/conv_lstm1d_34/while/NoOp", "op": "NoOp", "input": ["^sequential_8/conv_lstm1d_34/while/split/ReadVariableOp", "^sequential_8/conv_lstm1d_34/while/split_1/ReadVariableOp", "^sequential_8/conv_lstm1d_34/while/split_2/ReadVariableOp"], "attr": {"_acd_function_control_output": {"b": true}}}, {"name": "sequential_8/conv_lstm1d_34/while/split_2", "op": "Split", "input": ["__inference_sequential_8_conv_lstm1d_34_while_body_2287_frozen_36117/sequential_8/conv_lstm1d_34/while/split_2/split_dim:output:0", "sequential_8/conv_lstm1d_34/while/split_2/ReadVariableOp:output:0"], "attr": {"T": {"type": "DT_FLOAT"}, "num_split": {"i": "4"}}}, {"name": "sequential_8/conv_lstm1d_34/while/convolution_3/ExpandDims", "op": "ExpandDims", "input": ["sequential_8/conv_lstm1d_34/while/TensorArrayV2Read/TensorListGetItem:item:0", "__inference_sequential_8_conv_lstm1d_34_while_body_2287_frozen_36117/sequential_8/conv_lstm1d_34/while/convolution_3/ExpandDims/dim:output:0"], "attr": {"T": {"type": "DT_FLOAT"}, "Tdim": {"type": "DT_INT32"}}}, {"name": "sequential_8/conv_lstm1d_34/while/convolution_1/ExpandDims", "op": "ExpandDims", "input": ["sequential_8/conv_lstm1d_34/while/TensorArrayV2Read/TensorListGetItem:item:0", "__inference_sequential_8_conv_lstm1d_34_while_body_2287_frozen_36117/sequential_8/conv_lstm1d_34/while/convolution_1/ExpandDims/dim:output:0"], "attr": {"T": {"type": "DT_FLOAT"}, "Tdim": {"type": "DT_INT32"}}}, {"name": "sequential_8/conv_lstm1d_34/while/convolution/ExpandDims", "op": "ExpandDims", "input": ["sequential_8/conv_lstm1d_34/while/TensorArrayV2Read/TensorListGetItem:item:0", "__inference_sequential_8_conv_lstm1d_34_while_body_2287_frozen_36117/sequential_8/conv_lstm1d_34/while/convolution/ExpandDims/dim:output:0"], "attr": {"Tdim": {"type": "DT_INT32"}, "T": {"type": "DT_FLOAT"}}}, {"name": "sequential_8/conv_lstm1d_34/while/convolution_2/ExpandDims", "op": "ExpandDims", "input": ["sequential_8/conv_lstm1d_34/while/TensorArrayV2Read/TensorListGetItem:item:0", "__inference_sequential_8_conv_lstm1d_34_while_body_2287_frozen_36117/sequential_8/conv_lstm1d_34/while/convolution_2/ExpandDims/dim:output:0"], "attr": {"Tdim": {"type": "DT_INT32"}, "T": {"type": "DT_FLOAT"}}}, {"name": "sequential_8/conv_lstm1d_34/while/mul_3", "op": "Mul", "input": ["sequential_8_conv_lstm1d_34_while_placeholder_2", "sequential_8/conv_lstm1d_34/while/ones_like:output:0"], "attr": {"T": {"type": "DT_FLOAT"}}}, {"name": "sequential_8/conv_lstm1d_34/while/mul_1", "op": "Mul", "input": ["sequential_8_conv_lstm1d_34_while_placeholder_2", "sequential_8/conv_lstm1d_34/while/ones_like:output:0"], "attr": {"T": {"type": "DT_FLOAT"}}}, {"name": "sequential_8/conv_lstm1d_34/while/mul", "op": "Mul", "input": ["sequential_8_conv_lstm1d_34_while_placeholder_2", "sequential_8/conv_lstm1d_34/while/ones_like:output:0"], "attr": {"T": {"type": "DT_FLOAT"}}}, {"name": "sequential_8/conv_lstm1d_34/while/mul_2", "op": "Mul", "input": ["sequential_8_conv_lstm1d_34_while_placeholder_2", "sequential_8/conv_lstm1d_34/while/ones_like:output:0"], "attr": {"T": {"type": "DT_FLOAT"}}}, {"name": "sequential_8/conv_lstm1d_34/while/convolution/ExpandDims_1", "op": "ExpandDims", "input": ["sequential_8/conv_lstm1d_34/while/split:output:0", "__inference_sequential_8_conv_lstm1d_34_while_body_2287_frozen_36117/sequential_8/conv_lstm1d_34/while/convolution/ExpandDims_1/dim:output:0"], "attr": {"Tdim": {"type": "DT_INT32"}, "T": {"type": "DT_FLOAT"}}}, {"name": "sequential_8/conv_lstm1d_34/while/convolution_1/ExpandDims_1", "op": "ExpandDims", "input": ["sequential_8/conv_lstm1d_34/while/split:output:1", "__inference_sequential_8_conv_lstm1d_34_while_body_2287_frozen_36117/sequential_8/conv_lstm1d_34/while/convolution_1/ExpandDims_1/dim:output:0"], "attr": {"T": {"type": "DT_FLOAT"}, "Tdim": {"type": "DT_INT32"}}}, {"name": "sequential_8/conv_lstm1d_34/while/convolution_3/ExpandDims_1", "op": "ExpandDims", "input": ["sequential_8/conv_lstm1d_34/while/split:output:3", "__inference_sequential_8_conv_lstm1d_34_while_body_2287_frozen_36117/sequential_8/conv_lstm1d_34/while/convolution_3/ExpandDims_1/dim:output:0"], "attr": {"T": {"type": "DT_FLOAT"}, "Tdim": {"type": "DT_INT32"}}}, {"name": "sequential_8/conv_lstm1d_34/while/convolution_2/ExpandDims_1", "op": "ExpandDims", "input": ["sequential_8/conv_lstm1d_34/while/split:output:2", "__inference_sequential_8_conv_lstm1d_34_while_body_2287_frozen_36117/sequential_8/conv_lstm1d_34/while/convolution_2/ExpandDims_1/dim:output:0"], "attr": {"Tdim": {"type": "DT_INT32"}, "T": {"type": "DT_FLOAT"}}}, {"name": "sequential_8/conv_lstm1d_34/while/convolution_4/ExpandDims_1", "op": "ExpandDims", "input": ["sequential_8/conv_lstm1d_34/while/split_1:output:0", "__inference_sequential_8_conv_lstm1d_34_while_body_2287_frozen_36117/sequential_8/conv_lstm1d_34/while/convolution_4/ExpandDims_1/dim:output:0"], "attr": {"Tdim": {"type": "DT_INT32"}, "T": {"type": "DT_FLOAT"}}}, {"name": "sequential_8/conv_lstm1d_34/while/convolution_5/ExpandDims_1", "op": "ExpandDims", "input": ["sequential_8/conv_lstm1d_34/while/split_1:output:1", "__inference_sequential_8_conv_lstm1d_34_while_body_2287_frozen_36117/sequential_8/conv_lstm1d_34/while/convolution_5/ExpandDims_1/dim:output:0"], "attr": {"Tdim": {"type": "DT_INT32"}, "T": {"type": "DT_FLOAT"}}}, {"name": "sequential_8/conv_lstm1d_34/while/convolution_7/ExpandDims_1", "op": "ExpandDims", "input": ["sequential_8/conv_lstm1d_34/while/split_1:output:3", "__inference_sequential_8_conv_lstm1d_34_while_body_2287_frozen_36117/sequential_8/conv_lstm1d_34/while/convolution_7/ExpandDims_1/dim:output:0"], "attr": {"T": {"type": "DT_FLOAT"}, "Tdim": {"type": "DT_INT32"}}}, {"name": "sequential_8/conv_lstm1d_34/while/convolution_6/ExpandDims_1", "op": "ExpandDims", "input": ["sequential_8/conv_lstm1d_34/while/split_1:output:2", "__inference_sequential_8_conv_lstm1d_34_while_body_2287_frozen_36117/sequential_8/conv_lstm1d_34/while/convolution_6/ExpandDims_1/dim:output:0"], "attr": {"T": {"type": "DT_FLOAT"}, "Tdim": {"type": "DT_INT32"}}}, {"name": "sequential_8/conv_lstm1d_34/while/Identity_1", "op": "Identity", "input": ["sequential_8_conv_lstm1d_34_while_sequential_8_conv_…
_2610_frozen_36115/sequential_8/conv_lstm1d_35/while/convolution_7/ExpandDims/dim:output:0"], "attr": {"T": {"type": "DT_FLOAT"}, "Tdim": {"type": "DT_INT32"}}}, {"name": "sequential_8/conv_lstm1d_35/while/convolution_5/ExpandDims", "op": "ExpandDims", "input": ["sequential_8/conv_lstm1d_35/while/mul_1:z:0", "__inference_sequential_8_conv_lstm1d_35_while_body_2610_frozen_36115/sequential_8/conv_lstm1d_35/while/convolution_5/ExpandDims/dim:output:0"], "attr": {"T": {"type": "DT_FLOAT"}, "Tdim": {"type": "DT_INT32"}}}, {"name": "sequential_8/conv_lstm1d_35/while/convolution_4/ExpandDims", "op": "ExpandDims", "input": ["sequential_8/conv_lstm1d_35/while/mul:z:0", "__inference_sequential_8_conv_lstm1d_35_while_body_2610_frozen_36115/sequential_8/conv_lstm1d_35/while/convolution_4/ExpandDims/dim:output:0"], "attr": {"Tdim": {"type": "DT_INT32"}, "T": {"type": "DT_FLOAT"}}}, {"name": "sequential_8/conv_lstm1d_35/while/convolution_6/ExpandDims", "op": "ExpandDims", "input": ["sequential_8/conv_lstm1d_35/while/mul_2:z:0", "__inference_sequential_8_conv_lstm1d_35_while_body_2610_frozen_36115/sequential_8/conv_lstm1d_35/while/convolution_6/ExpandDims/dim:output:0"], "attr": {"T": {"type": "DT_FLOAT"}, "Tdim": {"type": "DT_INT32"}}}, {"name": "sequential_8/conv_lstm1d_35/while/convolution", "op": "Conv2D", "input": ["sequential_8/conv_lstm1d_35/while/convolution/ExpandDims:output:0", "sequential_8/conv_lstm1d_35/while/convolution/ExpandDims_1:output:0"], "attr": {"explicit_paddings": {"list": {}}, "dilations": {"list": {"i": ["1", "1", "1", "1"]}}, "T": {"type": "DT_FLOAT"}, "use_cudnn_on_gpu": {"b": true}, "padding": {"s": "VkFMSUQ="}, "strides": {"list": {"i": ["1", "1", "1", "1"]}}, "data_format": {"s": "TkhXQw=="}}}, {"name": "sequential_8/conv_lstm1d_35/while/convolution_1", "op": "Conv2D", "input": ["sequential_8/conv_lstm1d_35/while/convolution_1/ExpandDims:output:0", "sequential_8/conv_lstm1d_35/while/convolution_1/ExpandDims_1:output:0"], "attr": {"data_format": {"s": "TkhXQw=="}, "T": {"type": "DT_FLOAT"}, "dilations": {"list": {"i": ["1", "1", "1", "1"]}}, "use_cudnn_on_gpu": {"b": true}, "strides": {"list": {"i": ["1", "1", "1", "1"]}}, "padding": {"s": "VkFMSUQ="}, "explicit_paddings": {"list": {}}}}, {"name": "sequential_8/conv_lstm1d_35/while/convolution_3", "op": "Conv2D", "input": ["sequential_8/conv_lstm1d_35/while/convolution_3/ExpandDims:output:0", "sequential_8/conv_lstm1d_35/while/convolution_3/ExpandDims_1:output:0"], "attr": {"explicit_paddings": {"list": {}}, "strides": {"list": {"i": ["1", "1", "1", "1"]}}, "padding": {"s": "VkFMSUQ="}, "dilations": {"list": {"i": ["1", "1", "1", "1"]}}, "data_format": {"s": "TkhXQw=="}, "use_cudnn_on_gpu": {"b": true}, "T": {"type": "DT_FLOAT"}}}, {"name": "sequential_8/conv_lstm1d_35/while/convolution_2", "op": "Conv2D", "input": ["sequential_8/conv_lstm1d_35/while/convolution_2/ExpandDims:output:0", "sequential_8/conv_lstm1d_35/while/convolution_2/ExpandDims_1:output:0"], "attr": {"dilations": {"list": {"i": ["1", "1", "1", "1"]}}, "strides": {"list": {"i": ["1", "1", "1", "1"]}}, "explicit_paddings": {"list": {}}, "padding": {"s": "VkFMSUQ="}, "T": {"type": "DT_FLOAT"}, "data_format": {"s": "TkhXQw=="}, "use_cudnn_on_gpu": {"b": true}}}, {"name": "sequential_8/conv_lstm1d_35/while/convolution_7", "op": "Conv2D", "input": ["sequential_8/conv_lstm1d_35/while/convolution_7/ExpandDims:output:0", "sequential_8/conv_lstm1d_35/while/convolution_7/ExpandDims_1:output:0"], "attr": {"use_cudnn_on_gpu": {"b": true}, "padding": {"s": "U0FNRQ=="}, "data_format": {"s": "TkhXQw=="}, "dilations": {"list": {"i": ["1", "1", "1", "1"]}}, "T": {"type": "DT_FLOAT"}, "explicit_paddings": {"list": {}}, "strides": {"list": {"i": ["1", "1", "1", "1"]}}}}, {"name": "sequential_8/conv_lstm1d_35/while/convolution_5", "op": "Conv2D", "input": ["sequential_8/conv_lstm1d_35/while/convolution_5/ExpandDims:output:0", "sequential_8/conv_lstm1d_35/while/convolution_5/ExpandDims_1:output:0"], "attr": {"dilations": {"list": {"i": ["1", "1", "1", "1"]}}, "T": {"type": "DT_FLOAT"}, "use_cudnn_on_gpu": {"b": true}, "data_format": {"s": "TkhXQw=="}, "explicit_paddings": {"list": {}}, "strides": {"list": {"i": ["1", "1", "1", "1"]}}, "padding": {"s": "U0FNRQ=="}}}, {"name": "sequential_8/conv_lstm1d_35/while/convolution_4", "op": "Conv2D", "input": ["sequential_8/conv_lstm1d_35/while/convolution_4/ExpandDims:output:0", "sequential_8/conv_lstm1d_35/while/convolution_4/ExpandDims_1:output:0"], "attr": {"explicit_paddings": {"list": {}}, "dilations": {"list": {"i": ["1", "1", "1", "1"]}}, "padding": {"s": "U0FNRQ=="}, "use_cudnn_on_gpu": {"b": true}, "data_format": {"s": "TkhXQw=="}, "T": {"type": "DT_FLOAT"}, "strides": {"list": {"i": ["1", "1", "1", "1"]}}}}, {"name": "sequential_8/conv_lstm1d_35/while/convolution_6", "op": "Conv2D", "input": ["sequential_8/conv_lstm1d_35/while/convolution_6/ExpandDims:output:0", "sequential_8/conv_lstm1d_35/while/convolution_6/ExpandDims_1:output:0"], "attr": {"strides": {"list": {"i": ["1", "1", "1", "1"]}}, "dilations": {"list": {"i": ["1", "1", "1", "1"]}}, "explicit_paddings": {"list": {}}, "use_cudnn_on_gpu": {"b": true}, "data_format": {"s": "TkhXQw=="}, "padding": {"s": "U0FNRQ=="}, "T": {"type": "DT_FLOAT"}}}, {"name": "sequential_8/conv_lstm1d_35/while/convolution/Squeeze", "op": "Squeeze", "input": ["sequential_8/conv_lstm1d_35/while/convolution:output:0"], "attr": {"squeeze_dims": {"list": {"i": ["-3"]}}, "T": {"type": "DT_FLOAT"}}}, {"name": "sequential_8/conv_lstm1d_35/while/convolution_1/Squeeze", "op": "Squeeze", "input": ["sequential_8/conv_lstm1d_35/while/convolution_1:output:0"], "attr": {"T": {"type": "DT_FLOAT"}, "squeeze_dims": {"list": {"i": ["-3"]}}}}, {"name": "sequential_8/conv_lstm1d_35/while/convolution_3/Squeeze", "op": "Squeeze", "input": ["sequential_8/conv_lstm1d_35/while/convolution_3:output:0"], "attr": {"T": {"type": "DT_FLOAT"}, "squeeze_dims": {"list": {"i": ["-3"]}}}}, {"name": "sequential_8/conv_lstm1d_35/while/convolution_2/Squeeze", "op": "Squeeze", "input": ["sequential_8/conv_lstm1d_35/while/convolution_2:output:0"], "attr": {"T": {"type": "DT_FLOAT"}, "squeeze_dims": {"list": {"i": ["-3"]}}}}, {"name": "sequential_8/conv_lstm1d_35/while/convolution_7/Squeeze", "op": "Squeeze", "input": ["sequential_8/conv_lstm1d_35/while/convolution_7:output:0"], "attr": {"T": {"type": "DT_FLOAT"}, "squeeze_dims": {"list": {"i": ["-3"]}}}}, {"name": "sequential_8/conv_lstm1d_35/while/convolution_5/Squeeze", "op": "Squeeze", "input": ["sequential_8/conv_lstm1d_35/while/convolution_5:output:0"], "attr": {"squeeze_dims": {"list": {"i": ["-3"]}}, "T": {"type": "DT_FLOAT"}}}, {"name": "sequential_8/conv_lstm1d_35/while/convolution_4/Squeeze", "op": "Squeeze", "input": ["sequential_8/conv_lstm1d_35/while/convolution_4:output:0"], "attr": {"squeeze_dims": {"list": {"i": ["-3"]}}, "T": {"type": "DT_FLOAT"}}}, {"name": "sequential_8/conv_lstm1d_35/while/convolution_6/Squeeze", "op": "Squeeze", "input": ["sequential_8/conv_lstm1d_35/while/convolution_6:output:0"], "attr": {"squeeze_dims": {"list": {"i": ["-3"]}}, "T": {"type": "DT_FLOAT"}}}, {"name": "sequential_8/conv_lstm1d_35/while/BiasAdd", "op": "BiasAdd", "input": ["sequential_8/conv_lstm1d_35/while/convolution/Squeeze:output:0", "sequential_8/conv_lstm1d_35/while/split_2:output:0"], "attr": {"data_format": {"s": "TkhXQw=="}, "T": {"type": "DT_FLOAT"}}}, {"name": "sequential_8/conv_lstm1d_35/while/BiasAdd_1", "op": "BiasAdd", "input": ["sequential_8/conv_lstm1d_35/while/convolution_1/Squeeze:output:0", "sequential_8/conv_lstm1d_35/while/split_2:output:1"], "attr": {"T": {"type": "DT_FLOAT"}, "data_format": {"s": "TkhXQw=="}}}, {"name": "sequential_8/conv_lstm1d_35/while/BiasAdd_3", "op": "BiasAdd", "input": ["sequential_8/conv_lstm1d_35/while/convolution_3/Squeeze:output:0", "sequential_8/conv_lstm1d_35/while/split_2:output:3"], "attr": {"T": {"type": "DT_FLOAT"}, "data_format": {"s": "TkhXQw=="}}}, {"name": "sequential_8/conv_lstm1d_35/while/BiasAdd_2", "op": "BiasAdd", "input": ["sequential_8/conv_lstm1d_35/while/convolution_2/Squeeze:output:0", "sequential_8/conv_lstm1d_35/while/split_2:output:2"], "attr": {"data_format": {"s": "TkhXQw=="}, "T": {"type": "DT_FLOAT"}}}, {"name": "sequential_8/conv_lstm1d_35/while/add", "op": "AddV2", "input": ["sequential_8/conv_lstm1d_35/while/BiasAdd:output:0", "sequential_8/conv_lstm1d_35/while/convolution_4/Squeeze:output:0"], "attr": {"T": {"type": "DT_FLOAT"}}}, {"name": "sequential_8/conv_lstm1d_35/while/add_2", "op": "AddV2", "input": ["sequential_8/conv_lstm1d_35/while/BiasAdd_1:output:0", "sequential_8/conv_lstm1d_35/while/convolution_5/Squeeze:output:0"], "attr": {"T": {"type": "DT_FLOAT"}}}, {"name": "sequential_8/conv_lstm1d_35/while/add_6", "op": "AddV2", "input": ["sequential_8/conv_lstm1d_35/while/BiasAdd_3:output:0", "sequential_8/conv_lstm1d_35/while/convolution_7/Squeeze:output:0"], "attr": {"T": {"type": "DT_FLOAT"}}}, {"name": "sequential_8/conv_lstm1d_35/while/add_4", "op": "AddV2", "input": ["sequential_8/conv_lstm1d_35/while/BiasAdd_2:output:0", "sequential_8/conv_lstm1d_35/while/convolution_6/Squeeze:output:0"], "attr": {"T": {"type": "DT_FLOAT"}}}, {"name": "sequential_8/conv_lstm1d_35/while/Mul_4", "op": "Mul", "input": ["sequential_8/conv_lstm1d_35/while/add:z:0", "__inference_sequential_8_conv_lstm1d_35_while_body_2610_frozen_36115/sequential_8/conv_lstm1d_35/while/Const:output:0"], "attr": {"T": {"type": "DT_FLOAT"}}}, {"name": "sequential_8/conv_lstm1d_35/while/Mul_5", "op": "Mul", "input": ["sequential_8/conv_lstm1d_35/while/add_2:z:0", "__inference_sequential_8_conv_lstm1d_35_while_body_2610_frozen_36115/sequential_8/conv_lstm1d_35/while/Const_2:output:0"], "attr": {"T": {"type": "DT_FLOAT"}}}, {"name": "sequential_8/conv_lstm1d_35/while/Mul_8", "op": "Mul", "input": ["sequential_8/conv_lstm1d_35/while/add_6:z:0", "__inference_sequential_8_conv_lstm1d_35_while_body_2610_frozen_36115/sequential_8/conv_lstm1d_35/while/Const_4:output:0"], "attr": {"T": {"type": "DT_FLOAT"}}}, {"name": "sequential_8/conv_lstm1d_35/while/Tanh", "op": "Tanh", "input": ["sequential_8/conv_lstm1d_35/while/add_4:z:0"], "attr": {"T": {"type": "DT_FLOAT"}}}, {"name": "sequential_8/conv_lstm1d_35/while/Add_1", "op": "AddV2", "input": ["sequential_8/conv_lstm1d_35/while/Mul_4:z:0", "__inference_sequential_8_conv_lstm1d_35_while_body_2610_frozen_36115/sequential_8/conv_lstm1d_35/while/Const_1:output:0"], "attr": {"T": {"type": "DT_FLOAT"}}}, {"name": "sequential_8/conv_lstm1d_35/while/Add_3", "op": "AddV2", "input": ["sequential_8/conv_lstm1d_35/while/Mul_5:z:0", "__inference_sequential_8_conv_lstm1d_35_while_body_2610_frozen_36115/sequential_8/conv_lstm1d_35/while/Const_3:output:0"], "attr": {"T": {"type": "DT_FLOAT"}}}, {"name": "sequential_8/conv_lstm1d_35/while/Add_7", "op": "AddV2", "input": ["sequential_8/conv_lstm1d_35/while/Mul_8:z:0", "__inference_sequential_8_conv_lstm1d_35_while_body_2610_frozen_36115/sequential_8/conv_lstm1d_35/while/Const_5:output:0"], "attr": {"T": {"type": "DT_FLOAT"}}}, {"name": "sequential_8/conv_lstm1d_35/while/clip_by_value/Minimum", "op": "Minimum", "input": ["sequential_8/conv_lstm1d_35/while/Add_1:z:0", "__inference_sequential_8_conv_lstm1d_35_while_body_2610_frozen_36115/sequential_8/conv_lstm1d_35/while/clip_by_value/Minimum/y:output:0"], "attr": {"T": {"type": "DT_FLOAT"}}}, {"name": "sequential_8/conv_lstm1d_35/while/clip_by_value_1/Minimum", "op": "Minimum", "input": ["sequential_8/conv_lstm1d_35/while/Add_3:z:0", "__inference_sequential_8_conv_lstm1d_35_while_body_2610_frozen_36115/sequential_8/conv_lstm1d_35/while/clip_by_value_1/Minimum/y:output:0"], "attr": {"T": {"type": "DT_FLOAT"}}}, {"name": "sequential_8/conv_lstm1d_35/while/clip_by_value_2/Minimum", "op": "Minimum", "input": ["sequential_8/conv_lstm1d_35/while/Add_7:z:0", "__inference_sequential_8_conv_lstm1d_35_while_body_2610_frozen_36115/sequential_8/conv_lstm1d_35/while/clip_by_value_2/Minimum/y:output:0"], "attr": {"T": {"type": "DT_FLOAT"}}}, {"name": "sequential_8/conv_lstm1d_35/while/clip_by_value", "op": "Maximum", "input": ["sequential_8/conv_lstm1d_35/while/clip_by_value/Minimum:z:0", "__inference_sequential_8_conv_lstm1d_35_while_body_2610_frozen_36115/sequential_8/conv_lstm1d_35/while/clip_by_value/y:output:0"], "attr": {"T": {"type": "DT_FLOAT"}}}, {"name": "sequential_8/conv_lstm1d_35/while/clip_by_value_1", "op": "Maximum", "input": ["sequential_8/conv_lstm1d_35/while/clip_by_value_1/Minimum:z:0", "__inference_sequential_8_conv_lstm1d_35_while_body_2610_frozen_36115/sequential_8/conv_lstm1d_35/while/clip_by_value_1/y:output:0"], "attr": {"T": {"type": "DT_FLOAT"}}}, {"name": "sequential_8/conv_lstm1d_35/while/clip_by_value_2", "op": "Maximum", "input": ["sequential_8/conv_lstm1d_35/while/clip_by_value_2/Minimum:z:0", "__inference_sequential_8_conv_lstm1d_35_while_body_2610_frozen_36115/sequential_8/conv_lstm1d_35/while/clip_by_value_2/y:output:0"], "attr": {"T": {"type": "DT_FLOAT"}}}, {"name": "sequential_8/conv_lstm1d_35/while/mul_7", "op": "Mul", "input": ["sequential_8/conv_lstm1d_35/while/clip_by_value:z:0", "sequential_8/conv_lstm1d_35/while/Tanh:y:0"], "attr": {"T": {"type": "DT_FLOAT"}}}, {"name": "sequential_8/conv_lstm1d_35/while/mul_6", "op": "Mul", "input": ["sequential_8/conv_lstm1d_35/while/clip_by_value_1:z:0", "sequential_8_conv_lstm1d_35_while_placeholder_3"], "attr": {"T": {"type": "DT_FLOAT"}}}, {"name": "sequential_8/conv_lstm1d_35/while/add_5", "op": "AddV2", "input": ["sequential_8/conv_lstm1d_35/while/mul_6:z:0", "sequential_8/conv_lstm1d_35/while/mul_7:z:0"], "attr": {"T": {"type": "DT_FLOAT"}}}, {"name": "sequential_8/conv_lstm1d_35/while/Tanh_1", "op": "Tanh", "input": ["sequential_8/conv_lstm1d_35/while/add_5:z:0"], "attr": {"T": {"type": "DT_FLOAT"}}}, {"name": "sequential_8/conv_lstm1d_35/while/Identity_5", "op": "Identity", "input": ["sequential_8/conv_lstm1d_35/while/add_5:z:0", "^sequential_8/conv_lstm1d_35/while/NoOp"], "attr": {"T": {"type": "DT_FLOAT"}}}, {"name": "sequential_8/conv_lstm1d_35/while/mul_9", "op": "Mul", "input": ["sequential_8/conv_lstm1d_35/while/clip_by_value_2:z:0", "sequential_8/conv_lstm1d_35/while/Tanh_1:y:0"], "attr": {"T": {"type": "DT_FLOAT"}}}, {"name": "sequential_8/conv_lstm1d_35/while/TensorArrayV2Write/TensorListSetItem", "op": "TensorListSetItem", "input": ["sequential_8_conv_lstm1d_35_while_placeholder_1", "sequential_8_conv_lstm1d_35_while_placeholder", "sequential_8/conv_lstm1d_35/while/mul_9:z:0"], "attr": {"element_dtype": {"type": "DT_FLOAT"}}, "experimentalType": {"typeId": "TFT_PRODUCT", "args": [{"typeId": "TFT_ARRAY", "args": [{"typeId": "TFT_TENSOR", "args": [{"typeId": "TFT_FLOAT"}]}]}]}}, {"name": "sequential_8/conv_lstm1d_35/while/Identity_4", "op": "Identity", "input": ["sequential_8/conv_lstm1d_35/while/mul_9:z:0", "^sequential_8/conv_lstm1d_35/while/NoOp"], "attr": {"T": {"type": "DT_FLOAT"}}}, {"name": "sequential_8/conv_lstm1d_35/while/Identity_3", "op": "Identity", "input": ["sequential_8/conv_lstm1d_35/while/TensorArrayV2Write/TensorListSetItem:output_handle:0", "^sequential_8/conv_lstm1d_35/while/NoOp"], "attr": {"T": {"type": "DT_VARIANT"}}}], "ret": {"sequential_8_conv_lstm1d_35_while_split_readvariableop_resource": "sequential_8_conv_lstm1d_35_while_split_readvariableop_resource_0", "sequential_8_conv_lstm1d_35_while_identity_1": "sequential_8/conv_lstm1d_35/while/Identity_1:output:0", "sequential_8_conv_lstm1d_35_while_identity_2": "sequential_8/conv_lstm1d_35/while/Identity_2:output:0", "sequential_8_conv_lstm1d_35_while_identity_3": "sequential_8/conv_lstm1d_35/while/Identity_3:output:0", "sequential_8_conv_lstm1d_35_while_identity": "sequential_8/conv_lstm1d_35/while/Identity:output:0", "sequential_8_conv_lstm1d_35_while_identity_4": "sequential_8/conv_lstm1d_35/while/Identity_4:output:0", "sequential_8_conv_lstm1d_35_while_tensorarrayv2read_tensorlistgetitem_sequential_8_conv_lstm1d_35_tensorarrayunstack_tensorlistfromtensor": "sequential_8_conv_lstm1d_35_while_tensorarrayv2read_tensorlistgetitem_sequential_8_conv_lstm1d_35_tensorarrayunstack_tensorlistfromtensor_0", "sequential_8_conv_lstm1d_35_while_sequential_8_conv_lstm1d_35_strided_slice": "sequential_8_conv_lstm1d_35_while_sequential_8_conv_lstm1d_35_strided_slice_0", "sequential_8_conv_lstm1d_35_while_identity_5": "sequential_8/conv_lstm1d_35/while/Identity_5:output:0", "sequential_8_conv_lstm1d_35_while_split_2_readvariableop_resource": "sequential_8_conv_lstm1d_35_while_split_2_readvariableop_resource_0", "sequential_8_conv_lstm1d_35_while_split_1_readvariableop_resource": "sequential_8_conv_lstm1d_35_while_split_1_readvariableop_resource_0"}, "attr": {"_construction_context": {"s": "a0VhZ2VyUnVudGltZQ=="}}, "controlRet": {"sequential_8/conv_lstm1d_35/while/split_1/ReadVariableOp": "sequential_8/conv_lstm1d_35/while/split_1/ReadVariableOp", "sequential_8/conv_lstm1d_35/while/split/ReadVariableOp": "sequential_8/conv_lstm1d_35/while/split/ReadVariableOp", "sequential_8/conv_lstm1d_35/while/split_2/ReadVariableOp": "sequential_8/conv_lstm1d_35/while/split_2/ReadVariableOp"}, "argAttr": {"6": {"attr": {"_output_shapes": {"list": {"shape": [{}]}}}}, "0": {"attr": {"_output_shapes": {"list": {"shape": [{}]}}}}, "5": {"attr": {"_output_shapes": {"list": {"shape": [{"dim": [{"size": "-1"}, {"size": "204"}, {"size": "16"}]}]}}}}, "7": {"attr": {"_output_shapes": {"list": {"shape": [{}]}}}}, "2": {"attr": {"_output_shapes": {"list": {"shape": [{}]}}}}, "1": {"attr": {"_output_shapes": {"list": {"shape": [{}]}}}}, "3": {"attr": {"_output_shapes": {"list": {"shape": [{}]}}}}, "4": {"attr": {"_output_shapes": {"list": {"shape": [{"dim": [{"size": "-1"}, {"size": "204"}, {"size": "16"}]}]}}}}}}]}, "versions": {"producer": 1087, "minConsumer": 12}}, "weightsManifest": [{"paths": ["group1-shard1of1.bin"], "weights": [{"name": "StatefulPartitionedCall/sequential_8/conv_lstm1d_35/while/loop_counter", "shape": [], "dtype": "int32"}, {"name": "StatefulPartitionedCall/sequential_8/conv_lstm1d_35/while/maximum_iterations", "shape": [], "dtype": "int32"}, {"name": "StatefulPartitionedCall/sequential_8/conv_lstm1d_35/time", "shape": [], "dtype": "int32"}, {"name": "StatefulPartitionedCall/sequential_8/conv_lstm1d_35/TensorArrayV2_1/element_shape", "shape": [3], "dtype": "int32"}, {"name": "StatefulPartitionedCall/sequential_8/conv_lstm1d_35/Sum/reduction_indices", "shape": [], "dtype": "int32"}, {"name": "StatefulPartitionedCall/sequential_8/conv_lstm1d_35/convolution/ExpandDims/dim", "shape": [], "dtype": "int32"}, {"name": "StatefulPartitionedCall/sequential_8/conv_lstm1d_35/convolution/ExpandDims_1", "shape": [1, 3, 14, 16], "dtype": "float32"}, {"name": "StatefulPartitionedCall/sequential_8/conv_lstm1d_35/strided_slice/stack", "shape": [1], "dtype": "int32"}, {"name": "StatefulPartitionedCall/sequential_8/conv_lstm1d_35/strided_slice/stack_1", "shape": [1], "dtype": "int32"}, {"name": "StatefulPartitionedCall/sequential_8/conv_lstm1d_35/strided_slice/stack_2", "shape": [1], "dtype": "int32"}, {"name": "StatefulPartitionedCall/sequential_8/conv_lstm1d_34/while/loop_counter", "shape": [], "dtype": "int32"}, {"name": "StatefulPartitionedCall/sequential_8/conv_lstm1d_34/while/maximum_iterations", "shape": [], "dtype": "int32"}, {"name": "StatefulPartitionedCall/sequential_8/conv_lstm1d_34/time", "shape": [], "dtype": "int32"}, {"name": "StatefulPartitionedCall/sequential_8/conv_lstm1d_34/TensorArrayV2_1/element_shape", "shape": [3], "dtype": "int32"}, {"name": "StatefulPartitionedCall/sequential_8/conv_lstm1d_34/Sum/reduction_indices", "shape": [], "dtype": "int32"}, {"name": "StatefulPartitionedCall/sequential_8/conv_lstm1d_34/convolution/ExpandDims/dim", "shape": [], "dtype": "int32"}, {"name": "StatefulPartitionedCall/sequential_8/conv_lstm1d_34/convolution/ExpandDims_1", "shape": [1, 3, 8, 14], "dtype": "float32"}, {"name": "StatefulPartitionedCall/sequential_8/conv_lstm1d_34/strided_slice/stack", "shape": [1], "dtype": "int32"}, {"name": "StatefulPartitionedCall/sequential_8/conv_lstm1d_34/strided_slice/stack_1", "shape": [1], "dtype": "int32"}, {"name": "StatefulPartitionedCall/sequential_8/conv_lstm1d_34/strided_slice/stack_2", "shape": [1], "dtype": "int32"}, {"name": "StatefulPartitionedCall/sequential_8/conv_lstm1d_33/while/loop_counter", "shape": [], "dtype": "int32"}, {"name": "StatefulPartitionedCall/sequential_8/conv_lstm1d_33/while/maximum_iterations", "shape": [], "dtype": "int32"}, {"name": "StatefulPartitionedCall/sequential_8/conv_lstm1d_33/time", "shape": [], "dtype": "int32"}, {"name": "StatefulPartitionedCall/sequential_8/conv_lstm1d_33/TensorArrayV2_1/element_shape", "shape": [3], "dtype": "int32"}, {"name": "StatefulPartitionedCall/sequential_8/conv_lstm1d_33/Sum/reduction_indices", "shape": [], "dtype": "int32"}, {"name": "StatefulPartitionedCall/sequential_8/conv_lstm1d_33/convolution/ExpandDims/dim", "shape": [], "dtype": "int32"}, {"name": "StatefulPartitionedCall/sequential_8/conv_lstm1d_33/convolution/ExpandDims_1", "shape": [1, 3, 4, 8], "dtype": "float32"}, {"name": "StatefulPartitionedCall/sequential_8/conv_lstm1d_33/strided_slice/stack", "shape": [1], "dtype": "int32"}, {"name": "StatefulPartitionedCall/sequential_8/conv_lstm1d_33/strided_slice/stack_1", "shape": [1], "dtype": "int32"}, {"name": "StatefulPartitionedCall/sequential_8/conv_lstm1d_33/strided_slice/stack_2", "shape": [1], "dtype": "int32"}, {"name": "StatefulPartitionedCall/sequential_8/conv_lstm1d_32/while/loop_counter", "shape": [], "dtype": "int32"}, {"name": "StatefulPartitionedCall/sequential_8/conv_lstm1d_32/while/maximum_iterations", "shape": [], "dtype": "int32"}, {"name": "StatefulPartitionedCall/sequential_8/conv_lstm1d_32/time", "shape": [], "dtype": "int32"}, {"name": "StatefulPartitionedCall/sequential_8/conv_lstm1d_32/TensorArrayV2_1/element_shape", "shape": [3], "dtype": "int32"}, {"name": "StatefulPartitionedCall/sequential_8/conv_lstm1d_32/Sum/reduction_indices", "shape": [], "dtype": "int32"}, {"name": "StatefulPartitionedCall/sequential_8/conv_lstm1d_32/convolution/ExpandDims/dim", "shape": [], "dtype": "int32"}, {"name": "StatefulPartitionedCall/sequential_8/conv_lstm1d_32/convolution/ExpandDims_1", "shape": [1, 3, 1, 4], "dtype": "float32"}, {"name": "StatefulPartitionedCall/sequential_8/conv_lstm1d_32/strided_slice/stack", "shape": [1], "dtype": "int32"}, {"name": "StatefulPartitionedCall/sequential_8/conv_lstm1d_32/strided_slice/stack_1", "shape": [1], "dtype": "int32"}, {"name": "StatefulPartitionedCall/sequential_8/conv_lstm1d_32/strided_slice/stack_2", "shape": [1], "dtype": "int32"}, {"name": "StatefulPartitionedCall/sequential_8/conv_lstm1d_32/transpose/perm", "shape": [4], "dtype": "int32"}, {"name": "StatefulPartitionedCall/sequential_8/conv_lstm1d_32/TensorArrayUnstack/TensorListFromTensor/element_shape", "shape": [3], "dtype": "int32"}, {"name": "unknown", "shape": [3, 1, 16], "dtype": "float32"}, {"name": "unknown_0", "shape": [3, 4, 16], "dtype": "float32"}, {"name": "unknown_1", "shape": [16], "dtype": "float32"}, {"name": "StatefulPartitionedCall/sequential_8/conv_lstm1d_32/TensorArrayV2Stack/TensorListStack/element_shape", "shape": [3], "dtype": "int32"}, {"name": "StatefulPartitionedCall/sequential_8/conv_lstm1d_32/transpose_1/perm", "shape": [4], "dtype": "int32"}, {"name": "StatefulPartitionedCall/sequential_8/time_distributed_24/Reshape_1/shape", "shape": [4], "dtype": "int32"}, {"name": "StatefulPartitionedCall/sequential_8/conv_lstm1d_33/transpose/perm", "shape": [4], "dtype": "int32"}, {"name": "StatefulPartitionedCall/sequential_8/conv_lstm1d_33/TensorArrayUnstack/TensorListFromTensor/element_shape", "shape": [3], "dtype": "int32"}, {"name": "unknown_2", "shape": [3, 4, 32], "dtype": "float32"}, {"name": "unknown_3", "shape": [3, 8, 32], "dtype": "float32"}, {"name": "unknown_4", "shape": [32], "dtype": "float32"}, {"name": "StatefulPartitionedCall/sequential_8/conv_lstm1d_33/TensorArrayV2Stack/TensorListStack/element_shape", "shape": [3], "dtype": "int32"}, {"name": "StatefulPartitionedCall/sequential_8/conv_lstm1d_33/transpose_1/perm", "shape": [4], "dtype": "int32"}, {"name": "StatefulPartitionedCall/sequential_8/time_distributed_25/Reshape_1/shape", "shape": [4], "dtype": "int32"}, {"name": "StatefulPartitionedCall/sequential_8/conv_lstm1d_34/transpose/perm", "shape": [4], "dtype": "int32"}, {"name": "StatefulPartitionedCall/sequential_8/conv_lstm1d_34/TensorArrayUnstack/TensorListFromTensor/element_shape", "shape": [3], "dtype": "int32"}, {"name": "unknown_5", "shape": [3, 8, 56], "dtype": "float32"}, {"name": "unknown_6", "shape": [3, 14, 56], "dtype": "float32"}, {"name": "unknown_7", "shape": [56], "dtype": "float32"}, {"name": "StatefulPartitionedCall/sequential_8/conv_lstm1d_34/TensorArrayV2Stack/TensorListStack/element_shape", "shape": [3], "dtype": "int32"}, {"name": "StatefulPartitionedCall/sequential_8/conv_lstm1d_34/transpose_1/perm", "shape": [4], "dtype": "int32"}, {"name": "StatefulPartitionedCall/sequential_8/time_distributed_26/Reshape_1/shape", "shape": [4], "dtype": "int32"}, {"name": "StatefulPartitionedCall/sequential_8/conv_lstm1d_35/transpose/perm", "shape": [4], "dtype": "int32"}, {"name": "StatefulPartitionedCall/sequential_8/conv_lstm1d_35/TensorArrayUnstack/TensorListFromTensor/element_shape", "shape": [3], "dtype": "int32"}, {"name": "unknown_8", "shape": [3, 14, 64], "dtype": "float32"}, {"name": "unknown_9", "shape": [3, 16, 64], "dtype": "float32"}, {"name": "unknown_10", "shape": [64], "dtype": "float32"}, {"name": "StatefulPartitionedCall/sequential_8/conv_lstm1d_35/TensorArrayV2Stack/TensorListStack/element_shape", "shape": [3], "dtype": "int32"}, {"name": "StatefulPartitionedCall/sequential_8/conv_lstm1d_35/transpose_1/perm", "shape": [4], "dtype": "int32"}, {"name": "StatefulPartitionedCall/sequential_8/flatten_8/Const", "shape": [2], "dtype": "int32"}, {"name": "StatefulPartitionedCall/sequential_8/dense_8/MatMul/ReadVariableOp", "shape": [48960, 9], "dtype": "float32"}, {"name": "StatefulPartitionedCall/sequential_8/dense_8/BiasAdd/ReadVariableOp", "shape": [9], "dtype": "float32"}, {"name": "__inference_sequential_8_conv_lstm1d_33_while_body_1964_frozen_36119/sequential_8/conv_lstm1d_33/while/add_8/y", "shape": [], "dtype": "int32"}, {"name": "__inference_sequential_8_conv_lstm1d_33_while_body_1964_frozen_36119/sequential_8/conv_lstm1d_33/while/convolution_3/ExpandDims/dim", "shape": [], "dtype": "int32"}, {"name": "__inference_sequential_8_conv_lstm1d_33_while_body_1964_frozen_36119/sequential_8/conv_lstm1d_33/while/convolution_3/ExpandDims_1/dim", "shape": [], "dtype": "int32"}, {"name": "__inference_sequential_8_conv_lstm1d_33_while_body_1964_frozen_36119/sequential_8/conv_lstm1d_33/while/convolution_7/ExpandDims/dim", "shape": [], "dtype": "int32"}, {"name": "__inference_sequential_8_conv_lstm1d_33_while_body_1964_frozen_36119/sequential_8/conv_lstm1d_33/while/convolution_7/ExpandDims_1/dim", "shape": [], "dtype": "int32"}, {"name": "__inference_sequential_8_conv_lstm1d_33_while_body_1964_frozen_36119/sequential_8/conv_lstm1d_33/while/Const_4", "shape": [], "dtype": "float32"}, {"name": "__inference_sequential_8_conv_lstm1d_33_while_body_1964_frozen_36119/sequential_8/conv_lstm1d_33/while/Const_5", "shape": [], "dtype": "float32"}, {"name": "__inference_sequential_8_conv_lstm1d_33_while_body_1964_frozen_36119/sequential_8/conv_lstm1d_33/while/clip_by_value_2/Minimum/y", "shape": [], "dtype": "float32"}, {"name": "__inference_sequential_8_conv_lstm1d_33_while_body_1964_frozen_36119/sequential_8/conv_lstm1d_33/while/clip_by_value_2/y", "shape": [], "dtype": "float32"}, {"name": "__inference_sequential_8_conv_lstm1d_33_while_body_1964_frozen_36119/sequential_8/conv_lstm1d_33/while/convolution_1/ExpandDims/dim", "shape": [], "dtype": "int32"}, {"name": "__inference_sequential_8_conv_lstm1d_33_while_body_1964_frozen_36119/sequential_8/conv_lstm1d_33/while/convolution_1/ExpandDims_1/dim", "shape": [], "dtype": "int32"}, {"name": "__inference_sequential_8_conv_lstm1d_33_while_body_1964_frozen_36119/sequential_8/conv_lstm1d_33/while/convolution_5/ExpandDims/dim", "shape": [], "dtype": "int32"}, {"name": "__inference_sequential_8_conv_lstm1d_33_while_body_1964_frozen_36119/sequential_8/conv_lstm1d_33/while/convolution_5/ExpandDims_1/dim", "shape": [], "dtype": "int32"}, {"name": "__inference_sequential_8_conv_lstm1d_33_while_body_1964_frozen_36119/sequential_8/conv_lstm1d_33/while/Const_2", "shape": [], "dtype": "float32"}, {"name": "__inference_sequential_8_conv_lstm1d_33_while_body_1964_frozen_36119/sequential_8/conv_lstm1d_33/while/Const_3", "shape": [], "dtype": "float32"}, {"name": "__inference_sequential_8_conv_lstm1d_33_while_body_1964_frozen_36119/sequential_8/conv_lstm1d_33/while/clip_by_value_1/Minimum/y", "shape": [], "dtype": "float32"}, {"name": "__inference_sequential_8_conv_lstm1d_33_while_body_1964_frozen_36119/sequential_8/conv_lstm1d_33/while/clip_by_value_1/y", "shape": [], "dtype": "float32"}, {"name": "__inference_sequential_8_conv_lstm1d_33_while_body_1964_frozen_36119/sequential_8/conv_lstm1d_33/while/convolution/ExpandDims/dim", "shape": [], "dtype": "int32"}, {"name": "__inference_sequential_8_conv_lstm1d_33_while_body_1964_frozen_36119/sequential_8/conv_lstm1d_33/while/convolution/ExpandDims_1/dim", "shape": [], "dtype": "int32"}, {"name": "__inference_sequential_8_conv_lstm1d_33_while_body_1964_frozen_36119/sequential_8/conv_lstm1d_33/while/convolution_4/ExpandDims/dim", "shape": [], "dtype": "int32"}, {"name": "__inference_sequential_8_conv_lstm1d_33_while_body_1964_frozen_36119/sequential_8/conv_lstm1d_33/while/convolution_4/ExpandDims_1/dim", "shape": [], "dtype": "int32"}, {"name": "__inference_sequential_8_conv_lstm1d_33_while_body_1964_frozen_36119/sequential_8/conv_lstm1d_33/while/Const", "shape": [], "dtype": "float32"}, {"name": "__inference_sequential_8_conv_lstm1d_33_while_body_1964_frozen_36119/sequential_8/conv_lstm1d_33/while/Const_1", "shape": [], "dtype": "float32"}, {"name": "__inference_sequential_8_conv_lstm1d_33_while_body_1964_frozen_36119/sequential_8/conv_lstm1d_33/while/clip_by_value/Minimum/y", "shape": [], "dtype": "float32"}, {"name": "__inference_sequential_8_conv_lstm1d_33_while_body_1964_frozen_36119/sequential_8/conv_lstm1d_33/while/clip_by_value/y", "shape": [], "dtype": "float32"}, {"name": "__inference_sequential_8_conv_lstm1d_33_while_body_1964_frozen_36119/sequential_8/conv_lstm1d_33/while/TensorArrayV2Read/TensorListGetItem/element_shape", "shape": [3], "dtype": "int32"}, {"name": "__inference_sequential_8_conv_lstm1d_33_while_body_1964_frozen_36119/sequential_8/conv_lstm1d_33/while/convolution_2/ExpandDims/dim", "shape": [], "dtype": "int32"}, {"name": "__inference_sequential_8_conv_lstm1d_33_while_body_1964_frozen_36119/sequential_8/conv_lstm1d_33/while/split/split_dim", "shape": [], "dtype": "int32"}, {"name": "__inference_sequential_8_conv_lstm1d_33_while_body_1964_frozen_36119/sequential_8/conv_lstm1d_33/while/convolution_2/ExpandDims_1/dim", "shape": [], "dtype": "int32"}, {"name": "__inference_sequential_8_conv_lstm1d_33_while_body_1964_frozen_36119/sequential_8/conv_lstm1d_33/while/split_2/split_dim", "shape": [], "dtype": "int32"}, {"name": "__inference_sequential_8_conv_lstm1d_33_while_body_1964_frozen_36119/sequential_8/conv_lstm1d_33/while/ones_like/Const", "shape": [], "dtype": "float32"}, {"name": "__inference_sequential_8_conv_lstm1d_33_while_body_1964_frozen_36119/sequential_8/conv_lstm1d_33/while/convolution_6/ExpandDims/dim", "shape": [], "dtype": "int32"}, {"name": "__inference_sequential_8_conv_lstm1d_33_while_body_1964_frozen_36119/sequential_8/conv_lstm1d_33/while/split_1/split_dim", "shape": [], "dtype": "int32"}, {"name": "__inference_sequential_8_conv_lstm1d_33_while_body_1964_frozen_36119/sequential_8/conv_lstm1d_33/while/convolution_6/ExpandDims_1/dim", "shape": [], "dtype": "int32"}, {"name": "__inference_sequential_8_conv_lstm1d_33_while_body_1964_frozen_36119/sequential_8/conv_lstm1d_33/while/add_9/y", "shape": [], "dtype": "int32"}, {"name": "__inference_sequential_8_conv_lstm1d_32_while_body_1641_frozen_36116/sequential_8/conv_lstm1d_32/while/add_8/y", "shape": [], "dtype": "int32"}, {"name": "__inference_sequential_8_conv_lstm1d_32_while_body_1641_frozen_36116/sequential_8/conv_lstm1d_32/while/convolution_3/ExpandDims/dim", "shape": [], "dtype": "int32"}, {"name": "__inference_sequential_8_conv_lstm1d_32_while_body_1641_frozen_36116/sequential_8/conv_lstm1d_32/while/convolution_3/ExpandDims_1/dim", "shape": [], "dtype": "int32"}, {"name": "__inference_sequential_8_conv_lstm1d_32_while_body_1641_frozen_36116/sequential_8/conv_lstm1d_32/while/convolution_7/ExpandDims/dim", "shape": [], "dtype": "int32"}, {"name": "__inference_sequential_8_conv_lstm1d_32_while_body_1641_frozen_36116/sequential_8/conv_lstm1d_32/while/convolution_7/ExpandDims_1/dim", "shape": [], "dtype": "int32"}, {"name": "__inference_sequential_8_conv_lstm1d_32_while_body_1641_frozen_36116/sequential_8/conv_lstm1d_32/while/Const_4", "shape": [], "dtype": "float32"}, {"name": "__inference_sequential_8_conv_lstm1d_32_while_body_1641_frozen_36116/sequential_8/conv_lstm1d_32/while/Const_5", "shape": [], "dtype": "float32"}, {"name": "__inference_sequential_8_conv_lstm1d_32_while_body_1641_frozen_36116/sequential_8/conv_lstm1d_32/while/clip_by_value_2/Minimum/y", "shape": [], "dtype": "float32"}, {"name": "__inference_sequential_8_conv_lstm1d_32_while_body_1641_frozen_36116/sequential_8/conv_lstm1d_32/while/clip_by_value_2/y", "shape": [], "dtype": "float32"}, {"name": "__inference_sequential_8_conv_lstm1d_32_while_body_1641_frozen_36116/sequential_8/conv_lstm1d_32/while/convolution_1/ExpandDims/dim", "shape": [], "dtype": "int32"}, {"name": "__inference_sequential_8_conv_lstm1d_32_while_body_1641_frozen_36116/sequential_8/conv_lstm1d_32/while/convolution_1/ExpandDims_1/dim", "shape": [], "dtype": "int32"}, {"name": "__inference_sequential_8_conv_lstm1d_32_while_body_1641_frozen_36116/sequential_8/conv_lstm1d_32/while/convolution_5/ExpandDims/dim", "shape": [], "dtype": "int32"}, {"name": "__inference_sequential_8_conv_lstm1d_32_while_body_1641_frozen_36116/sequential_8/conv_lstm1d_32/while/convolution_5/ExpandDims_1/dim", "shape": [], "dtype": "int32"}, {"name": "__inference_sequential_8_conv_lstm1d_32_while_body_1641_frozen_36116/sequential_8/conv_lstm1d_32/while/Const_2", "shape": [], "dtype": "float32"}, {"name": "__inference_sequential_8_conv_lstm1d_32_while_body_1641_frozen_36116/sequential_8/conv_lstm1d_32/while/Const_3", "shape": [], "dtype": "float32"}, {"name": "__inference_sequential_8_conv_lstm1d_32_while_body_1641_frozen_36116/sequential_8/conv_lstm1d_32/while/clip_by_value_1/Minimum/y", "shape": [], "dtype": "float32"}, {"name": "__inference_sequential_8_conv_lstm1d_32_while_body_1641_frozen_36116/sequential_8/conv_lstm1d_32/while/clip_by_value_1/y", "shape": [], "dtype": "float32"}, {"name": "__inference_sequential_8_conv_lstm1d_32_while_body_1641_frozen_36116/sequential_8/conv_lstm1d_32/while/convolution/ExpandDims/dim", "shape": [], "dtype": "int32"}, {"name": "__inference_sequential_8_conv_lstm1d_32_while_body_1641_frozen_36116/sequential_8/conv_lstm1d_32/while/convolution/ExpandDims_1/dim", "shape": [], "dtype": "int32"}, {"name": "__inference_sequential_8_conv_lstm1d_32_while_body_1641_frozen_36116/sequential_8/conv_lstm1d_32/while/convolution_4/ExpandDims/dim", "shape": [], "dtype": "int32"}, {"name": "__inference_sequential_8_conv_lstm1d_32_while_body_1641_frozen_36116/sequential_8/conv_lstm1d_32/while/convolution_4/ExpandDims_1/dim", "shape": [], "dtype": "int32"}, {"name": "__inference_sequential_8_conv_lstm1d_32_while_body_1641_frozen_36116/sequential_8/conv_lstm1d_32/while/Const", "shape": [], "dtype": "float32"}, {"name": "__inference_sequential_8_conv_lstm1d_32_while_body_1641_frozen_36116/sequential_8/conv_lstm1d_32/while/Const_1", "shape": [], "dtype": "float32"}, {"name": "__inference_sequential_8_conv_lstm1d_32_while_body_1641_frozen_36116/sequential_8/conv_lstm1d_32/while/clip_by_value/Minimum/y", "shape": [], "dtype": "float32"}, {"name": "__inference_sequential_8_conv_lstm1d_32_while_body_1641_frozen_36116/sequential_8/conv_lstm1d_32/while/clip_by_value/y", "shape": [], "dtype": "float32"}, {"name": "__inference_sequential_8_conv_lstm1d_32_while_body_1641_frozen_36116/sequential_8/conv_lstm1d_32/while/TensorArrayV2Read/TensorListGetItem/element_shape", "shape": [3], "dtype": "int32"}, {"name": "__inference_sequential_8_conv_lstm1d_32_while_body_1641_frozen_36116/sequential_8/conv_lstm1d_32/while/convolution_2/ExpandDims/dim", "shape": [], "dtype": "int32"}, {"name": "__inference_sequential_8_conv_lstm1d_32_while_body_1641_frozen_36116/sequential_8/conv_lstm1d_32/while/split/split_dim", "shape": [], "dtype": "int32"}, {"name": "__inference_sequential_8_conv_lstm1d_32_while_body_1641_frozen_36116/sequential_8/conv_lstm1d_32/while/convolution_2/ExpandDims_1/dim", "shape": [], "dtype": "int32"}, {"name": "__inference_sequential_8_conv_lstm1d_32_while_body_1641_frozen_36116/sequential_8/conv_lstm1d_32/while/split_2/split_dim", "shape": [], "dtype": "int32"}, {"name": "__inference_sequential_8_conv_lstm1d_32_while_body_1641_frozen_36116/sequential_8/conv_lstm1d_32/while/ones_like/Const", "shape": [], "dtype": "float32"}, {"name": "__inference_sequential_8_conv_lstm1d_32_while_body_1641_frozen_36116/sequential_8/conv_lstm1d_32/while/convolution_6/ExpandDims/dim", "shape": [], "dtype": "int32"}, {"name": "__inference_sequential_8_conv_lstm1d_32_while_body_1641_frozen_36116/sequential_8/conv_lstm1d_32/while/split_1/split_dim", "shape": [], "dtype": "int32"}, {"name": "__inference_sequential_8_conv_lstm1d_32_while_body_1641_frozen_36116/sequential_8/conv_lstm1d_32/while/convolution_6/ExpandDims_1/dim", "shape": [], "dtype": "int32"}, {"name": "__inference_sequential_8_conv_lstm1d_32_while_body_1641_frozen_36116/sequential_8/conv_lstm1d_32/while/add_9/y", "shape": [], "dtype": "int32"}, {"name": "__inference_sequential_8_conv_lstm1d_34_while_body_2287_frozen_36117/sequential_8/conv_lstm1d_34/while/add_8/y", "shape": [], "dtype": "int32"}, {"name": "__inference_sequential_8_conv_lstm1d_34_while_body_2287_frozen_36117/sequential_8/conv_lstm1d_34/while/convolution_3/ExpandDims/dim", "shape": [], "dtype": "int32"}, {"name": "__inference_sequential_8_conv_lstm1d_34_while_body_2287_frozen_36117/sequential_8/conv_lstm1d_34/while/convolution_3/ExpandDims_1/dim", "shape": [], "dtype": "int32"}, {"name": "__inference_sequential_8_conv_lstm1d_34_while_body_2287_frozen_36117/sequential_8/conv_lstm1d_34/while/convolution_7/ExpandDims/dim", "shape": [], "dtype": "int32"}, {"name": "__inference_sequential_8_conv_lstm1d_34_while_body_2287_frozen_36117/sequential_8/conv_lstm1d_34/while/convolution_7/ExpandDims_1/dim", "shape": [], "dtype": "int32"}, {"name": "__inference_sequential_8_conv_lstm1d_34_while_body_2287_frozen_36117/sequential_8/conv_lstm1d_34/while/Const_4", "shape": [], "dtype": "float32"}, {"name": "__inference_sequential_8_conv_lstm1d_34_while_body_2287_frozen_36117/sequential_8/conv_lstm1d_34/while/Const_5", "shape": [], "dtype": "float32"}, {"name": "__inference_sequential_8_conv_lstm1d_34_while_body_2287_frozen_36117/sequential_8/conv_lstm1d_34/while/clip_by_value_2/Minimum/y", "shape": [], "dtype": "float32"}, {"name": "__inference_sequential_8_conv_lstm1d_34_while_body_2287_frozen_36117/sequential_8/conv_lstm1d_34/while/clip_by_value_2/y", "shape": [], "dtype": "float32"}, {"name": "__inference_sequential_8_conv_lstm1d_34_while_body_2287_frozen_36117/sequential_8/conv_lstm1d_34/while/convolution_1/ExpandDims/dim", "shape": [], "dtype": "int32"}, {"name": "__inference_sequential_8_conv_lstm1d_34_while_body_2287_frozen_36117/sequential_8/conv_lstm1d_34/while/convolution_1/ExpandDims_1/dim", "shape": [], "dtype": "int32"}, {"name": "__inference_sequential_8_conv_lstm1d_34_while_body_2287_frozen_36117/sequential_8/conv_lstm1d_34/while/convolution_5/ExpandDims/dim", "shape": [], "dtype": "int32"}, {"name": "__inference_sequential_8_conv_lstm1d_34_while_body_2287_frozen_36117/sequential_8/conv_lstm1d_34/while/convolution_5/ExpandDims_1/dim", "shape": [], "dtype": "int32"}, {"name": "__inference_sequential_8_conv_lstm1d_34_while_body_2287_frozen_36117/sequential_8/conv_lstm1d_34/while/Const_2", "shape": [], "dtype": "float32"}, {"name": "__inference_sequential_8_conv_lstm1d_34_while_body_2287_frozen_36117/sequential_8/conv_lstm1d_34/while/Const_3", "shape": [], "dtype": "float32"}, {"name": "__inference_sequential_8_conv_lstm1d_34_while_body_2287_frozen_36117/sequential_8/conv_lstm1d_34/while/clip_by_value_1/Minimum/y", "shape": [], "dtype": "float32"}, {"name": "__inference_sequential_8_conv_lstm1d_34_while_body_2287_frozen_36117/sequential_8/conv_lstm1d_34/while/clip_by_value_1/y", "shape": [], "dtype": "float32"}, {"name": "__inference_sequential_8_conv_lstm1d_34_while_body_2287_frozen_36117/sequential_8/conv_lstm1d_34/while/convolution/ExpandDims/dim", "shape": [], "dtype": "int32"}, {"name": "__inference_sequential_8_conv_lstm1d_34_while_body_2287_frozen_36117/sequential_8/conv_lstm1d_34/while/convolution/ExpandDims_1/dim", "shape": [], "dtype": "int32"}, {"name": "__inference_sequential_8_conv_lstm1d_34_while_body_2287_frozen_36117/sequential_8/conv_lstm1d_34/while/convolution_4/ExpandDims/dim", "shape": [], "dtype": "int32"}, {"name": "__inference_sequential_8_conv_lstm1d_34_while_body_2287_frozen_36117/sequential_8/conv_lstm1d_34/while/convolution_4/ExpandDims_1/dim", "shape": [], "dtype": "int32"}, {"name": "__inference_sequential_8_conv_lstm1d_34_while_body_2287_frozen_36117/sequential_8/conv_lstm1d_34/while/Const", "shape": [], "dtype": "float32"}, {"name": "__inference_sequential_8_conv_lstm1d_34_while_body_2287_frozen_36117/sequential_8/conv_lstm1d_34/while/Const_1", "shape": [], "dtype": "float32"}, {"name": "__inference_sequential_8_conv_lstm1d_34_while_body_2287_frozen_36117/sequential_8/conv_lstm1d_34/while/clip_by_value/Minimum/y", "shape": [], "dtype": "float32"}, {"name": "__inference_sequential_8_conv_lstm1d_34_while_body_2287_frozen_36117/sequential_8/conv_lstm1d_34/while/clip_by_value/y", "shape": [], "dtype": "float32"}, {"name": "__inference_sequential_8_conv_lstm1d_34_while_body_2287_frozen_36117/sequential_8/conv_lstm1d_34/while/TensorArrayV2Read/TensorListGetItem/element_shape", "shape": [3], "dtype": "int32"}, {"name": "__inference_sequential_8_conv_lstm1d_34_while_body_2287_frozen_36117/sequential_8/conv_lstm1d_34/while/convolution_2/ExpandDims/dim", "shape": [], "dtype": "int32"}, {"name": "__inference_sequential_8_conv_lstm1d_34_while_body_2287_frozen_36117/sequential_8/conv_lstm1d_34/while/split/split_dim", "shape": [], "dtype": "int32"}, {"name": "__inference_sequential_8_conv_lstm1d_34_while_body_2287_frozen_36117/sequential_8/conv_lstm1d_34/while/convolution_2/ExpandDims_1/dim", "shape": [], "dtype": "int32"}, {"name": "__inference_sequential_8_conv_lstm1d_34_while_body_2287_frozen_36117/sequential_8/conv_lstm1d_34/while/split_2/split_dim", "shape": [], "dtype": "int32"}, {"name": "__inference_sequential_8_conv_lstm1d_34_while_body_2287_frozen_36117/sequential_8/conv_lstm1d_34/while/ones_like/Const", "shape": [], "dtype": "float32"}, {"name": "__inference_sequential_8_conv_lstm1d_34_while_body_2287_frozen_36117/sequential_8/conv_lstm1d_34/while/convolution_6/ExpandDims/dim", "shape": [], "dtype": "int32"}, {"name": "__inference_sequential_8_conv_lstm1d_34_while_body_2287_frozen_36117/sequential_8/conv_lstm1d_34/while/split_1/split_dim", "shape": [], "dtype": "int32"}, {"name": "__inference_sequential_8_conv_lstm1d_34_while_body_2287_frozen_36117/sequential_8/conv_lstm1d_34/while/convolution_6/ExpandDims_1/dim", "shape": [], "dtype": "int32"}, {"name": "__inference_sequential_8_conv_lstm1d_34_while_body_2287_frozen_36117/sequential_8/conv_lstm1d_34/while/add_9/y", "shape": [], "dtype": "int32"}, {"name": "__inference_sequential_8_conv_lstm1d_35_while_body_2610_frozen_36115/sequential_8/conv_lstm1d_35/while/add_8/y", "shape": [], "dtype": "int32"}, {"name": "__inference_sequential_8_conv_lstm1d_35_while_body_2610_frozen_36115/sequential_8/conv_lstm1d_35/while/convolution_3/ExpandDims/dim", "shape": [], "dtype": "int32"}, {"name": "__inference_sequential_8_conv_lstm1d_35_while_body_2610_frozen_36115/sequential_8/conv_lstm1d_35/while/convolution_3/ExpandDims_1/dim", "shape": [], "dtype": "int32"}, {"name": "__inference_sequential_8_conv_lstm1d_35_while_body_2610_frozen_36115/sequential_8/conv_lstm1d_35/while/convolution_7/ExpandDims/dim", "shape": [], "dtype": "int32"}, {"name": "__inference_sequential_8_conv_lstm1d_35_while_body_2610_frozen_36115/sequential_8/conv_lstm1d_35/while/convolution_7/ExpandDims_1/dim", "shape": [], "dtype": "int32"}, {"name": "__inference_sequential_8_conv_lstm1d_35_while_body_2610_frozen_36115/sequential_8/conv_lstm1d_35/while/Const_4", "shape": [], "dtype": "float32"}, {"name": "__inference_sequential_8_conv_lstm1d_35_while_body_2610_frozen_36115/sequential_8/conv_lstm1d_35/while/Const_5", "shape": [], "dtype": "float32"}, {"name": "__inference_sequential_8_conv_lstm1d_35_while_body_2610_frozen_36115/sequential_8/conv_lstm1d_35/while/clip_by_value_2/Minimum/y", "shape": [], "dtype": "float32"}, {"name": "__inference_sequential_8_conv_lstm1d_35_while_body_2610_frozen_36115/sequential_8/conv_lstm1d_35/while/clip_by_value_2/y", "shape": [], "dtype": "float32"}, {"name": "__inference_sequential_8_conv_lstm1d_35_while_body_2610_frozen_36115/sequential_8/conv_lstm1d_35/while/convolution_1/ExpandDims/dim", "shape": [], "dtype": "int32"}, {"name": "__inference_sequential_8_conv_lstm1d_35_while_body_2610_frozen_36115/sequential_8/conv_lstm1d_35/while/convolution_1/ExpandDims_1/dim", "shape": [], "dtype": "int32"}, {"name": "__inference_sequential_8_conv_lstm1d_35_while_body_2610_frozen_36115/sequential_8/conv_lstm1d_35/while/convolution_5/ExpandDims/dim", "shape": [], "dtype": "int32"}, {"name": "__inference_sequential_8_conv_lstm1d_35_while_body_2610_frozen_36115/sequential_8/conv_lstm1d_35/while/convolution_5/ExpandDims_1/dim", "shape": [], "dtype": "int32"}, {"name": "__inference_sequential_8_conv_lstm1d_35_while_body_2610_frozen_36115/sequential_8/conv_lstm1d_35/while/Const_2", "shape": [], "dtype": "float32"}, {"name": "__inference_sequential_8_conv_lstm1d_35_while_body_2610_frozen_36115/sequential_8/conv_lstm1d_35/while/Const_3", "shape": [], "dtype": "float32"}, {"name": "__inference_sequential_8_conv_lstm1d_35_while_body_2610_frozen_36115/sequential_8/conv_lstm1d_35/while/clip_by_value_1/Minimum/y", "shape": [], "dtype": "float32"}, {"name": "__inference_sequential_8_conv_lstm1d_35_while_body_2610_frozen_36115/sequential_8/conv_lstm1d_35/while/clip_by_value_1/y", "shape": [], "dtype": "float32"}, {"name": "__inference_sequential_8_conv_lstm1d_35_while_body_2610_frozen_36115/sequential_8/conv_lstm1d_35/while/convolution/ExpandDims/dim", "shape": [], "dtype": "int32"}, {"name": "__inference_sequential_8_conv_lstm1d_35_while_body_2610_frozen_36115/sequential_8/conv_lstm1d_35/while/convolution/ExpandDims_1/dim", "shape": [], "dtype": "int32"}, {"name": "__inference_sequential_8_conv_lstm1d_35_while_body_2610_frozen_36115/sequential_8/conv_lstm1d_35/while/convolution_4/ExpandDims/dim", "shape": [], "dtype": "int32"}, {"name": "__inference_sequential_8_conv_lstm1d_35_while_body_2610_frozen_36115/sequential_8/conv_lstm1d_35/while/convolution_4/ExpandDims_1/dim", "shape": [], "dtype": "int32"}, {"name": "__inference_sequential_8_conv_lstm1d_35_while_body_2610_frozen_36115/sequential_8/conv_lstm1d_35/while/Const", "shape": [], "dtype": "float32"}, {"name": "__inference_sequential_8_conv_lstm1d_35_while_body_2610_frozen_36115/sequential_8/conv_lstm1d_35/while/Const_1", "shape": [], "dtype": "float32"}, {"name": "__inference_sequential_8_conv_lstm1d_35_while_body_2610_frozen_36115/sequential_8/conv_lstm1d_35/while/clip_by_value/Minimum/y", "shape": [], "dtype": "float32"}, {"name": "__inference_sequential_8_conv_lstm1d_35_while_body_2610_frozen_36115/sequential_8/conv_lstm1d_35/while/clip_by_value/y", "shape": [], "dtype": "float32"}, {"name": "__inference_sequential_8_conv_lstm1d_35_while_body_2610_frozen_36115/sequential_8/conv_lstm1d_35/while/TensorArrayV2Read/TensorListGetItem/element_shape", "shape": [3], "dtype": "int32"}, {"name": "__inference_sequential_8_conv_lstm1d_35_while_body_2610_frozen_36115/sequential_8/conv_lstm1d_35/while/convolution_2/ExpandDims/dim", "shape": [], "dtype": "int32"}, {"name": "__inference_sequential_8_conv_lstm1d_35_while_body_2610_frozen_36115/sequential_8/conv_lstm1d_35/while/split/split_dim", "shape": [], "dtype": "int32"}, {"name": "__inference_sequential_8_conv_lstm1d_35_while_body_2610_frozen_36115/sequential_8/conv_lstm1d_35/while/convolution_2/ExpandDims_1/dim", "shape": [], "dtype": "int32"}, {"name": "__inference_sequential_8_conv_lstm1d_35_while_body_2610_frozen_36115/sequential_8/conv_lstm1d_35/while/split_2/split_dim", "shape": [], "dtype": "int32"}, {"name": "__inference_sequential_8_conv_lstm1d_35_while_body_2610_frozen_36115/sequential_8/conv_lstm1d_35/while/ones_like/Const", "shape": [], "dtype": "float32"}, {"name": "__inference_sequential_8_conv_lstm1d_35_while_body_2610_frozen_36115/sequential_8/conv_lstm1d_35/while/convolution_6/ExpandDims/dim", "shape": [], "dtype": "int32"}, {"name": "__inference_sequential_8_conv_lstm1d_35_while_body_2610_frozen_36115/sequential_8/conv_lstm1d_35/while/split_1/split_dim", "shape": [], "dtype": "int32"}, {"name": "__inference_sequential_8_conv_lstm1d_35_while_body_2610_frozen_36115/sequential_8/conv_lstm1d_35/while/convolution_6/ExpandDims_1/dim", "shape": [], "dtype": "int32"}, {"name": "__inference_sequential_8_conv_lstm1d_35_while_body_2610_frozen_36115/sequential_8/conv_lstm1d_35/while/add_9/y", "shape": [], "dtype": "int32"}]}]}