{"format": "graph-model", "generatedBy": "2.11.0", "convertedBy": "TensorFlow.js Converter v4.2.0", "signature": {"inputs": {"conv_lstm1d_3_input": {"name": "conv_lstm1d_3_input:0", "dtype": "DT_FLOAT", "tensorShape": {"dim": [{"size": "-1"}, {"size": "30"}, {"size": "1662"}, {"size": "1"}]}}}, "outputs": {"dense_3": {"name": "Identity:0", "dtype": "DT_FLOAT", "tensorShape": {"dim": [{"size": "-1"}, {"size": "9"}]}}}}, "modelTopology": {"node": [{"name": "StatefulPartitionedCall/sequential_2/conv_lstm1d_5/while/loop_counter", "op": "Const", "attr": {"value": {"tensor": {"dtype": "DT_INT32", "tensorShape": {}}}, "dtype": {"type": "DT_INT32"}}}, {"name": "StatefulPartitionedCall/sequential_2/conv_lstm1d_5/while/maximum_iterations", "op": "Const", "attr": {"value": {"tensor": {"dtype": "DT_INT32", "tensorShape": {}}}, "dtype": {"type": "DT_INT32"}}}, {"name": "StatefulPartitionedCall/sequential_2/conv_lstm1d_5/time", "op": "Const", "attr": {"dtype": {"type": "DT_INT32"}, "value": {"tensor": {"dtype": "DT_INT32", "tensorShape": {}}}}}, {"name": "StatefulPartitionedCall/sequential_2/conv_lstm1d_5/TensorArrayV2_1/element_shape", "op": "Const", "attr": {"dtype": {"type": "DT_INT32"}, "value": {"tensor": {"dtype": "DT_INT32", "tensorShape": {"dim": [{"size": "3"}]}}}}}, {"name": "StatefulPartitionedCall/sequential_2/conv_lstm1d_5/Sum/reduction_indices", "op": "Const", "attr": {"dtype": {"type": "DT_INT32"}, "value": {"tensor": {"dtype": "DT_INT32", "tensorShape": {}}}}}, {"name": "StatefulPartitionedCall/sequential_2/conv_lstm1d_5/convolution/ExpandDims/dim", "op": "Const", "attr": {"dtype": {"type": "DT_INT32"}, "value": {"tensor": {"dtype": "DT_INT32", "tensorShape": {}}}}}, {"name": "StatefulPartitionedCall/sequential_2/conv_lstm1d_5/convolution/ExpandDims_1", "op": "Const", "attr": {"value": {"tensor": {"dtype": "DT_FLOAT", "tensorShape": {"dim": [{"size": "1"}, {"size": "3"}, {"size": "8"}, {"size": "14"}]}}}, "dtype": {"type": "DT_FLOAT"}}}, {"name": "StatefulPartitionedCall/sequential_2/conv_lstm1d_5/strided_slice/stack", "op": "Const", "attr": {"dtype": {"type": "DT_INT32"}, "value": {"tensor": {"dtype": "DT_INT32", "tensorShape": {"dim": [{"size": "1"}]}}}}}, {"name": "StatefulPartitionedCall/sequential_2/conv_lstm1d_5/strided_slice/stack_1", "op": "Const", "attr": {"dtype": {"type": "DT_INT32"}, "value": {"tensor": {"dtype": "DT_INT32", "tensorShape": {"dim": [{"size": "1"}]}}}}}, {"name": "StatefulPartitionedCall/sequential_2/conv_lstm1d_5/strided_slice/stack_2", "op": "Const", "attr": {"value": {"tensor": {"dtype": "DT_INT32", "tensorShape": {"dim": [{"size": "1"}]}}}, "dtype": {"type": "DT_INT32"}}}, {"name": "StatefulPartitionedCall/sequential_2/conv_lstm1d_4/while/loop_counter", "op": "Const", "attr": {"dtype": {"type": "DT_INT32"}, "value": {"tensor": {"dtype": "DT_INT32", "tensorShape": {}}}}}, {"name": "StatefulPartitionedCall/sequential_2/conv_lstm1d_4/while/maximum_iterations", "op": "Const", "attr": {"dtype": {"type": "DT_INT32"}, "value": {"tensor": {"dtype": "DT_INT32", "tensorShape": {}}}}}, {"name": "StatefulPartitionedCall/sequential_2/conv_lstm1d_4/time", "op": "Const", "attr": {"value": {"tensor": {"dtype": "DT_INT32", "tensorShape": {}}}, "dtype": {"type": "DT_INT32"}}}, {"name": "StatefulPartitionedCall/sequential_2/conv_lstm1d_4/TensorArrayV2_1/element_shape", "op": "Const", "attr": {"dtype": {"type": "DT_INT32"}, "value": {"tensor": {"dtype": "DT_INT32", "tensorShape": {"dim": [{"size": "3"}]}}}}}, {"name": "StatefulPartitionedCall/sequential_2/conv_lstm1d_4/Sum/reduction_indices", "op": "Const", "attr": {"value": {"tensor": {"dtype": "DT_INT32", "tensorShape": {}}}, "dtype": {"type": "DT_INT32"}}}, {"name": "StatefulPartitionedCall/sequential_2/conv_lstm1d_4/convolution/ExpandDims/dim", "op": "Const", "attr": {"value": {"tensor": {"dtype": "DT_INT32", "tensorShape": {}}}, "dtype": {"type": "DT_INT32"}}}, {"name": "StatefulPartitionedCall/sequential_2/conv_lstm1d_4/convolution/ExpandDims_1", "op": "Const", "attr": {"value": {"tensor": {"dtype": "DT_FLOAT", "tensorShape": {"dim": [{"size": "1"}, {"size": "3"}, {"size": "4"}, {"size": "8"}]}}}, "dtype": {"type": "DT_FLOAT"}}}, {"name": "StatefulPartitionedCall/sequential_2/conv_lstm1d_4/strided_slice/stack", "op": "Const", "attr": {"value": {"tensor": {"dtype": "DT_INT32", "tensorShape": {"dim": [{"size": "1"}]}}}, "dtype": {"type": "DT_INT32"}}}, {"name": "StatefulPartitionedCall/sequential_2/conv_lstm1d_4/strided_slice/stack_1", "op": "Const", "attr": {"value": {"tensor": {"dtype": "DT_INT32", "tensorShape": {"dim": [{"size": "1"}]}}}, "dtype": {"type": "DT_INT32"}}}, {"name": "StatefulPartitionedCall/sequential_2/conv_lstm1d_4/strided_slice/stack_2", "op": "Const", "attr": {"value": {"tensor": {"dtype": "DT_INT32", "tensorShape": {"dim": [{"size": "1"}]}}}, "dtype": {"type": "DT_INT32"}}}, {"name": "StatefulPartitionedCall/sequential_2/conv_lstm1d_3/while/loop_counter", "op": "Const", "attr": {"dtype": {"type": "DT_INT32"}, "value": {"tensor": {"dtype": "DT_INT32", "tensorShape": {}}}}}, {"name": "StatefulPartitionedCall/sequential_2/conv_lstm1d_3/while/maximum_iterations", "op": "Const", "attr": {"value": {"tensor": {"dtype": "DT_INT32", "tensorShape": {}}}, "dtype": {"type": "DT_INT32"}}}, {"name": "StatefulPartitionedCall/sequential_2/conv_lstm1d_3/time", "op": "Const", "attr": {"dtype": {"type": "DT_INT32"}, "value": {"tensor": {"dtype": "DT_INT32", "tensorShape": {}}}}}, {"name": "StatefulPartitionedCall/sequential_2/conv_lstm1d_3/TensorArrayV2_1/element_shape", "op": "Const", "attr": {"dtype": {"type": "DT_INT32"}, "value": {"tensor": {"dtype": "DT_INT32", "tensorShape": {"dim": [{"size": "3"}]}}}}}, {"name": "StatefulPartitionedCall/sequential_2/conv_lstm1d_3/Sum/reduction_indices", "op": "Const", "attr": {"value": {"tensor": {"dtype": "DT_INT32", "tensorShape": {}}}, "dtype": {"type": "DT_INT32"}}}, {"name": "StatefulPartitionedCall/sequential_2/conv_lstm1d_3/convolution/ExpandDims/dim", "op": "Const", "attr": {"dtype": {"type": "DT_INT32"}, "value": {"tensor": {"dtype": "DT_INT32", "tensorShape": {}}}}}, {"name": "StatefulPartitionedCall/sequential_2/conv_lstm1d_3/convolution/ExpandDims_1", "op": "Const", "attr": {"dtype": {"type": "DT_FLOAT"}, "value": {"tensor": {"dtype": "DT_FLOAT", "tensorShape": {"dim": [{"size": "1"}, {"size": "3"}, {"size": "1"}, {"size": "4"}]}}}}}, {"name": "StatefulPartitionedCall/sequential_2/conv_lstm1d_3/strided_slice/stack", "op": "Const", "attr": {"dtype": {"type": "DT_INT32"}, "value": {"tensor": {"dtype": "DT_INT32", "tensorShape": {"dim": [{"size": "1"}]}}}}}, {"name": "StatefulPartitionedCall/sequential_2/conv_lstm1d_3/strided_slice/stack_1", "op": "Const", "attr": {"dtype": {"type": "DT_INT32"}, "value": {"tensor": {"dtype": "DT_INT32", "tensorShape": {"dim": [{"size": "1"}]}}}}}, {"name": "StatefulPartitionedCall/sequential_2/conv_lstm1d_3/strided_slice/stack_2", "op": "Const", "attr": {"dtype": {"type": "DT_INT32"}, "value": {"tensor": {"dtype": "DT_INT32", "tensorShape": {"dim": [{"size": "1"}]}}}}}, {"name": "StatefulPartitionedCall/sequential_2/conv_lstm1d_3/transpose/perm", "op": "Const", "attr": {"value": {"tensor": {"dtype": "DT_INT32", "tensorShape": {"dim": [{"size": "4"}]}}}, "dtype": {"type": "DT_INT32"}}}, {"name": "StatefulPartitionedCall/sequential_2/conv_lstm1d_3/TensorArrayUnstack/TensorListFromTensor/element_shape", "op": "Const", "attr": {"value": {"tensor": {"dtype": "DT_INT32", "tensorShape": {"dim": [{"size": "3"}]}}}, "dtype": {"type": "DT_INT32"}}}, {"name": "unknown", "op": "Const", "attr": {"value": {"tensor": {"dtype": "DT_FLOAT", "tensorShape": {"dim": [{"size": "3"}, {"size": "1"}, {"size": "16"}]}}}, "dtype": {"type": "DT_FLOAT"}}}, {"name": "unknown_0", "op": "Const", "attr": {"dtype": {"type": "DT_FLOAT"}, "value": {"tensor": {"dtype": "DT_FLOAT", "tensorShape": {"dim": [{"size": "3"}, {"size": "4"}, {"size": "16"}]}}}}}, {"name": "unknown_1", "op": "Const", "attr": {"dtype": {"type": "DT_FLOAT"}, "value": {"tensor": {"dtype": "DT_FLOAT", "tensorShape": {"dim": [{"size": "16"}]}}}}}, {"name": "StatefulPartitionedCall/sequential_2/conv_lstm1d_3/TensorArrayV2Stack/TensorListStack/element_shape", "op": "Const", "attr": {"dtype": {"type": "DT_INT32"}, "value": {"tensor": {"dtype": "DT_INT32", "tensorShape": {"dim": [{"size": "3"}]}}}}}, {"name": "StatefulPartitionedCall/sequential_2/conv_lstm1d_3/transpose_1/perm", "op": "Const", "attr": {"value": {"tensor": {"dtype": "DT_INT32", "tensorShape": {"dim": [{"size": "4"}]}}}, "dtype": {"type": "DT_INT32"}}}, {"name": "StatefulPartitionedCall/sequential_2/time_distributed_5/Reshape_1/shape", "op": "Const", "attr": {"dtype": {"type": "DT_INT32"}, "value": {"tensor": {"dtype": "DT_INT32", "tensorShape": {"dim": [{"size": "4"}]}}}}}, {"name": "StatefulPartitionedCall/sequential_2/conv_lstm1d_4/transpose/perm", "op": "Const", "attr": {"dtype": {"type": "DT_INT32"}, "value": {"tensor": {"dtype": "DT_INT32", "tensorShape": {"dim": [{"size": "4"}]}}}}}, {"name": "StatefulPartitionedCall/sequential_2/conv_lstm1d_4/TensorArrayUnstack/TensorListFromTensor/element_shape", "op": "Const", "attr": {"dtype": {"type": "DT_INT32"}, "value": {"tensor": {"dtype": "DT_INT32", "tensorShape": {"dim": [{"size": "3"}]}}}}}, {"name": "unknown_2", "op": "Const", "attr": {"value": {"tensor": {"dtype": "DT_FLOAT", "tensorShape": {"dim": [{"size": "3"}, {"size": "4"}, {"size": "32"}]}}}, "dtype": {"type": "DT_FLOAT"}}}, {"name": "unknown_3", "op": "Const", "attr": {"dtype": {"type": "DT_FLOAT"}, "value": {"tensor": {"dtype": "DT_FLOAT", "tensorShape": {"dim": [{"size": "3"}, {"size": "8"}, {"size": "32"}]}}}}}, {"name": "unknown_4", "op": "Const", "attr": {"value": {"tensor": {"dtype": "DT_FLOAT", "tensorShape": {"dim": [{"size": "32"}]}}}, "dtype": {"type": "DT_FLOAT"}}}, {"name": "StatefulPartitionedCall/sequential_2/conv_lstm1d_4/TensorArrayV2Stack/TensorListStack/element_shape", "op": "Const", "attr": {"dtype": {"type": "DT_INT32"}, "value": {"tensor": {"dtype": "DT_INT32", "tensorShape": {"dim": [{"size": "3"}]}}}}}, {"name": "StatefulPartitionedCall/sequential_2/conv_lstm1d_4/transpose_1/perm", "op": "Const", "attr": {"value": {"tensor": {"dtype": "DT_INT32", "tensorShape": {"dim": [{"size": "4"}]}}}, "dtype": {"type": "DT_INT32"}}}, {"name": "StatefulPartitionedCall/sequential_2/time_distributed_6/Reshape_1/shape", "op": "Const", "attr": {"dtype": {"type": "DT_INT32"}, "value": {"tensor": {"dtype": "DT_INT32", "tensorShape": {"dim": [{"size": "4"}]}}}}}, {"name": "StatefulPartitionedCall/sequential_2/conv_lstm1d_5/transpose/perm", "op": "Const", "attr": {"value": {"tensor": {"dtype": "DT_INT32", "tensorShape": {"dim": [{"size": "4"}]}}}, "dtype": {"type": "DT_INT32"}}}, {"name": "StatefulPartitionedCall/sequential_2/conv_lstm1d_5/TensorArrayUnstack/TensorListFromTensor/element_shape", "op": "Const", "attr": {"dtype": {"type": "DT_INT32"}, "value": {"tensor": {"dtype": "DT_INT32", "tensorShape": {"dim": [{"size": "3"}]}}}}}, {"name": "unknown_5", "op": "Const", "attr": {"value": {"tensor": {"dtype": "DT_FLOAT", "tensorShape": {"dim": [{"size": "3"}, {"size": "8"}, {"size": "56"}]}}}, "dtype": {"type": "DT_FLOAT"}}}, {"name": "unknown_6", "op": "Const", "attr": {"value": {"tensor": {"dtype": "DT_FLOAT", "tensorShape": {"dim": [{"size": "3"}, {"size": "14"}, {"size": "56"}]}}}, "dtype": {"type": "DT_FLOAT"}}}, {"name": "unknown_7", "op": "Const", "attr": {"value": {"tensor": {"dtype": "DT_FLOAT", "tensorShape": {"dim": [{"size": "56"}]}}}, "dtype": {"type": "DT_FLOAT"}}}, {"name": "StatefulPartitionedCall/sequential_2/conv_lstm1d_5/TensorArrayV2Stack/TensorListStack/element_shape", "op": "Const", "attr": {"dtype": {"type": "DT_INT32"}, "value": {"tensor": {"dtype": "DT_INT32", "tensorShape": {"dim": [{"size": "3"}]}}}}}, {"name": "StatefulPartitionedCall/sequential_2/conv_lstm1d_5/transpose_1/perm", "op": "Const", "attr": {"value": {"tensor": {"dtype": "DT_INT32", "tensorShape": {"dim": [{"size": "4"}]}}}, "dtype": {"type": "DT_INT32"}}}, {"name": "StatefulPartitionedCall/sequential_2/flatten_2/Const", "op": "Const", "attr": {"value": {"tensor": {"dtype": "DT_INT32", "tensorShape": {"dim": [{"size": "2"}]}}}, "dtype": {"type": "DT_INT32"}}}, {"name": "StatefulPartitionedCall/sequential_2/dense_3/MatMul/ReadVariableOp", "op": "Const", "attr": {"dtype": {"type": "DT_FLOAT"}, "value": {"tensor": {"dtype": "DT_FLOAT", "tensorShape": {"dim": [{"size": "86520"}, {"size": "9"}]}}}}}, {"name": "StatefulPartitionedCall/sequential_2/dense_3/BiasAdd/ReadVariableOp", "op": "Const", "attr": {"dtype": {"type": "DT_FLOAT"}, "value": {"tensor": {"dtype": "DT_FLOAT", "tensorShape": {"dim": [{"size": "9"}]}}}}}, {"name": "conv_lstm1d_3_input", "op": "Placeholder", "attr": {"shape": {"shape": {"dim": [{"size": "-1"}, {"size": "30"}, {"size": "1662"}, {"size": "1"}]}}, "dtype": {"type": "DT_FLOAT"}}}, {"name": "StatefulPartitionedCall/sequential_2/conv_lstm1d_3/zeros_like", "op": "ZerosLike", "input": ["conv_lstm1d_3_input"], "attr": {"T": {"type": "DT_FLOAT"}}}, {"name": "StatefulPartitionedCall/sequential_2/conv_lstm1d_3/transpose", "op": "Transpose", "input": ["conv_lstm1d_3_input", "StatefulPartitionedCall/sequential_2/conv_lstm1d_3/transpose/perm"], "attr": {"Tperm": {"type": "DT_INT32"}, "T": {"type": "DT_FLOAT"}}}, {"name": "StatefulPartitionedCall/sequential_2/conv_lstm1d_3/Sum", "op": "Sum", "input": ["StatefulPartitionedCall/sequential_2/conv_lstm1d_3/zeros_like", "StatefulPartitionedCall/sequential_2/conv_lstm1d_3/Sum/reduction_indices"], "attr": {"Tidx": {"type": "DT_INT32"}, "keep_dims": {"b": false}, "T": {"type": "DT_FLOAT"}}}, {"name": "StatefulPartitionedCall/sequential_2/conv_lstm1d_3/Shape", "op": "Shape", "input": ["StatefulPartitionedCall/sequential_2/conv_lstm1d_3/transpose"], "attr": {"out_type": {"type": "DT_INT32"}, "T": {"type": "DT_FLOAT"}}}, {"name": "StatefulPartitionedCall/sequential_2/conv_lstm1d_3/TensorArrayUnstack/TensorListFromTensor", "op": "TensorListFromTensor", "input": ["StatefulPartitionedCall/sequential_2/conv_lstm1d_3/transpose", "StatefulPartitionedCall/sequential_2/conv_lstm1d_3/TensorArrayUnstack/TensorListFromTensor/element_shape"], "attr": {"shape_type": {"type": "DT_INT32"}, "element_dtype": {"type": "DT_FLOAT"}}, "experimentalType": {"typeId": "TFT_PRODUCT", "args": [{"typeId": "TFT_ARRAY", "args": [{"typeId": "TFT_TENSOR", "args": [{"typeId": "TFT_FLOAT"}]}]}]}}, {"name": "StatefulPartitionedCall/sequential_2/conv_lstm1d_3/convolution/ExpandDims", "op": "ExpandDims", "input": ["StatefulPartitionedCall/sequential_2/conv_lstm1d_3/Sum", "StatefulPartitionedCall/sequential_2/conv_lstm1d_3/convolution/ExpandDims/dim"], "attr": {"T": {"type": "DT_FLOAT"}, "Tdim": {"type": "DT_INT32"}}}, {"name": "StatefulPartitionedCall/sequential_2/conv_lstm1d_3/strided_slice", "op": "StridedSlice", "input": ["StatefulPartitionedCall/sequential_2/conv_lstm1d_3/Shape", "StatefulPartitionedCall/sequential_2/conv_lstm1d_3/strided_slice/stack", "StatefulPartitionedCall/sequential_2/conv_lstm1d_3/strided_slice/stack_1", "StatefulPartitionedCall/sequential_2/conv_lstm1d_3/strided_slice/stack_2"], "attr": {"Index": {"type": "DT_INT32"}, "ellipsis_mask": {"i": "0"}, "T": {"type": "DT_INT32"}, "new_axis_mask": {"i": "0"}, "begin_mask": {"i": "0"}, "end_mask": {"i": "0"}, "shrink_axis_mask": {"i": "1"}}}, {"name": "StatefulPartitionedCall/sequential_2/conv_lstm1d_3/convolution", "op": "Conv2D", "input": ["StatefulPartitionedCall/sequential_2/conv_lstm1d_3/convolution/ExpandDims", "StatefulPartitionedCall/sequential_2/conv_lstm1d_3/convolution/ExpandDims_1"], "device": "/device:CPU:0", "attr": {"dilations": {"list": {"i": ["1", "1", "1", "1"]}}, "T": {"type": "DT_FLOAT"}, "padding": {"s": "VkFMSUQ="}, "use_cudnn_on_gpu": {"b": true}, "data_format": {"s": "TkhXQw=="}, "explicit_paddings": {"list": {}}, "strides": {"list": {"i": ["1", "1", "1", "1"]}}}}, {"name": "StatefulPartitionedCall/sequential_2/conv_lstm1d_3/TensorArrayV2_1", "op": "TensorListReserve", "input": ["StatefulPartitionedCall/sequential_2/conv_lstm1d_3/TensorArrayV2_1/element_shape", "StatefulPartitionedCall/sequential_2/conv_lstm1d_3/strided_slice"], "attr": {"shape_type": {"type": "DT_INT32"}, "element_dtype": {"type": "DT_FLOAT"}}, "experimentalType": {"typeId": "TFT_PRODUCT", "args": [{"typeId": "TFT_ARRAY", "args": [{"typeId": "TFT_TENSOR", "args": [{"typeId": "TFT_FLOAT"}]}]}]}}, {"name": "StatefulPartitionedCall/sequential_2/conv_lstm1d_3/convolution/Squeeze", "op": "Squeeze", "input": ["StatefulPartitionedCall/sequential_2/conv_lstm1d_3/convolution"], "attr": {"T": {"type": "DT_FLOAT"}, "squeeze_dims": {"list": {"i": ["-3"]}}}}, {"name": "StatefulPartitionedCall/sequential_2/conv_lstm1d_3/while", "op": "While", "input": ["StatefulPartitionedCall/sequential_2/conv_lstm1d_3/while/loop_counter", "StatefulPartitionedCall/sequential_2/conv_lstm1d_3/while/maximum_iterations", "StatefulPartitionedCall/sequential_2/conv_lstm1d_3/time", "StatefulPartitionedCall/sequential_2/conv_lstm1d_3/TensorArrayV2_1", "StatefulPartitionedCall/sequential_2/conv_lstm1d_3/convolution/Squeeze", "StatefulPartitionedCall/sequential_2/conv_lstm1d_3/convolution/Squeeze", "StatefulPartitionedCall/sequential_2/conv_lstm1d_3/strided_slice", "StatefulPartitionedCall/sequential_2/conv_lstm1d_3/TensorArrayUnstack/TensorListFromTensor", "unknown", "unknown_0", "unknown_1"], "attr": {"_lower_using_switch_merge": {"b": false}, "_stateful_parallelism": {"b": false}, "_num_original_outputs": {"i": "11"}, "parallel_iterations": {"i": "32"}, "body": {"func": {"name": "__inference_sequential_2_conv_lstm1d_3_while_body_2504_frozen_12869"}}, "_read_only_resource_inputs": {"list": {"i": ["8", "9", "10"]}}, "_has_manual_control_dependencies": {"b": true}, "T": {"list": {"type": ["DT_INT32", "DT_INT32", "DT_INT32", "DT_VARIANT", "DT_FLOAT", "DT_FLOAT", "DT_INT32", "DT_VARIANT", "DT_FLOAT", "DT_FLOAT", "DT_FLOAT"]}}, "cond": {"func": {"name": "__inference_sequential_2_conv_lstm1d_3_while_cond_2503_frozen_12864"}}, "output_shapes": {"list": {"shape": [{}, {}, {}, {}, {"dim": [{"size": "-1"}, {"size": "1660"}, {"size": "4"}]}, {"dim": [{"size": "-1"}, {"size": "1660"}, {"size": "4"}]}, {}, {}, {"dim": [{"size": "3"}, {"size": "1"}, {"size": "16"}]}, {"dim": [{"size": "3"}, {"size": "4"}, {"size": "16"}]}, {"dim": [{"size": "16"}]}]}}}}, {"name": "StatefulPartitionedCall/sequential_2/conv_lstm1d_3/TensorArrayV2Stack/TensorListStack", "op": "TensorListStack", "input": ["StatefulPartitionedCall/sequential_2/conv_lstm1d_3/while:3", "StatefulPartitionedCall/sequential_2/conv_lstm1d_3/TensorArrayV2Stack/TensorListStack/element_shape"], "attr": {"element_dtype": {"type": "DT_FLOAT"}, "num_elements": {"i": "-1"}}}, {"name": "StatefulPartitionedCall/sequential_2/conv_lstm1d_3/transpose_1", "op": "Transpose", "input": ["StatefulPartitionedCall/sequential_2/conv_lstm1d_3/TensorArrayV2Stack/TensorListStack", "StatefulPartitionedCall/sequential_2/conv_lstm1d_3/transpose_1/perm"], "attr": {"T": {"type": "DT_FLOAT"}, "Tperm": {"type": "DT_INT32"}}}, {"name": "StatefulPartitionedCall/sequential_2/max_pooling2d_4/MaxPool", "op": "MaxPool", "input": ["StatefulPartitionedCall/sequential_2/conv_lstm1d_3/transpose_1"], "attr": {"padding": {"s": "U0FNRQ=="}, "ksize": {"list": {"i": ["1", "1", "2", "1"]}}, "T": {"type": "DT_FLOAT"}, "data_format": {"s": "TkhXQw=="}, "explicit_paddings": {"list": {}}, "strides": {"list": {"i": ["1", "1", "2", "1"]}}}}, {"name": "StatefulPartitionedCall/sequential_2/time_distributed_5/Reshape_1", "op": "Reshape", "input": ["StatefulPartitionedCall/sequential_2/max_pooling2d_4/MaxPool", "StatefulPartitionedCall/sequential_2/time_distributed_5/Reshape_1/shape"], "attr": {"T": {"type": "DT_FLOAT"}, "Tshape": {"type": "DT_INT32"}}}, {"name": "StatefulPartitionedCall/sequential_2/conv_lstm1d_4/zeros_like", "op": "ZerosLike", "input": ["StatefulPartitionedCall/sequential_2/time_distributed_5/Reshape_1"], "attr": {"T": {"type": "DT_FLOAT"}}}, {"name": "StatefulPartitionedCall/sequential_2/conv_lstm1d_4/transpose", "op": "Transpose", "input": ["StatefulPartitionedCall/sequential_2/time_distributed_5/Reshape_1", "StatefulPartitionedCall/sequential_2/conv_lstm1d_4/transpose/perm"], "attr": {"T": {"type": "DT_FLOAT"}, "Tperm": {"type": "DT_INT32"}}}, {"name": "StatefulPartitionedCall/sequential_2/conv_lstm1d_4/Sum", "op": "Sum", "input": ["StatefulPartitionedCall/sequential_2/conv_lstm1d_4/zeros_like", "StatefulPartitionedCall/sequential_2/conv_lstm1d_4/Sum/reduction_indices"], "attr": {"keep_dims": {"b": false}, "T": {"type": "DT_FLOAT"}, "Tidx": {"type": "DT_INT32"}}}, {"name": "StatefulPartitionedCall/sequential_2/conv_lstm1d_4/Shape", "op": "Shape", "input": ["StatefulPartitionedCall/sequential_2/conv_lstm1d_4/transpose"], "attr": {"T": {"type": "DT_FLOAT"}, "out_type": {"type": "DT_INT32"}}}, {"name": "StatefulPartitionedCall/sequential_2/conv_lstm1d_4/TensorArrayUnstack/TensorListFromTensor", "op": "TensorListFromTensor", "input": ["StatefulPartitionedCall/sequential_2/conv_lstm1d_4/transpose", "StatefulPartitionedCall/sequential_2/conv_lstm1d_4/TensorArrayUnstack/TensorListFromTensor/element_shape"], "attr": {"element_dtype": {"type": "DT_FLOAT"}, "shape_type": {"type": "DT_INT32"}}, "experimentalType": {"typeId": "TFT_PRODUCT", "args": [{"typeId": "TFT_ARRAY", "args": [{"typeId": "TFT_TENSOR", "args": [{"typeId": "TFT_FLOAT"}]}]}]}}, {"name": "StatefulPartitionedCall/sequential_2/conv_lstm1d_4/convolution/ExpandDims", "op": "ExpandDims", "input": ["StatefulPartitionedCall/sequential_2/conv_lstm1d_4/Sum", "StatefulPartitionedCall/sequential_2/conv_lstm1d_4/convolution/ExpandDims/dim"], "attr": {"T": {"type": "DT_FLOAT"}, "Tdim": {"type": "DT_INT32"}}}, {"name": "StatefulPartitionedCall/sequential_2/conv_lstm1d_4/strided_slice", "op": "StridedSlice", "input": ["StatefulPartitionedCall/sequential_2/conv_lstm1d_4/Shape", "StatefulPartitionedCall/sequential_2/conv_lstm1d_4/strided_slice/stack", "StatefulPartitionedCall/sequential_2/conv_lstm1d_4/strided_slice/stack_1", "StatefulPartitionedCall/sequential_2/conv_lstm1d_4/strided_slice/stack_2"], "attr": {"begin_mask": {"i": "0"}, "new_axis_mask": {"i": "0"}, "ellipsis_mask": {"i": "0"}, "end_mask": {"i": "0"}, "T": {"type": "DT_INT32"}, "Index": {"type": "DT_INT32"}, "shrink_axis_mask": {"i": "1"}}}, {"name": "StatefulPartitionedCall/sequential_2/conv_lstm1d_4/convolution", "op": "Conv2D", "input": ["StatefulPartitionedCall/sequential_2/conv_lstm1d_4/convolution/ExpandDims", "StatefulPartitionedCall/sequential_2/conv_lstm1d_4/convolution/ExpandDims_1"], "device": "/device:CPU:0", "attr": {"T": {"type": "DT_FLOAT"}, "padding": {"s": "VkFMSUQ="}, "use_cudnn_on_gpu": {"b": true}, "strides": {"list": {"i": ["1", "1", "1", "1"]}}, "dilations": {"list": {"i": ["1", "1", "1", "1"]}}, "data_format": {"s": "TkhXQw=="}, "explicit_paddings": {"list": {}}}}, {"name": "StatefulPartitionedCall/sequential_2/conv_lstm1d_4/TensorArrayV2_1", "op": "TensorListReserve", "input": ["StatefulPartitionedCall/sequential_2/conv_lstm1d_4/TensorArrayV2_1/element_shape", "StatefulPartitionedCall/sequential_2/conv_lstm1d_4/strided_slice"], "attr": {"shape_type": {"type": "DT_INT32"}, "element_dtype": {"type": "DT_FLOAT"}}, "experimentalType": {"typeId": "TFT_PRODUCT", "args": [{"typeId": "TFT_ARRAY", "args": [{"typeId": "TFT_TENSOR", "args": [{"typeId": "TFT_FLOAT"}]}]}]}}, {"name": "StatefulPartitionedCall/sequential_2/conv_lstm1d_4/convolution/Squeeze", "op": "Squeeze", "input": ["StatefulPartitionedCall/sequential_2/conv_lstm1d_4/convolution"], "attr": {"squeeze_dims": {"list": {"i": ["-3"]}}, "T": {"type": "DT_FLOAT"}}}, {"name": "StatefulPartitionedCall/sequential_2/conv_lstm1d_4/while", "op": "While", "input": ["StatefulPartitionedCall/sequential_2/conv_lstm1d_4/while/loop_counter", "StatefulPartitionedCall/sequential_2/conv_lstm1d_4/while/maximum_iterations", "StatefulPartitionedCall/sequential_2/conv_lstm1d_4/time", "StatefulPartitionedCall/sequential_2/conv_lstm1d_4/TensorArrayV2_1", "StatefulPartitionedCall/sequential_2/conv_lstm1d_4/convolution/Squeeze", "StatefulPartitionedCall/sequential_2/conv_lstm1d_4/convolution/Squeeze", "StatefulPartitionedCall/sequential_2/conv_lstm1d_4/strided_slice", "StatefulPartitionedCall/sequential_2/conv_lstm1d_4/TensorArrayUnstack/TensorListFromTensor", "unknown_2", "unknown_3", "unknown_4"], "attr": {"_num_original_outputs": {"i": "11"}, "T": {"list": {"type": ["DT_INT32", "DT_INT32", "DT_INT32", "DT_VARIANT", "DT_FLOAT", "DT_FLOAT", "DT_INT32", "DT_VARIANT", "DT_FLOAT", "DT_FLOAT", "DT_FLOAT"]}}, "_stateful_parallelism": {"b": false}, "_lower_using_switch_merge": {"b": false}, "_has_manual_control_dependencies": {"b": true}, "_read_only_resource_inputs": {"list": {"i": ["8", "9", "10"]}}, "parallel_iterations": {"i": "32"}, "body": {"func": {"name": "__inference_sequential_2_conv_lstm1d_4_while_body_2827_frozen_12866"}}, "cond": {"func": {"name": "__inference_sequential_2_conv_lstm1d_4_while_cond_2826_frozen_12867"}}, "output_shapes": {"list": {"shape": [{}, {}, {}, {}, {"dim": [{"size": "-1"}, {"size": "828"}, {"size": "8"}]}, {"dim": [{"size": "-1"}, {"size": "828"}, {"size": "8"}]}, {}, {}, {"dim": [{"size": "3"}, {"size": "4"}, {"size": "32"}]}, {"dim": [{"size": "3"}, {"size": "8"}, {"size": "32"}]}, {"dim": [{"size": "32"}]}]}}}}, {"name": "StatefulPartitionedCall/sequential_2/conv_lstm1d_4/TensorArrayV2Stack/TensorListStack", "op": "TensorListStack", "input": ["StatefulPartitionedCall/sequential_2/conv_lstm1d_4/while:3", "StatefulPartitionedCall/sequential_2/conv_lstm1d_4/TensorArrayV2Stack/TensorListStack/element_shape"], "attr": {"num_elements": {"i": "-1"}, "element_dtype": {"type": "DT_FLOAT"}}}, {"name": "StatefulPartitionedCall/sequential_2/conv_lstm1d_4/transpose_1", "op": "Transpose", "input": ["StatefulPartitionedCall/sequential_2/conv_lstm1d_4/TensorArrayV2Stack/TensorListStack", "StatefulPartitionedCall/sequential_2/conv_lstm1d_4/transpose_1/perm"], "attr": {"T": {"type": "DT_FLOAT"}, "Tperm": {"type": "DT_INT32"}}}, {"name": "StatefulPartitionedCall/sequential_2/max_pooling2d_5/MaxPool", "op": "MaxPool", "input": ["StatefulPartitionedCall/sequential_2/conv_lstm1d_4/transpose_1"], "attr": {"data_format": {"s": "TkhXQw=="}, "explicit_paddings": {"list": {}}, "ksize": {"list": {"i": ["1", "1", "2", "1"]}}, "T": {"type": "DT_FLOAT"}, "strides": {"list": {"i": ["1", "1", "2", "1"]}}, "padding": {"s": "U0FNRQ=="}}}, {"name": "StatefulPartitionedCall/sequential_2/time_distributed_6/Reshape_1", "op": "Reshape", "input": ["StatefulPartitionedCall/sequential_2/max_pooling2d_5/MaxPool", "StatefulPartitionedCall/sequential_2/time_distributed_6/Reshape_1/shape"], "attr": {"T": {"type": "DT_FLOAT"}, "Tshape": {"type": "DT_INT32"}}}, {"name": "StatefulPartitionedCall/sequential_2/conv_lstm1d_5/zeros_like", "op": "ZerosLike", "input": ["StatefulPartitionedCall/sequential_2/time_distributed_6/Reshape_1"], "attr": {"T": {"type": "DT_FLOAT"}}}, {"name": "StatefulPartitionedCall/sequential_2/conv_lstm1d_5/transpose", "op": "Transpose", "input": ["StatefulPartitionedCall/sequential_2/time_distributed_6/Reshape_1", "StatefulPartitionedCall/sequential_2/conv_lstm1d_5/transpose/perm"], "attr": {"T": {"type": "DT_FLOAT"}, "Tperm": {"type": "DT_INT32"}}}, {"name": "StatefulPartitionedCall/sequential_2/conv_lstm1d_5/Sum", "op": "Sum", "input": ["StatefulPartitionedCall/sequential_2/conv_lstm1d_5/zeros_like", "StatefulPartitionedCall/sequential_2/conv_lstm1d_5/Sum/reduction_indices"], "attr": {"T": {"type": "DT_FLOAT"}, "keep_dims": {"b": false}, "Tidx": {"type": "DT_INT32"}}}, {"name": "StatefulPartitionedCall/sequential_2/conv_lstm1d_5/Shape", "op": "Shape", "input": ["StatefulPartitionedCall/sequential_2/conv_lstm1d_5/transpose"], "attr": {"out_type": {"type": "DT_INT32"}, "T": {"type": "DT_FLOAT"}}}, {"name": "StatefulPartitionedCall/sequential_2/conv_lstm1d_5/TensorArrayUnstack/TensorListFromTensor", "op": "TensorListFromTensor", "input": ["StatefulPartitionedCall/sequential_2/conv_lstm1d_5/transpose", "StatefulPartitionedCall/sequential_2/conv_lstm1d_5/TensorArrayUnstack/TensorListFromTensor/element_shape"], "attr": {"shape_type": {"type": "DT_INT32"}, "element_dtype": {"type": "DT_FLOAT"}}, "experimentalType": {"typeId": "TFT_PRODUCT", "args": [{"typeId": "TFT_ARRAY", "args": [{"typeId": "TFT_TENSOR", "args": [{"typeId": "TFT_FLOAT"}]}]}]}}, {"name": "StatefulPartitionedCall/sequential_2/conv_lstm1d_5/convolution/ExpandDims", "op": "ExpandDims", "input": ["StatefulPartitionedCall/sequential_2/conv_lstm1d_5/Sum", "StatefulPartitionedCall/sequential_2/conv_lstm1d_5/convolution/ExpandDims/dim"], "attr": {"T": {"type": "DT_FLOAT"}, "Tdim": {"type": "DT_INT32"}}}, {"name": "StatefulPartitionedCall/sequential_2/conv_lstm1d_5/strided_slice", "op": "StridedSlice", "input": ["StatefulPartitionedCall/sequential_2/conv_lstm1d_5/Shape", "StatefulPartitionedCall/sequential_2/conv_lstm1d_5/strided_slice/stack", "StatefulPartitionedCall/sequential_2/conv_lstm1d_5/strided_slice/stack_1", "StatefulPartitionedCall/sequential_2/conv_lstm1d_5/strided_slice/stack_2"], "attr": {"new_axis_mask": {"i": "0"}, "begin_mask": {"i": "0"}, "shrink_axis_mask": {"i": "1"}, "T": {"type": "DT_INT32"}, "ellipsis_mask": {"i": "0"}, "end_mask": {"i": "0"}, "Index": {"type": "DT_INT32"}}}, {"name": "StatefulPartitionedCall/sequential_2/conv_lstm1d_5/convolution", "op": "Conv2D", "input": ["StatefulPartitionedCall/sequential_2/conv_lstm1d_5/convolution/ExpandDims", "StatefulPartitionedCall/sequential_2/conv_lstm1d_5/convolution/ExpandDims_1"], "device": "/device:CPU:0", "attr": {"padding": {"s": "VkFMSUQ="}, "explicit_paddings": {"list": {}}, "dilations": {"list": {"i": ["1", "1", "1", "1"]}}, "strides": {"list": {"i": ["1", "1", "1", "1"]}}, "data_format": {"s": "TkhXQw=="}, "use_cudnn_on_gpu": {"b": true}, "T": {"type": "DT_FLOAT"}}}, {"name": "StatefulPartitionedCall/sequential_2/conv_lstm1d_5/TensorArrayV2_1", "op": "TensorListReserve", "input": ["StatefulPartitionedCall/sequential_2/conv_lstm1d_5/TensorArrayV2_1/element_shape", "StatefulPartitionedCall/sequential_2/conv_lstm1d_5/strided_slice"], "attr": {"shape_type": {"type": "DT_INT32"}, "element_dtype": {"type": "DT_FLOAT"}}, "experimentalType": {"typeId": "TFT_PRODUCT", "args": [{"typeId": "TFT_ARRAY", "args": [{"typeId": "TFT_TENSOR", "args": [{"typeId": "TFT_FLOAT"}]}]}]}}, {"name": "StatefulPartitionedCall/sequential_2/conv_lstm1d_5/convolution/Squeeze", "op": "Squeeze", "input": ["StatefulPartitionedCall/sequential_2/conv_lstm1d_5/convolution"], "attr": {"T": {"type": "DT_FLOAT"}, "squeeze_dims": {"list": {"i": ["-3"]}}}}, {"name": "StatefulPartitionedCall/sequential_2/conv_lstm1d_5/while", "op": "While", "input": ["StatefulPartitionedCall/sequential_2/conv_lstm1d_5/while/loop_counter", "StatefulPartitionedCall/sequential_2/conv_lstm1d_5/while/maximum_iterations", "StatefulPartitionedCall/sequential_2/conv_lstm1d_5/time", "StatefulPartitionedCall/sequential_2/conv_lstm1d_5/TensorArrayV2_1", "StatefulPartitionedCall/sequential_2/conv_lstm1d_5/convolution/Squeeze", "StatefulPartitionedCall/sequential_2/conv_lstm1d_5/convolution/Squeeze", "StatefulPartitionedCall/sequential_2/conv_lstm1d_5/strided_slice", "StatefulPartitionedCall/sequential_2/conv_lstm1d_5/TensorArrayUnstack/TensorListFromTensor", "unknown_5", "unknown_6", "unknown_7"], "attr": {"T": {"list": {"type": ["DT_INT32", "DT_INT32", "DT_INT32", "DT_VARIANT", "DT_FLOAT", "DT_FLOAT", "DT_INT32", "DT_VARIANT", "DT_FLOAT", "DT_FLOAT", "DT_FLOAT"]}}, "output_shapes": {"list": {"shape": [{}, {}, {}, {}, {"dim": [{"size": "-1"}, {"size": "412"}, {"size": "14"}]}, {"dim": [{"size": "-1"}, {"size": "412"}, {"size": "14"}]}, {}, {}, {"dim": [{"size": "3"}, {"size": "8"}, {"size": "56"}]}, {"dim": [{"size": "3"}, {"size": "14"}, {"size": "56"}]}, {"dim": [{"size": "56"}]}]}}, "cond": {"func": {"name": "__inference_sequential_2_conv_lstm1d_5_while_cond_3149_frozen_12865"}}, "_stateful_parallelism": {"b": false}, "body": {"func": {"name": "__inference_sequential_2_conv_lstm1d_5_while_body_3150_frozen_12868"}}, "parallel_iterations": {"i": "32"}, "_has_manual_control_dependencies": {"b": true}, "_read_only_resource_inputs": {"list": {"i": ["8", "9", "10"]}}, "_lower_using_switch_merge": {"b": false}, "_num_original_outputs": {"i": "11"}}}, {"name": "StatefulPartitionedCall/sequential_2/conv_lstm1d_5/TensorArrayV2Stack/TensorListStack", "op": "TensorListStack", "input": ["StatefulPartitionedCall/sequential_2/conv_lstm1d_5/while:3", "StatefulPartitionedCall/sequential_2/conv_lstm1d_5/TensorArrayV2Stack/TensorListStack/element_shape"], "attr": {"num_elements": {"i": "-1"}, "element_dtype": {"type": "DT_FLOAT"}}}, {"name": "StatefulPartitionedCall/sequential_2/conv_lstm1d_5/transpose_1", "op": "Transpose", "input": ["StatefulPartitionedCall/sequential_2/conv_lstm1d_5/TensorArrayV2Stack/TensorListStack", "StatefulPartitionedCall/sequential_2/conv_lstm1d_5/transpose_1/perm"], "attr": {"Tperm": {"type": "DT_INT32"}, "T": {"type": "DT_FLOAT"}}}, {"name": "StatefulPartitionedCall/sequential_2/max_pooling2d_6/MaxPool", "op": "MaxPool", "input": ["StatefulPartitionedCall/sequential_2/conv_lstm1d_5/transpose_1"], "attr": {"T": {"type": "DT_FLOAT"}, "strides": {"list": {"i": ["1", "1", "2", "1"]}}, "padding": {"s": "U0FNRQ=="}, "explicit_paddings": {"list": {}}, "ksize": {"list": {"i": ["1", "1", "2", "1"]}}, "data_format": {"s": "TkhXQw=="}}}, {"name": "StatefulPartitionedCall/sequential_2/flatten_2/Reshape", "op": "Reshape", "input": ["StatefulPartitionedCall/sequential_2/max_pooling2d_6/MaxPool", "StatefulPartitionedCall/sequential_2/flatten_2/Const"], "attr": {"Tshape": {"type": "DT_INT32"}, "T": {"type": "DT_FLOAT"}}}, {"name": "StatefulPartitionedCall/sequential_2/dense_3/BiasAdd", "op": "_FusedMatMul", "input": ["StatefulPartitionedCall/sequential_2/flatten_2/Reshape", "StatefulPartitionedCall/sequential_2/dense_3/MatMul/ReadVariableOp", "StatefulPartitionedCall/sequential_2/dense_3/BiasAdd/ReadVariableOp"], "device": "/device:CPU:0", "attr": {"fused_ops": {"list": {"s": ["Qmlhc0FkZA=="]}}, "leakyrelu_alpha": {"f": 0.2}, "transpose_a": {"b": false}, "transpose_b": {"b": false}, "epsilon": {"f": 0.0}, "T": {"type": "DT_FLOAT"}, "num_args": {"i": "1"}}}, {"name": "StatefulPartitionedCall/sequential_2/dense_3/Softmax", "op": "Softmax", "input": ["StatefulPartitionedCall/sequential_2/dense_3/BiasAdd"], "attr": {"T": {"type": "DT_FLOAT"}}}, {"name": "Identity", "op": "Identity", "input": ["StatefulPartitionedCall/sequential_2/dense_3/Softmax"], "attr": {"T": {"type": "DT_FLOAT"}}}], "library": {"function": [{"signature": {"name": "__inference_sequential_2_conv_lstm1d_5_while_cond_3149_frozen_12865", "inputArg": [{"name": "sequential_2_conv_lstm1d_5_while_sequential_2_conv_lstm1d_5_while_loop_counter", "type": "DT_INT32"}, {"name": "sequential_2_conv_lstm1d_5_while_sequential_2_conv_lstm1d_5_while_maximum_iterations", "type": "DT_INT32"}, {"name": "sequential_2_conv_lstm1d_5_while_placeholder", "type": "DT_INT32"}, {"name": "sequential_2_conv_lstm1d_5_while_placeholder_1", "type": "DT_VARIANT"}, {"name": "sequential_2_conv_lstm1d_5_while_placeholder_2", "type": "DT_FLOAT"}, {"name": "sequential_2_conv_lstm1d_5_while_placeholder_3", "type": "DT_FLOAT"}, {"name": "sequential_2_conv_lstm1d_5_while_less_sequential_2_conv_lstm1d_5_strided_slice", "type": "DT_INT32"}, {"name": "sequential_2_conv_lstm1d_5_while_sequential_2_conv_lstm1d_5_while_cond_3149___redundant_placeholder0", "type": "DT_VARIANT"}, {"name": "sequential_2_conv_lstm1d_5_while_sequential_2_conv_lstm1d_5_while_cond_3149___redundant_placeholder1", "type": "DT_FLOAT"}, {"name": "sequential_2_conv_lstm1d_5_while_sequential_2_conv_lstm1d_5_while_cond_3149___redundant_placeholder2", "type": "DT_FLOAT"}, {"name": "sequential_2_conv_lstm1d_5_while_sequential_2_conv_lstm1d_5_while_cond_3149___redundant_placeholder3", "type": "DT_FLOAT"}], "outputArg": [{"name": "sequential_2_conv_lstm1d_5_while_identity", "type": "DT_BOOL"}]}, "nodeDef": [{"name": "sequential_2/conv_lstm1d_5/while/Less", "op": "Less", "input": ["sequential_2_conv_lstm1d_5_while_placeholder", "sequential_2_conv_lstm1d_5_while_less_sequential_2_conv_lstm1d_5_strided_slice"], "attr": {"T": {"type": "DT_INT32"}}}], "ret": {"sequential_2_conv_lstm1d_5_while_identity": "sequential_2/conv_lstm1d_5/while/Less:z:0"}, "attr": {"_construction_context": {"s": "a0VhZ2VyUnVudGltZQ=="}}, "argAttr": {"4": {"attr": {"_output_shapes": {"list": {"shape": [{"dim": [{"size": "-1"}, {"size": "412"}, {"size": "14"}]}]}}}}, "1": {"attr": {"_output_shapes": {"list": {"shape": [{}]}}}}, "6": {"attr": {"_output_shapes": {"list": {"shape": [{}]}}}}, "3": {"attr": {"_output_shapes": {"list": {"shape": [{}]}}}}, "5": {"attr": {"_output_shapes": {"list": {"shape": [{"dim": [{"size": "-1"}, {"size": "412"}, {"size": "14"}]}]}}}}, "7": {"attr": {"_output_shapes": {"list": {"shape": [{"unknownRank": true}]}}}}, "0": {"attr": {"_output_shapes": {"list": {"shape": [{}]}}}}, "2": {"attr": {"_output_shapes": {"list": {"shape": [{}]}}}}}}, {"signature": {"name": "__inference_sequential_2_conv_lstm1d_5_while_body_3150_frozen_12868", "inputArg": [{"name": "sequential_2_conv_lstm1d_5_while_sequential_2_conv_lstm1d_5_while_loop_counter", "type": "DT_INT32"}, {"name": "sequential_2_conv_lstm1d_5_while_sequential_2_conv_lstm1d_5_while_maximum_iterations", "type": "DT_INT32"}, {"name": "sequential_2_conv_lstm1d_5_while_placeholder", "type": "DT_INT32"}, {"name": "sequential_2_conv_lstm1d_5_while_placeholder_1", "type": "DT_VARIANT"}, {"name": "sequential_2_conv_lstm1d_5_while_placeholder_2", "type": "DT_FLOAT"}, {"name": "sequential_2_conv_lstm1d_5_while_placeholder_3", "type": "DT_FLOAT"}, {"name": "sequential_2_conv_lstm1d_5_while_sequential_2_conv_lstm1d_5_strided_slice_0", "type": "DT_INT32"}, {"name": "sequential_2_conv_lstm1d_5_while_tensorarrayv2read_tensorlistgetitem_sequential_2_conv_lstm1d_5_tensorarrayunstack_tensorlistfromtensor_0", "type": "DT_VARIANT"}, {"name": "sequential_2_conv_lstm1d_5_while_split_readvariableop_resource_0", "type": "DT_FLOAT"}, {"name": "sequential_2_conv_lstm1d_5_while_split_1_readvariableop_resource_0", "type": "DT_FLOAT"}, {"name": "sequential_2_conv_lstm1d_5_while_split_2_readvariableop_resource_0", "type": "DT_FLOAT"}], "outputArg": [{"name": "sequential_2_conv_lstm1d_5_while_identity", "type": "DT_INT32"}, {"name": "sequential_2_conv_lstm1d_5_while_identity_1", "type": "DT_INT32"}, {"name": "sequential_2_conv_lstm1d_5_while_identity_2", "type": "DT_INT32"}, {"name": "sequential_2_conv_lstm1d_5_while_identity_3", "type": "DT_VARIANT"}, {"name": "sequential_2_conv_lstm1d_5_while_identity_4", "type": "DT_FLOAT"}, {"name": "sequential_2_conv_lstm1d_5_while_identity_5", "type": "DT_FLOAT"}, {"name": "sequential_2_conv_lstm1d_5_while_sequential_2_conv_lstm1d_5_strided_slice", "type": "DT_INT32"}, {"name": "sequential_2_conv_lstm1d_5_while_tensorarrayv2read_tensorlistgetitem_sequential_2_conv_lstm1d_5_tensorarrayunstack_tensorlistfromtensor", "type": "DT_VARIANT"}, {"name": "sequential_2_conv_lstm1d_5_while_split_readvariableop_resource", "type": "DT_FLOAT"}, {"name": "sequential_2_conv_lstm1d_5_while_split_1_readvariableop_resource", "type": "DT_FLOAT"}, {"name": "sequential_2_conv_lstm1d_5_while_split_2_readvariableop_resource", "type": "DT_FLOAT"}], "isStateful": true, "controlOutput": ["sequential_2/conv_lstm1d_5/while/split/ReadVariableOp", "sequential_2/conv_lstm1d_5/while/split_1/ReadVariableOp", "sequential_2/conv_lstm1d_5/while/split_2/ReadVariableOp"]}, "nodeDef": [{"name": "__inference_sequential_2_conv_lstm1d_5_while_body_3150_frozen_12868/sequential_2/conv_lstm1d_5/while/add_8/y", "op": "Const", "attr": {"dtype": {"type": "DT_INT32"}, "value": {"tensor": {"dtype": "DT_INT32", "tensorShape": {}}}}}, {"name": "__inference_sequential_2_conv_lstm1d_5_while_body_3150_frozen_12868/sequential_2/conv_lstm1d_5/while/convolution_3/ExpandDims/dim", "op": "Const", "attr": {"value": {"tensor": {"dtype": "DT_INT32", "tensorShape": {}}}, "dtype": {"type": "DT_INT32"}}}, {"name": "__inference_sequential_2_conv_lstm1d_5_while_body_3150_frozen_12868/sequential_2/conv_lstm1d_5/while/convolution_3/ExpandDims_1/dim", "op": "Const", "attr": {"value": {"tensor": {"dtype": "DT_INT32", "tensorShape": {}}}, "dtype": {"type": "DT_INT32"}}}, {"name": "__inference_sequential_2_conv_lstm1d_5_while_body_3150_frozen_12868/sequential_2/conv_lstm1d_5/while/convolution_7/ExpandDims/dim", "op": "Const", "attr": {"value": {"tensor": {"dtype": "DT_INT32", "tensorShape": {}}}, "dtype": {"type": "DT_INT32"}}}, {"name": "__inference_sequential_2_conv_lstm1d_5_while_body_3150_frozen_12868/sequential_2/conv_lstm1d_5/while/convolution_7/ExpandDims_1/dim", "op": "Const", "attr": {"value": {"tensor": {"dtype": "DT_INT32", "tensorShape": {}}}, "dtype": {"type": "DT_INT32"}}}, {"name": "__inference_sequential_2_conv_lstm1d_5_while_body_3150_frozen_12868/sequential_2/conv_lstm1d_5/while/Const_4", "op": "Const", "attr": {"value": {"tensor": {"dtype": "DT_FLOAT", "tensorShape": {}}}, "dtype": {"type": "DT_FLOAT"}}}, {"name": "__inference_sequential_2_conv_lstm1d_5_while_body_3150_frozen_12868/sequential_2/conv_lstm1d_5/while/Const_5", "op": "Const", "attr": {"dtype": {"type": "DT_FLOAT"}, "value": {"tensor": {"dtype": "DT_FLOAT", "tensorShape": {}}}}}, {"name": "__inference_sequential_2_conv_lstm1d_5_while_body_3150_frozen_12868/sequential_2/conv_lstm1d_5/while/clip_by_value_2/Minimum/y", "op": "Const", "attr": {"dtype": {"type": "DT_FLOAT"}, "value": {"tensor": {"dtype": "DT_FLOAT", "tensorShape": {}}}}}, {"name": "__inference_sequential_2_conv_lstm1d_5_while_body_3150_frozen_12868/sequential_2/conv_lstm1d_5/while/clip_by_value_2/y", "op": "Const", "attr": {"dtype": {"type": "DT_FLOAT"}, "value": {"tensor": {"dtype": "DT_FLOAT", "tensorShape": {}}}}}, {"name": "__inference_sequential_2_conv_lstm1d_5_while_body_3150_frozen_12868/sequential_2/conv_lstm1d_5/while/convolution_1/ExpandDims/dim", "op": "Const", "attr": {"value": {"tensor": {"dtype": "DT_INT32", "tensorShape": {}}}, "dtype": {"type": "DT_INT32"}}}, {"name": "__inference_sequential_2_conv_lstm1d_5_while_body_3150_frozen_12868/sequential_2/conv_lstm1d_5/while/convolution_1/ExpandDims_1/dim", "op": "Const", "attr": {"dtype": {"type": "DT_INT32"}, "value": {"tensor": {"dtype": "DT_INT32", "tensorShape": {}}}}}, {"name": "__inference_sequential_2_conv_lstm1d_5_while_body_3150_frozen_12868/sequential_2/conv_lstm1d_5/while/convolution_5/ExpandDims/dim", "op": "Const", "attr": {"value": {"tensor": {"dtype": "DT_INT32", "tensorShape": {}}}, "dtype": {"type": "DT_INT32"}}}, {"name": "__inference_sequential_2_conv_lstm1d_5_while_body_3150_frozen_12868/sequential_2/conv_lstm1d_5/while/convolution_5/ExpandDims_1/dim", "op": "Const", "attr": {"dtype": {"type": "DT_INT32"}, "value": {"tensor": {"dtype": "DT_INT32", "tensorShape": {}}}}}, {"name": "__inference_sequential_2_conv_lstm1d_5_while_body_3150_frozen_12868/sequential_2/conv_lstm1d_5/while/Const_2", "op": "Const", "attr": {"dtype": {"type": "DT_FLOAT"}, "value": {"tensor": {"dtype": "DT_FLOAT", "tensorShape": {}}}}}, {"name": "__inference_sequential_2_conv_lstm1d_5_while_body_3150_frozen_12868/sequential_2/conv_lstm1d_5/while/Const_3", "op": "Const", "attr": {"dtype": {"type": "DT_FLOAT"}, "value": {"tensor": {"dtype": "DT_FLOAT", "tensorShape": {}}}}}, {"name": "__inference_sequential_2_conv_lstm1d_5_while_body_3150_frozen_12868/sequential_2/conv_lstm1d_5/while/clip_by_value_1/Minimum/y", "op": "Const", "attr": {"value": {"tensor": {"dtype": "DT_FLOAT", "tensorShape": {}}}, "dtype": {"type": "DT_FLOAT"}}}, {"name": "__inference_sequential_2_conv_lstm1d_5_while_body_3150_frozen_12868/sequential_2/conv_lstm1d_5/while/clip_by_value_1/y", "op": "Const", "attr": {"dtype": {"type": "DT_FLOAT"}, "value": {"tensor": {"dtype": "DT_FLOAT", "tensorShape": {}}}}}, {"name": "__inference_sequential_2_conv_lstm1d_5_while_body_3150_frozen_12868/sequential_2/conv_lstm1d_5/while/convolution/ExpandDims/dim", "op": "Const", "attr": {"value": {"tensor": {"dtype": "DT_INT32", "tensorShape": {}}}, "dtype": {"type": "DT_INT32"}}}, {"name": "__inference_sequential_2_conv_lstm1d_5_while_body_3150_frozen_12868/sequential_2/conv_lstm1d_5/while/convolution/ExpandDims_1/dim", "op": "Const", "attr": {"dtype": {"type": "DT_INT32"}, "value": {"tensor": {"dtype": "DT_INT32", "tensorShape": {}}}}}, {"name": "__inference_sequential_2_conv_lstm1d_5_while_body_3150_frozen_12868/sequential_2/conv_lstm1d_5/while/convolution_4/ExpandDims/dim", "op": "Const", "attr": {"value": {"tensor": {"dtype": "DT_INT32", "tensorShape": {}}}, "dtype": {"type": "DT_INT32"}}}, {"name": "__inference_sequential_2_conv_lstm1d_5_while_body_3150_frozen_12868/sequential_2/conv_lstm1d_5/while/convolution_4/ExpandDims_1/dim", "op": "Const", "attr": {"value": {"tensor": {"dtype": "DT_INT32", "tensorShape": {}}}, "dtype": {"type": "DT_INT32"}}}, {"name": "__inference_sequential_2_conv_lstm1d_5_while_body_3150_frozen_12868/sequential_2/conv_lstm1d_5/while/Const", "op": "Const", "attr": {"value": {"tensor": {"dtype": "DT_FLOAT", "tensorShape": {}}}, "dtype": {"type": "DT_FLOAT"}}}, {"name": "__inference_sequential_2_conv_lstm1d_5_while_body_3150_frozen_12868/sequential_2/conv_lstm1d_5/while/Const_1", "op": "Const", "attr": {"dtype": {"type": "DT_FLOAT"}, "value": {"tensor": {"dtype": "DT_FLOAT", "tensorShape": {}}}}}, {"name": "__inference_sequential_2_conv_lstm1d_5_while_body_3150_frozen_12868/sequential_2/conv_lstm1d_5/while/clip_by_value/Minimum/y", "op": "Const", "attr": {"value": {"tensor": {"dtype": "DT_FLOAT", "tensorShape": {}}}, "dtype": {"type": "DT_FLOAT"}}}, {"name": "__inference_sequential_2_conv_lstm1d_5_while_body_3150_frozen_12868/sequential_2/conv_lstm1d_5/while/clip_by_value/y", "op": "Const", "attr": {"dtype": {"type": "DT_FLOAT"}, "value": {"tensor": {"dtype": "DT_FLOAT", "tensorShape": {}}}}}, {"name": "__inference_sequential_2_conv_lstm1d_5_while_body_3150_frozen_12868/sequential_2/conv_lstm1d_5/while/TensorArrayV2Read/TensorListGetItem/element_shape", "op": "Const", "attr": {"value": {"tensor": {"dtype": "DT_INT32", "tensorShape": {"dim": [{"size": "3"}]}}}, "dtype": {"type": "DT_INT32"}}}, {"name": "__inference_sequential_2_conv_lstm1d_5_while_body_3150_frozen_12868/sequential_2/conv_lstm1d_5/while/convolution_2/ExpandDims/dim", "op": "Const", "attr": {"dtype": {"type": "DT_INT32"}, "value": {"tensor": {"dtype": "DT_INT32", "tensorShape": {}}}}}, {"name": "__inference_sequential_2_conv_lstm1d_5_while_body_3150_frozen_12868/sequential_2/conv_lstm1d_5/while/split/split_dim", "op": "Const", "attr": {"dtype": {"type": "DT_INT32"}, "value": {"tensor": {"dtype": "DT_INT32", "tensorShape": {}}}}}, {"name": "__inference_sequential_2_conv_lstm1d_5_while_body_3150_frozen_12868/sequential_2/conv_lstm1d_5/while/convolution_2/ExpandDims_1/dim", "op": "Const", "attr": {"value": {"tensor": {"dtype": "DT_INT32", "tensorShape": {}}}, "dtype": {"type": "DT_INT32"}}}, {"name": "__inference_sequential_2_conv_lstm1d_5_while_body_3150_frozen_12868/sequential_2/conv_lstm1d_5/while/split_2/split_dim", "op": "Const", "attr": {"dtype": {"type": "DT_INT32"}, "value": {"tensor": {"dtype": "DT_INT32", "tensorShape": {}}}}}, {"name": "__inference_sequential_2_conv_lstm1d_5_while_body_3150_frozen_12868/sequential_2/conv_lstm1d_5/while/ones_like/Const", "op": "Const", "attr": {"dtype": {"type": "DT_FLOAT"}, "value": {"tensor": {"dtype": "DT_FLOAT", "tensorShape": {}}}}}, {"name": "__inference_sequential_2_conv_lstm1d_5_while_body_3150_frozen_12868/sequential_2/conv_lstm1d_5/while/convolution_6/ExpandDims/dim", "op": "Const", "attr": {"dtype": {"type": "DT_INT32"}, "value": {"tensor": {"dtype": "DT_INT32", "tensorShape": {}}}}}, {"name": "__inference_sequential_2_conv_lstm1d_5_while_body_3150_frozen_12868/sequential_2/conv_lstm1d_5/while/split_1/split_dim", "op": "Const", "attr": {"dtype": {"type": "DT_INT32"}, "value": {"tensor": {"dtype": "DT_INT32", "tensorShape": {}}}}}, {"name": "__inference_sequential_2_conv_lstm1d_5_while_body_3150_frozen_12868/sequential_2/conv_lstm1d_5/while/convolution_6/ExpandDims_1/dim", "op": "Const", "attr": {"value": {"tensor": {"dtype": "DT_INT32", "tensorShape": {}}}, "dtype": {"type": "DT_INT32"}}}, {"name": "__inference_sequential_2_conv_lstm1d_5_while_body_3150_frozen_12868/sequential_2/conv_lstm1d_5/while/add_9/y", "op": "Const", "attr": {"dtype": {"type": "DT_INT32"}, "value": {"tensor": {"dtype": "DT_INT32", "tensorShape": {}}}}}, {"name": "sequential_2/conv_lstm1d_5/while/ones_like/Shape", "op": "Shape", "input": ["sequential_2_conv_lstm1d_5_while_placeholder_2"], "attr": {"T": {"type": "DT_FLOAT"}, "out_type": {"type": "DT_INT32"}}}, {"name": "sequential_2/conv_lstm1d_5/while/split/ReadVariableOp", "op": "Identity", "input": ["sequential_2_conv_lstm1d_5_while_split_readvariableop_resource_0"], "attr": {"T": {"type": "DT_FLOAT"}}}, {"name": "sequential_2/conv_lstm1d_5/while/split_1/ReadVariableOp", "op": "Identity", "input": ["sequential_2_conv_lstm1d_5_while_split_1_readvariableop_resource_0"], "attr": {"T": {"type": "DT_FLOAT"}}}, {"name": "sequential_2/conv_lstm1d_5/while/split_2/ReadVariableOp", "op": "Identity", "input": ["sequential_2_conv_lstm1d_5_while_split_2_readvariableop_resource_0"], "attr": {"T": {"type": "DT_FLOAT"}}}, {"name": "sequential_2/conv_lstm1d_5/while/add_8", "op": "AddV2", "input": ["sequential_2_conv_lstm1d_5_while_placeholder", "__inference_sequential_2_conv_lstm1d_5_while_body_3150_frozen_12868/sequential_2/conv_lstm1d_5/while/add_8/y:output:0"], "attr": {"T": {"type": "DT_INT32"}}}, {"name": "sequential_2/conv_lstm1d_5/while/TensorArrayV2Read/TensorListGetItem", "op": "TensorListGetItem", "input": ["sequential_2_conv_lstm1d_5_while_tensorarrayv2read_tensorlistgetitem_sequential_2_conv_lstm1d_5_tensorarrayunstack_tensorlistfromtensor_0", "sequential_2_conv_lstm1d_5_while_placeholder", "__inference_sequential_2_conv_lstm1d_5_while_body_3150_frozen_12868/sequential_2/conv_lstm1d_5/while/TensorArrayV2Read/TensorListGetItem/element_shape:output:0"], "attr": {"element_dtype": {"type": "DT_FLOAT"}}}, {"name": "sequential_2/conv_lstm1d_5/while/add_9", "op": "AddV2", "input": ["sequential_2_conv_lstm1d_5_while_sequential_2_conv_lstm1d_5_while_loop_counter", "__inference_sequential_2_conv_lstm1d_5_while_body_3150_frozen_12868/sequential_2/conv_lstm1d_5/while/add_9/y:output:0"], "attr": {"T": {"type": "DT_INT32"}}}, {"name": "sequential_2/conv_lstm1d_5/while/ones_like", "op": "Fill", "input": ["sequential_2/conv_lstm1d_5/while/ones_like/Shape:output:0", "__inference_sequential_2_conv_lstm1d_5_while_body_3150_frozen_12868/sequential_2/conv_lstm1d_5/while/ones_like/Const:output:0"], "attr": {"T": {"type": "DT_FLOAT"}, "index_type": {"type": "DT_INT32"}}}, {"name": "sequential_2/conv_lstm1d_5/while/split", "op": "Split", "input": ["__inference_sequential_2_conv_lstm1d_5_while_body_3150_frozen_12868/sequential_2/conv_lstm1d_5/while/split/split_dim:output:0", "sequential_2/conv_lstm1d_5/while/split/ReadVariableOp:output:0"], "attr": {"T": {"type": "DT_FLOAT"}, "num_split": {"i": "4"}}}, {"name": "sequential_2/conv_lstm1d_5/while/split_1", "op": "Split", "input": ["__inference_sequential_2_conv_lstm1d_5_while_body_3150_frozen_12868/sequential_2/conv_lstm1d_5/while/split_1/split_dim:output:0", "sequential_2/conv_lstm1d_5/while/split_1/ReadVariableOp:output:0"], "attr": {"num_split": {"i": "4"}, "T": {"type": "DT_FLOAT"}}}, {"name": "sequential_2/conv_lstm1d_5/while/NoOp", "op": "NoOp", "input": ["^sequential_2/conv_lstm1d_5/while/split/ReadVariableOp", "^sequential_2/conv_lstm1d_5/while/split_1/ReadVariableOp", "^sequential_2/conv_lstm1d_5/while/split_2/ReadVariableOp"], "attr": {"_acd_function_control_output": {"b": true}}}, {"name": "sequential_2/conv_lstm1d_5/while/split_2", "op": "Split", "input": ["__inference_sequential_2_conv_lstm1d_5_while_body_3150_frozen_12868/sequential_2/conv_lstm1d_5/while/split_2/split_dim:output:0", "sequential_2/conv_lstm1d_5/while/split_2/ReadVariableOp:output:0"], "attr": {"T": {"type": "DT_FLOAT"}, "num_split": {"i": "4"}}}, {"name": "sequential_2/conv_lstm1d_5/while/convolution_3/ExpandDims", "op": "ExpandDims", "input": ["sequential_2/conv_lstm1d_5/while/TensorArrayV2Read/TensorListGetItem:item:0", "__inference_sequential_2_conv_lstm1d_5_while_body_3150_frozen_12868/sequential_2/conv_lstm1d_5/while/convolution_3/ExpandDims/dim:output:0"], "attr": {"T": {"type": "DT_FLOAT"}, "Tdim": {"type": "DT_INT32"}}}, {"name": "sequential_2/conv_lstm1d_5/while/convolution_1/ExpandDims", "op": "ExpandDims", "input": ["sequential_2/conv_lstm1d_5/while/TensorArrayV2Read/TensorListGetItem:item:0", "__inference_sequential_2_conv_lstm1d_5_while_body_3150_frozen_12868/sequential_2/conv_lstm1d_5/while/convolution_1/ExpandDims/dim:output:0"], "attr": {"T": {"type": "DT_FLOAT"}, "Tdim": {"type": "DT_INT32"}}}, {"name": "sequential_2/conv_lstm1d_5/while/convolution/ExpandDims", "op": "ExpandDims", "input": ["sequential_2/conv_lstm1d_5/while/TensorArrayV2Read/TensorListGetItem:item:0", "__inference_sequential_2_conv_lstm1d_5_while_body_3150_frozen_12868/sequential_2/conv_lstm1d_5/while/convolution/ExpandDims/dim:output:0"], "attr": {"Tdim": {"type": "DT_INT32"}, "T": {"type": "DT_FLOAT"}}}, {"name": "sequential_2/conv_lstm1d_5/while/convolution_2/ExpandDims", "op": "ExpandDims", "input": ["sequential_2/conv_lstm1d_5/while/TensorArrayV2Read/TensorListGetItem:item:0", "__inference_sequential_2_conv_lstm1d_5_while_body_3150_frozen_12868/sequential_2/conv_lstm1d_5/while/convolution_2/ExpandDims/dim:output:0"], "attr": {"T": {"type": "DT_FLOAT"}, "Tdim": {"type": "DT_INT32"}}}, {"name": "sequential_2/conv_lstm1d_5/while/mul_3", "op": "Mul", "input": ["sequential_2_conv_lstm1d_5_while_placeholder_2", "sequential_2/conv_lstm1d_5/while/ones_like:output:0"], "attr": {"T": {"type": "DT_FLOAT"}}}, {"name": "sequential_2/conv_lstm1d_5/while/mul_1", "op": "Mul", "input": ["sequential_2_conv_lstm1d_5_while_placeholder_2", "sequential_2/conv_lstm1d_5/while/ones_like:output:0"], "attr": {"T": {"type": "DT_FLOAT"}}}, {"name": "sequential_2/conv_lstm1d_5/while/mul", "op": "Mul", "input": ["sequential_2_conv_lstm1d_5_while_placeholder_2", "sequential_2/conv_lstm1d_5/while/ones_like:output:0"], "attr": {"T": {"type": "DT_FLOAT"}}}, {"name": "sequential_2/conv_lstm1d_5/while/mul_2", "op": "Mul", "input": ["sequential_2_conv_lstm1d_5_while_placeholder_2", "sequential_2/conv_lstm1d_5/while/ones_like:output:0"], "attr": {"T": {"type": "DT_FLOAT"}}}, {"name": "sequential_2/conv_lstm1d_5/while/convolution/ExpandDims_1", "op": "ExpandDims", "input": ["sequential_2/conv_lstm1d_5/while/split:output:0", "__inference_sequential_2_conv_lstm1d_5_while_body_3150_frozen_12868/sequential_2/conv_lstm1d_5/while/convolution/ExpandDims_1/dim:output:0"], "attr": {"Tdim": {"type": "DT_INT32"}, "T": {"type": "DT_FLOAT"}}}, {"name": "sequential_2/conv_lstm1d_5/while/convolution_1/ExpandDims_1", "op": "ExpandDims", "input": ["sequential_2/conv_lstm1d_5/while/split:output:1", "__inference_sequential_2_conv_lstm1d_5_while_body_3150_frozen_12868/sequential_2/conv_lstm1d_5/while/convolution_1/ExpandDims_1/dim:output:0"], "attr": {"Tdim": {"type": "DT_INT32"}, "T": {"type": "DT_FLOAT"}}}, {"name": "sequential_2/conv_lstm1d_5/while/convolution_3/ExpandDims_1", "op": "ExpandDims", "input": ["sequential_2/conv_lstm1d_5/while/split:output:3", "__inference_sequential_2_conv_lstm1d_5_while_body_3150_frozen_12868/sequential_2/conv_lstm1d_5/while/convolution_3/ExpandDims_1/dim:output:0"], "attr": {"T": {"type": "DT_FLOAT"}, "Tdim": {"type": "DT_INT32"}}}, {"name": "sequential_2/conv_lstm1d_5/while/convolution_2/ExpandDims_1", "op": "ExpandDims", "input": ["sequential_2/conv_lstm1d_5/while/split:output:2", "__inference_sequential_2_conv_lstm1d_5_while_body_3150_frozen_12868/sequential_2/conv_lstm1d_5/while/convolution_2/ExpandDims_1/dim:output:0"], "attr": {"T": {"type": "DT_FLOAT"}, "Tdim": {"type": "DT_INT32"}}}, {"name": "sequential_2/conv_lstm1d_5/while/convolution_4/ExpandDims_1", "op": "ExpandDims", "input": ["sequential_2/conv_lstm1d_5/while/split_1:output:0", "__inference_sequential_2_conv_lstm1d_5_while_body_3150_frozen_12868/sequential_2/conv_lstm1d_5/while/convolution_4/ExpandDims_1/dim:output:0"], "attr": {"Tdim": {"type": "DT_INT32"}, "T": {"type": "DT_FLOAT"}}}, {"name": "sequential_2/conv_lstm1d_5/while/convolution_5/ExpandDims_1", "op": "ExpandDims", "input": ["sequential_2/conv_lstm1d_5/while/split_1:output:1", "__inference_sequential_2_conv_lstm1d_5_while_body_3150_frozen_12868/sequential_2/conv_lstm1d_5/while/convolution_5/ExpandDims_1/dim:output:0"], "attr": {"T": {"type": "DT_FLOAT"}, "Tdim": {"type": "DT_INT32"}}}, {"name": "sequential_2/conv_lstm1d_5/while/convolution_7/ExpandDims_1", "op": "ExpandDims", "input": ["sequential_2/conv_lstm1d_5/while/split_1:output:3", "__inference_sequential_2_conv_lstm1d_5_while_body_3150_frozen_12868/sequential_2/conv_lstm1d_5/while/convolution_7/ExpandDims_1/dim:output:0"], "attr": {"Tdim": {"type": "DT_INT32"}, "T": {"type": "DT_FLOAT"}}}, {"name": "sequential_2/conv_lstm1d_5/while/convolution_6/ExpandDims_1", "op": "ExpandDims", "input": ["sequential_2/conv_lstm1d_5/while/split_1:output:2", "__inference_sequential_2_conv_lstm1d_5_while_body_3150_frozen_12868/sequential_2/conv_lstm1d_5/while/convolution_6/ExpandDims_1/dim:output:0"], "attr": {"T": {"type": "DT_FLOAT"}, "Tdim": {"type": "DT_INT32"}}}, {"name": "sequential_2/conv_lstm1d_5/while/Identity_1", "op": "Identity", "input": ["sequential_2_conv_lstm1d_5_while_sequential_2_conv_lstm1d_5_while_maximum_iterations", "^sequential_2/conv_lstm1d_5/while/NoOp"], "attr": {"T": {"type": "DT_INT32"}}}, {"name": "sequential_2/conv_lstm1d_5/while/Identity_2", "op": "Identity", "input": ["sequential_2/conv_lstm1d_5/while/add_8:z:0", "^sequential_2/conv_lstm1d_5/while/NoOp"], "attr": {"T": {"type": "DT_INT32"}}}, {"name": "sequential_2/conv_lstm1d_5/while/Identity", "op": "Identity", "input": ["sequential_2/conv_lstm1d_5/while/add_9:z:0", "^sequential_2/conv_lstm1d_5/while/NoOp"], "attr": {"T": {"type": "DT_INT32"}}}, {"name": "sequential_2/conv_lstm1d_5/while/convolution_7/ExpandDims", "op": "ExpandDims", "input": ["sequential_2/conv_lstm1d_5/while/mul_3:z:0", "__inference_sequential_2_conv_lstm1d_5_while_body_3150_frozen_12868/sequential_2/conv_lstm1d_5/while/convolution_7/ExpandDims/dim:output:0"], "attr": {"Tdim": {"type": "DT_INT32"}, "T": {"type": "DT_FLOAT"}}}, {"name": "sequential_2/conv_lstm1d_5/while/convolution_5/ExpandDims", "op": "ExpandDims", "input": ["sequential_2/conv_lstm1d_5/while/mul_1:z:0", "__inference_sequential_2_conv_lstm1d_5_while_body_3150_frozen_12868/sequential_2/conv_lstm1d_5/while/convolution_5/ExpandDims/dim:output:0"], "attr": {"Tdim": {"type": "DT_INT32"}, "T": {"type": "DT_FLOAT"}}}, {"name": "sequential_2/conv_lstm1d_5/while/convolution_4/ExpandDims", "op": "ExpandDims", "input": ["sequential_2/conv_lstm1d_5/while/mul:z:0", "__inference_sequential_2_conv_lstm1d_5_while_body_3150_frozen_12868/sequential_2/conv_lstm1d_5/while/convolution_4/ExpandDims/dim:output:0"], "attr": {"Tdim": {"type": "DT_INT32"}, "T": {"type": "DT_FLOAT"}}}, {"name": "sequential_2/conv_lstm1d_5/while/convolution_6/ExpandDims", "op": "ExpandDims", "input": ["sequential_2/conv_lstm1d_5/while/mul_2:z:0", "__inference_sequential_2_conv_lstm1d_5_while_body_3150_frozen_12868/sequential_2/conv_lstm1d_5/while/convolution_6/ExpandDims/dim:output:0"], "attr": {"Tdim": {"type": "DT_INT32"}, "T": {"type": "DT_FLOAT"}}}, {"name": "sequential_2/conv_lstm1d_5/while/convolution", "op": "Conv2D", "input": ["sequential_2/conv_lstm1d_5/while/convolution/ExpandDims:output:0", "sequential_2/conv_lstm1d_5/while/convolution/ExpandDims_1:output:0"], "attr": {"dilations": {"list": {"i": ["1", "1", "1", "1"]}}, "data_format": {"s": "TkhXQw=="}, "padding": {"s": "VkFMSUQ="}, "strides": {"list": {"i": ["1", "1", "1", "1"]}}, "T": {"type": "DT_FLOAT"}, "explicit_paddings": {"list": {}}, "use_cudnn_on_gpu": {"b": true}}}, {"name": "sequential_2/conv_lstm1d_5/while/convolution_1", "op": "Conv2D", "input": ["sequential_2/conv_lstm1d_5/while/convolution_1/ExpandDims:output:0", "sequential_2/conv_lstm1d_5/while/convolution_1/ExpandDims_1:output:0"], "attr": {"explicit_paddings": {"list": {}}, "dilations": {"list": {"i": ["1", "1", "1", "1"]}}, "strides": {"list": {"i": ["1", "1", "1", "1"]}}, "use_cudnn_on_gpu": {"b": true}, "data_format": {"s": "TkhXQw=="}, "T": {"type": "DT_FLOAT"}, "padding": {"s": "VkFMSUQ="}}}, {"name": "sequential_2/conv_lstm1d_5/while/convolution_3", "op": "Conv2D", "input": ["sequential_2/conv_lstm1d_5/while/convolution_3/ExpandDims:output:0", "sequential_2/conv_lstm1d_5/while/convolution_3/ExpandDims_1:output:0"], "attr": {"data_format": {"s": "TkhXQw=="}, "padding": {"s": "VkFMSUQ="}, "T": {"type": "DT_FLOAT"}, "dilations": {"list": {"i": ["1", "1", "1", "1"]}}, "strides": {"list": {"i": ["1", "1", "1", "1"]}}, "explicit_paddings": {"list": {}}, "use_cudnn_on_gpu": {"b": true}}}, {"name": "sequential_2/conv_lstm1d_5/while/convolution_2", "op": "Conv2D", "input": ["sequential_2/conv_lstm1d_5/while/convolution_2/ExpandDims:output:0", "sequential_2/conv_lstm1d_5/while/convolution_2/ExpandDims_1:output:0"], "attr": {"padding": {"s": "VkFMSUQ="}, "use_cudnn_on_gpu": {"b": true}, "strides": {"list": {"i": ["1", "1", "1", "1"]}}, "data_format": {"s": "TkhXQw=="}, "T": {"type": "DT_FLOAT"}, "explicit_paddings": {"list": {}}, "dilations": {"list": {"i": ["1", "1", "1", "1"]}}}}, {"name": "sequential_2/conv_lstm1d_5/while/convolution_7", "op": "Conv2D", "input": ["sequential_2/conv_lstm1d_5/while/convolution_7/ExpandDims:output:0", "sequential_2/conv_lstm1d_5/while/convolution_7/ExpandDims_1:output:0"], "attr": {"data_format": {"s": "TkhXQw=="}, "dilations": {"list": {"i": ["1", "1", "1", "1"]}}, "T": {"type": "DT_FLOAT"}, "padding": {"s": "U0FNRQ=="}, "use_cudnn_on_gpu": {"b": true}, "explicit_paddings": {"list": {}}, "strides": {"list": {"i": ["1", "1", "1", "1"]}}}}, {"name": "sequential_2/conv_lstm1d_5/while/convolution_5", "op": "Conv2D", "input": ["sequential_2/conv_lstm1d_5/while/convolution_5/ExpandDims:output:0", "sequential_2/conv_lstm1d_5/while/convolution_5/ExpandDims_1:output:0"], "attr": {"T": {"type": "DT_FLOAT"}, "data_format": {"s": "TkhXQw=="}, "explicit_paddings": {"list": {}}, "dilations": {"list": {"i": ["1", "1", "1", "1"]}}, "padding": {"s": "U0FNRQ=="}, "strides": {"list": {"i": ["1", "1", "1", "1"]}}, "use_cudnn_on_gpu": {"b": true}}}, {"name": "sequential_2/conv_lstm1d_5/while/convolution_4", "op": "Conv2D", "input": ["sequential_2/conv_lstm1d_5/while/convolution_4/ExpandDims:output:0", "sequential_2/conv_lstm1d_5/while/convolution_4/ExpandDims_1:output:0"], "attr": {"padding": {"s": "U0FNRQ=="}, "use_cudnn_on_gpu": {"b": true}, "T": {"type": "DT_FLOAT"}, "dilations": {"list": {"i": ["1", "1", "1", "1"]}}, "data_format": {"s": "TkhXQw=="}, "explicit_paddings": {"list": {}}, "strides": {"list": {"i": ["1", "1", "1", "1"]}}}}, {"name": "sequential_2/conv_lstm1d_5/while/convolution_6", "op": "Conv2D", "input": ["sequential_2/conv_lstm1d_5/while/convolution_6/ExpandDims:output:0", "sequential_2/conv_lstm1d_5/while/convolution_6/ExpandDims_1:output:0"], "attr": {"dilations": {"list": {"i": ["1", "1", "1", "1"]}}, "data_format": {"s": "TkhXQw=="}, "explicit_paddings": {"list": {}}, "strides": {"list": {"i": ["1", "1", "1", "1"]}}, "T": {"type": "DT_FLOAT"}, "use_cudnn_on_gpu": {"b": true}, "padding": {"s": "U0FNRQ=="}}}, {"name": "sequential_2/conv_lstm1d_5/while/convolution/Squeeze", "op": "Squeeze", "input": ["sequential_2/conv_lstm1d_5/while/convolution:output:0"], "attr": {"T": {"type": "DT_FLOAT"}, "squeeze_dims": {"list": {"i": ["-3"]}}}}, {"name": "sequential_2/conv_lstm1d_5/while/convolution_1/Squeeze", "op": "Squeeze", "input": ["sequential_2/conv_lstm1d_5/while/convolution_1:output:0"], "attr": {"squeeze_dims": {"list": {"i": ["-3"]}}, "T": {"type": "DT_FLOAT"}}}, {"name": "sequential_2/conv_lstm1d_5/while/convolution_3/Squeeze", "op": "Squeeze", "input": ["sequential_2/conv_lstm1d_5/while/convolution_3:output:0"], "attr": {"squeeze_dims": {"list": {"i": ["-3"]}}, "T": {"type": "DT_FLOAT"}}}, {"name": "sequential_2/conv_lstm1d_5/while/convolution_2/Squeeze", "op": "Squeeze", "input": ["sequential_2/conv_lstm1d_5/while/convolution_2:output:0"], "attr": {"squeeze_dims": {"list": {"i": ["-3"]}}, "T": {"type": "DT_FLOAT"}}}, {"name": "sequential_2/conv_lstm1d_5/while/convolution_7/Squeeze", "op": "Squeeze", "input": ["sequential_2/conv_lstm1d_5/while/convolution_7:output:0"], "attr": {"T": {"type": "DT_FLOAT"}, "squeeze_dims": {"list": {"i": ["-3"]}}}}, {"name": "sequential_2/conv_lstm1d_5/while/convolution_5/Squeeze", "op": "Squeeze", "input": ["sequential_2/conv_lstm1d_5/while/convolution_5:output:0"], "attr": {"T": {"type": "DT_FLOAT"}, "squeeze_dims": {"list": {"i": ["-3"]}}}}, {"name": "sequential_2/conv_lstm1d_5/while/convolution_4/Squeeze", "op": "Squeeze", "input": ["sequential_2/conv_lstm1d_5/while/convolution_4:output:0"], "attr": {"T": {"type": "DT_FLOAT"}, "squeeze_dims": {"list": {"i": ["-3"]}}}}, {"name": "sequential_2/conv_lstm1d_5/while/convolution_6/Squeeze", "op": "Squeeze", "input": ["sequential_2/conv_lstm1d_5/while/convolution_6:output:0"], "attr": {"squeeze_dims": {"list": {"i": ["-3"]}}, "T": {"type": "DT_FLOAT"}}}, {"name": "sequential_2/conv_lstm1d_5/while/BiasAdd", "op": "BiasAdd", "input": ["sequential_2/conv_lstm1d_5/while/convolution/Squeeze:output:0", "sequential_2/conv_lstm1d_5/while/split_2:output:0"], "attr": {"T": {"type": "DT_FLOAT"}, "data_format": {"s": "TkhXQw=="}}}, {"name": "sequential_2/conv_lstm1d_5/while/BiasAdd_1", "op": "BiasAdd", "input": ["sequential_2/conv_lstm1d_5/while/convolution_1/Squeeze:output:0", "sequential_2/conv_lstm1d_5/while/split_2:output:1"], "attr": {"data_format": {"s": "TkhXQw=="}, "T": {"type": "DT_FLOAT"}}}, {"name": "sequential_2/conv_lstm1d_5/while/BiasAdd_3", "op": "BiasAdd", "input": ["sequential_2/conv_lstm1d_5/while/convolution_3/Squeeze:output:0", "sequential_2/conv_lstm1d_5/while/split_2:output:3"], "attr": {"T": {"type": "DT_FLOAT"}, "data_format": {"s": "TkhXQw=="}}}, {"name": "sequential_2/conv_lstm1d_5/while/BiasAdd_2", "op": "BiasAdd", "input": ["sequential_2/conv_lstm1d_5/while/convolution_2/Squeeze:output:0", "sequential_2/conv_lstm1d_5/while/split_2:output:2"], "attr": {"T": {"type": "DT_FLOAT"}, "data_format": {"s": "TkhXQw=="}}}, {"name": "sequential_2/conv_lstm1d_5/while/add", "op": "AddV2", "input": ["sequential_2/conv_lstm1d_5/while/BiasAdd:output:0", "sequential_2/conv_lstm1d_5/while/convolution_4/Squeeze:output:0"], "attr": {"T": {"type": "DT_FLOAT"}}}, {"name": "sequential_2/conv_lstm1d_5/while/add_2", "op": "AddV2", "input": ["sequential_2/conv_lstm1d_5/while/BiasAdd_1:output:0", "sequential_2/conv_lstm1d_5/while/convolution_5/Squeeze:output:0"], "attr": {"T": {"type": "DT_FLOAT"}}}, {"name": "sequential_2/conv_lstm1d_5/while/add_6", "op": "AddV2", "input": ["sequential_2/conv_lstm1d_5/while/BiasAdd_3:output:0", "sequential_2/conv_lstm1d_5/while/convolution_7/Squeeze:output:0"], "attr": {"T": {"type": "DT_FLOAT"}}}, {"name": "sequential_2/conv_lstm1d_5/while/add_4", "op": "AddV2", "input": ["sequential_2/conv_lstm1d_5/while/BiasAdd_2:output:0", "sequential_2/conv_lstm1d_5/while/convolution_6/Squeeze:output:0"], "attr": {"T": {"type": "DT_FLOAT"}}}, {"name": "sequential_2/conv_lstm1d_5/while/Mul_4", "op": "Mul", "input": ["sequential_2/conv_lstm1d_5/while/add:z:0", "__inference_sequential_2_conv_lstm1d_5_while_body_3150_frozen_12868/sequential_2/conv_lstm1d_5/while/Const:output:0"], "attr": {"T": {"type": "DT_FLOAT"}}}, {"name": "sequential_2/conv_lstm1d_5/while/Mul_5", "op": "Mul", "input": ["sequential_2/conv_lstm1d_5/while/add_2:z:0", "__inference_sequential_2_conv_lstm1d_5_while_body_3150_frozen_12868/sequential_2/conv_lstm1d_5/while/Const_2:output:0"], "attr": {"T": {"type": "DT_FLOAT"}}}, {"name": "sequential_2/conv_lstm1d_5/while/Mul_8", "op": "Mul", "input": ["sequential_2/conv_lstm1d_5/while/add_6:z:0", "__inference_sequential_2_conv_lstm1d_5_while_body_3150_frozen_12868/sequential_2/conv_lstm1d_5/while/Const_4:output:0"], "attr": {"T": {"type": "DT_FLOAT"}}}, {"name": "sequential_2/conv_lstm1d_5/while/Tanh", "op": "Tanh", "input": ["sequential_2/conv_lstm1d_5/while/add_4:z:0"], "attr": {"T": {"type": "DT_FLOAT"}}}, {"name": "sequential_2/conv_lstm1d_5/while/Add_1", "op": "AddV2", "input": ["sequential_2/conv_lstm1d_5/while/Mul_4:z:0", "__inference_sequential_2_conv_lstm1d_5_while_body_3150_frozen_12868/sequential_2/conv_lstm1d_5/while/Const_1:output:0"], "attr": {"T": {"type": "DT_FLOAT"}}}, {"name": "sequential_2/conv_lstm1d_5/while/Add_3", "op": "AddV2", "input": ["sequential_2/conv_lstm1d_5/while/Mul_5:z:0", "__inference_sequential_2_conv_lstm1d_5_while_body_3150_frozen_12868/sequential_2/conv_lstm1d_5/while/Const_3:output:0"], "attr": {"T": {"type": "DT_FLOAT"}}}, {"name": "sequential_2/conv_lstm1d_5/while/Add_7", "op": "AddV2", "input": ["sequential_2/conv_lstm1d_5/while/Mul_8:z:0", "__inference_sequential_2_conv_lstm1d_5_while_body_3150_frozen_12868/sequential_2/conv_lstm1d_5/while/Const_5:output:0"], "attr": {"T": {"type": "DT_FLOAT"}}}, {"name": "sequential_2/conv_lstm1d_5/while/clip_by_value/Minimum", "op": "Minimum", "input": ["sequential_2/conv_lstm1d_5/while/Add_1:z:0", "__inference_sequential_2_conv_lstm1d_5_while_body_3150_frozen_12868/sequential_2/conv_lstm1d_5/while/clip_by_value/Minimum/y:output:0"], "attr": {"T": {"type": "DT_FLOAT"}}}, {"name": "sequential_2/conv_lstm1d_5/while/clip_by_value_1/Minimum", "op": "Minimum", "input": ["sequential_2/conv_lstm1d_5/while/Add_3:z:0", "__inference_sequential_2_conv_lstm1d_5_while_body_3150_frozen_12868/sequential_2/conv_lstm1d_5/while/clip_by_value_1/Minimum/y:output:0"], "attr": {"T": {"type": "DT_FLOAT"}}}, {"name": "sequential_2/conv_lstm1d_5/while/clip_by_value_2/Minimum", "op": "Minimum", "input": ["sequential_2/conv_lstm1d_5/while/Add_7:z:0", "__inference_sequential_2_conv_lstm1d_5_while_body_3150_frozen_12868/sequential_2/conv_lstm1d_5/while/clip_by_value_2/Minimum/y:output:0"], "attr": {"T": {"type": "DT_FLOAT"}}}, {"name": "sequential_2/conv_lstm1d_5/while/clip_by_value", "op": "Maximum", "input": ["sequential_2/conv_lstm1d_5/while/clip_by_value/Minimum:z:0", "__inference_sequential_2_conv_lstm1d_5_while_body_3150_frozen_12868/sequential_2/conv_lstm1d_5/while/clip_by_value/y:output:0"], "attr": {"T": {"type": "DT_FLOAT"}}}, {"name": "sequential_2/conv_lstm1d_5/while/clip_by_value_1", "op": "Maximum", "input": ["sequential_2/conv_lstm1d_5/while/clip_by_value_1/Minimum:z:0", "__inference_sequential_2_conv_lstm1d_5_while_body_3150_frozen_12868/sequential_2/conv_lstm1d_5/while/clip_by_value_1/y:output:0"], "attr": {"T": {"type": "DT_FLOAT"}}}, {"name": "sequential_2/conv_lstm1d_5/while/clip_by_value_2", "op": "Maximum", "input": ["sequential_2/conv_lstm1d_5/while/clip_by_value_2/Minimum:z:0", "__inference_sequential_2_conv_lstm1d_5_while_body_3150_frozen_12868/sequential_2/conv_lstm1d_5/while/clip_by_value_2/y:output:0"], "attr": {"T": {"type": "DT_FLOAT"}}}, {"name": "sequential_2/conv_lstm1d_5/while/mul_7", "op": "Mul", "input": ["sequential_2/conv_lstm1d_5/while/clip_by_value:z:0", "sequential_2/conv_lstm1d_5/while/Tanh:y:0"], "attr": {"T": {"type": "DT_FLOAT"}}}, {"name": "sequential_2/conv_lstm1d_5/while/mul_6", "op": "Mul", "input": ["sequential_2/conv_lstm1d_5/while/clip_by_value_1:z:0", "sequential_2_conv_lstm1d_5_while_placeholder_3"], "attr": {"T": {"type": "DT_FLOAT"}}}, {"name": "sequential_2/conv_lstm1d_5/while/add_5", "op": "AddV2", "input": ["sequential_2/conv_lstm1d_5/while/mul_6:z:0", "sequential_2/conv_lstm1d_5/while/mul_7:z:0"], "attr": {"T": {"type": "DT_FLOAT"}}}, {"name": "sequential_2/conv_lstm1d_5/while/Tanh_1", "op": "Tanh", "input": ["sequential_2/conv_lstm1d_5/while/add_5:z:0"], "attr": {"T": {"type": "DT_FLOAT"}}}, {"name": "sequential_2/conv_lstm1d_5/while/Identity_5", "op": "Identity", "input": ["sequential_2/conv_lstm1d_5/while/add_5:z:0", "^sequential_2/conv_lstm1d_5/while/NoOp"], "attr": {"T": {"type": "DT_FLOAT"}}}, {"name": "sequential_2/conv_lstm1d_5/while/mul_9", "op": "Mul", "input": ["sequential_2/conv_lstm1d_5/while/clip_by_value_2:z:0", "sequential_2/conv_lstm1d_5/while/Tanh_1:y:0"], "attr": {"T": {"type": "DT_FLOAT"}}}, {"name": "sequential_2/conv_lstm1d_5/while/TensorArrayV2Write/TensorListSetItem", "op": "TensorListSetItem", "input": ["sequential_2_conv_lstm1d_5_while_placeholder_1", "sequential_2_conv_lstm1d_5_while_placeholder", "sequential_2/conv_lstm1d_5/while/mul_9:z:0"], "attr": {"element_dtype": {"type": "DT_FLOAT"}}, "experimentalType": {"typeId": "TFT_PRODUCT", "args": [{"typeId": "TFT_ARRAY", "args": [{"typeId": "TFT_TENSOR", "args": [{"typeId": "TFT_FLOAT"}]}]}]}}, {"name": "sequential_2/conv_lstm1d_5/while/Identity_4", "op": "Identity", "input": ["sequential_2/conv_lstm1d_5/while/mul_9:z:0", "^sequential_2/conv_lstm1d_5/while/NoOp"], "attr": {"T": {"type": "DT_FLOAT"}}}, {"name": "sequential_2/conv_lstm1d_5/while/Identity_3", "op": "Identity", "input": ["sequential_2/conv_lstm1d_5/while/TensorArrayV2Write/TensorListSetItem:output_handle:0", "^sequential_2/conv_lstm1d_5/while/NoOp"], "attr": {"T": {"type": "DT_VARIANT"}}}], "ret": {"sequential_2_conv_lstm1d_5_while_identity": "sequential_2/conv_lstm1d_5/while/Identity:output:0", "sequential_2_conv_lstm1d_5_while_identity_5": "sequential_2/conv_lstm1d_5/while/Identity_5:output:0", "sequential_2_conv_lstm1d_5_while_split_readvariableop_resource": "sequential_2_conv_lstm1d_5_while_split_readvariableop_resource_0", "sequential_2_conv_lstm1d_5_while_split_2_readvariableop_resource": "sequential_2_conv_lstm1d_5_while_split_2_readvariableop_resource_0", "sequential_2_conv_lstm1d_5_while_identity_3": "sequential_2/conv_lstm1d_5/while/Identity_3:output:0", "sequential_2_conv_lstm1d_5_while_identity_4": "sequential_2/conv_lstm1d_5/while/Identity_4:output:0", "sequential_2_conv_lstm1d_5_while_identity_2": "sequential_2/conv_lstm1d_5/while/Identity_2:output:0", "sequential_2_conv_lstm1d_5_while_tensorarrayv2read_tensorlistgetitem_sequential_2_conv_lstm1d_5_tensorarrayunstack_tensorlistfromtensor": "sequential_2_conv_lstm1d_5_while_tensorarrayv2read_tensorlistgetitem_sequential_2_conv_lstm1d_5_tensorarrayunstack_tensorlistfromtensor_0", "sequential_2_conv_lstm1d_5_while_sequential_2_conv_lstm1d_5_strided_slice": "sequential_2_conv_lstm1d_5_while_sequential_2_conv_lstm1d_5_strided_slice_0", "sequential_2_conv_lstm1d_5_while_split_1_readvariableop_resource": "sequential_2_conv_lstm1d_5_while_split_1_readvariableop_resource_0", "sequential_2_conv_lstm1d_5_while_identity_1": "sequential_2/conv_lstm1d_5/while/Identity_1:output:0"}, "attr": {"_construction_context": {"s": "a0VhZ2VyUnVudGltZQ=="}}, "controlRet": {"sequential_2/conv_lstm1d_5/while/split/ReadVariableOp": "sequential_2/conv_lstm1d_5/while/split/ReadVariableOp", "sequential_2/conv_lstm1d_5/while/split_2/ReadVariableOp": "sequential_2/conv_lstm1d_5/while/split_2/ReadVariableOp", "sequential_2/conv_lstm1d_5/while/split_1/ReadVariableOp": "sequential_2/conv_lstm1d_5/while/split_1/ReadVariableOp"}, "argAttr": {"2": {"attr": {"_output_shapes": {"list": {"shape": [{}]}}}}, "4": {"attr": {"_output_shapes": {"list": {"shape": [{"dim": [{"size": "-1"}, {"size": "412"}, {"size": "14"}]}]}}}}, "1": {"attr": {"_output_shapes": {"list": {"shape": [{}]}}}}, "6": {"attr": {"_output_shapes": {"list": {"shape": [{}]}}}}, "3": {"attr": {"_output_shapes": {"list": {"shape": [{}]}}}}, "5": {"attr": {"_output_shapes": {"list": {"shape": [{"dim": [{"size": "-1"}, {"size": "412"}, {"size": "14"}]}]}}}}, "7": {"attr": {"_output_shapes": {"list": {"shape": [{}]}}}}, "0": {"attr": {"_output_shapes": {"list": {"shape": [{}]}}}}}}, {"signature": {"name": "__inference_sequential_2_conv_lstm1d_4_while_cond_2826_frozen_12867", "inputArg": [{"name": "sequential_2_conv_lstm1d_4_while_sequential_2_conv_lstm1d_4_while_loop_counter", "type": "DT_INT32"}, {"name": "sequential_2_conv_lstm1d_4_while_sequential_2_conv_lstm1d_4_while_maximum_iterations", "type": "DT_INT32"}, {"name": "sequential_2_conv_lstm1d_4_while_placeholder", "type": "DT_INT32"}, {"name": "sequential_2_conv_lstm1d_4_while_placeholder_1", "type": "DT_VARIANT"}, {"name": "sequential_2_conv_lstm1d_4_while_placeholder_2", "type": "DT_FLOAT"}, {"name": "sequential_2_conv_lstm1d_4_while_placeholder_3", "type": "DT_FLOAT"}, {"name": "sequential_2_conv_lstm1d_4_while_less_sequential_2_conv_lstm1d_4_strided_slice", "type": "DT_INT32"}, {"name": "sequential_2_conv_lstm1d_4_while_sequential_2_conv_lstm1d_4_while_cond_2826___redundant_placeholder0", "type": "DT_VARIANT"}, {"name": "sequential_2_conv_lstm1d_4_while_sequential_2_conv_lstm1d_4_while_cond_2826___redundant_placeholder1", "type": "DT_FLOAT"}, {"name": "sequential_2_conv_lstm1d_4_while_sequential_2_conv_lstm1d_4_while_cond_2826___redundant_placeholder2", "type": "DT_FLOAT"}, {"name": "sequential_2_conv_lstm1d_4_while_sequential_2_conv_lstm1d_4_while_cond_2826___redundant_placeholder3", "type": "DT_FLOAT"}], "outputArg": [{"name": "sequential_2_conv_lstm1d_4_while_identity", "type": "DT_BOOL"}]}, "nodeDef": [{"name": "sequential_2/conv_lstm1d_4/while/Less", "op": "Less", "input": ["sequential_2_conv_lstm1d_4_while_placeholder", "sequential_2_conv_lstm1d_4_while_less_sequential_2_conv_lstm1d_4_strided_slice"], "attr": {"T": {"type": "DT_INT32"}}}], "ret": {"sequential_2_conv_lstm1d_4_while_identity": "sequential_2/conv_lstm1d_4/while/Less:z:0"}, "attr": {"_construction_context": {"s": "a0VhZ2VyUnVudGltZQ=="}}, "argAttr": {"4": {"attr": {"_output_shapes": {"list": {"shape": [{"dim": [{"size": "-1"}, {"size": "828"}, {"size": "8"}]}]}}}}, "1": {"attr": {"_output_shapes": {"list": {"shape": [{}]}}}}, "6": {"attr": {"_output_shapes": {"list": {"shape": [{}]}}}}, "3": {"attr": {"_output_shapes": {"list": {"shape": [{}]}}}}, "5": {"attr": {"_output_shapes": {"list": {"shape": [{"dim": [{"size": "-1"}, {"size": "828"}, {"size": "8"}]}]}}}}, "7": {"attr": {"_output_shapes": {"list": {"shape": [{"unknownRank": true}]}}}}, "0": {"attr": {"_output_shapes": {"list": {"shape": [{}]}}}}, "2": {"attr": {"_output_shapes": {"list": {"shape": [{}]}}}}}}, {"signature": {"name": "__inference_sequential_2_conv_lstm1d_3_while_body_2504_frozen_12869", "inputArg": [{"name": "sequential_2_conv_lstm1d_3_while_sequential_2_conv_lstm1d_3_while_loop_counter", "type": "DT_INT32"}, {"name": "sequential_2_conv_lstm1d_3_while_sequential_2_conv_lstm1d_3_while_maximum_iterations", "type": "DT_INT32"}, {"name": "sequential_2_conv_lstm1d_3_while_placeholder", "type": "DT_INT32"}, {"name": "sequential_2_conv_lstm1d_3_while_placeholder_1", "type": "DT_VARIANT"}, {"name": "sequential_2_conv_lstm1d_3_while_placeholder_2", "type": "DT_FLOAT"}, {"name": "sequential_2_conv_lstm1d_3_while_placeholder_3", "type": "DT_FLOAT"}, {"name": "sequential_2_conv_lstm1d_3_while_sequential_2_conv_lstm1d_3_strided_slice_0", "type": "DT_INT32"}, {"name": "sequential_2_conv_lstm1d_3_while_tensorarrayv2read_tensorlistgetitem_sequential_2_conv_lstm1d_3_tensorarrayunstack_tensorlistfromtensor_0", "type": "DT_VARIANT"}, {"name": "sequential_2_conv_lstm1d_3_while_split_readvariableop_resource_0", "type": "DT_FLOAT"}, {"name": "sequential_2_conv_lstm1d_3_while_split_1_readvariableop_resource_0", "type": "DT_FLOAT"}, {"name": "sequential_2_conv_lstm1d_3_while_split_2_readvariableop_resource_0", "type": "DT_FLOAT"}], "outputArg": [{"name": "sequential_2_conv_lstm1d_3_while_identity", "type": "DT_INT32"}, {"name": "sequential_2_conv_lstm1d_3_while_identity_1", "type": "DT_INT32"}, {"name": "sequential_2_conv_lstm1d_3_while_identity_2", "type": "DT_INT32"}, {"name": "sequential_2_conv_lstm1d_3_while_identity_3", "type": "DT_VARIANT"}, {"name": "sequential_2_conv_lstm1d_3_while_identity_4", "type": "DT_FLOAT"}, {"name": "sequential_2_conv_lstm1d_3_while_identity_5", "type": "DT_FLOAT"}, {"name": "sequential_2_conv_lstm1d_3_while_sequential_2_conv_lstm1d_3_strided_slice", "type": "DT_INT32"}, {"name": "sequential_2_conv_lstm1d_3_while_tensorarrayv2read_tensorlistgetitem_sequential_2_conv_lstm1d_3_tensorarrayunstack_tensorlistfromtensor", "type": "DT_VARIANT"}, {"name": "sequential_2_conv_lstm1d_3_while_split_readvariableop_resource", "type": "DT_FLOAT"}, {"name": "sequential_2_conv_lstm1d_3_while_split_1_readvariableop_resource", "type": "DT_FLOAT"}, {"name": "sequential_2_conv_lstm1d_3_while_split_2_readvariableop_resource", "type": "DT_FLOAT"}], "isStateful": true, "controlOutput": ["sequential_2/conv_lstm1d_3/while/split/ReadVariableOp", "sequential_2/conv_lstm1d_3/while/split_1/ReadVariableOp", "sequential_2/conv_lstm1d_3/while/split_2/ReadVariableOp"]}, "nodeDef": [{"name": "__inference_sequential_2_conv_lstm1d_3_while_body_2504_frozen_12869/sequential_2/conv_lstm1d_3/while/add_8/y", "op": "Const", "attr": {"dtype": {"type": "DT_INT32"}, "value": {"tensor": {"dtype": "DT_INT32", "tensorShape": {}}}}}, {"name": "__inference_sequential_2_conv_lstm1d_3_while_body_2504_frozen_12869/sequential_2/conv_lstm1d_3/while/convolution_3/ExpandDims/dim", "op": "Const", "attr": {"value": {"tensor": {"dtype": "DT_INT32", "tensorShape": {}}}, "dtype": {"type": "DT_INT32"}}}, {"name": "__inference_sequential_2_conv_lstm1d_3_while_body_2504_frozen_12869/sequential_2/conv_lstm1d_3/while/convolution_3/ExpandDims_1/dim", "op": "Const", "attr": {"dtype": {"type": "DT_INT32"}, "value": {"tensor": {"dtype": "DT_INT32", "tensorShape": {}}}}}, {"name": "__inference_sequential_2_conv_lstm1d_3_while_body_2504_frozen_12869/sequential_2/conv_lstm1d_3/while/convolution_7/ExpandDims/dim", "op": "Const", "attr": {"value": {"tensor": {"dtype": "DT_INT32", "tensorShape": {}}}, "dtype": {"type": "DT_INT32"}}}, {"name": "__inference_sequential_2_conv_lstm1d_3_while_body_2504_frozen_12869/sequential_2/conv_lstm1d_3/while/convolution_7/ExpandDims_1/dim", "op": "Const", "attr": {"dtype": {"type": "DT_INT32"}, "value": {"tensor": {"dtype": "DT_INT32", "tensorShape": {}}}}}, {"name": "__inference_sequential_2_conv_lstm1d_3_while_body_2504_frozen_12869/sequential_2/conv_lstm1d_3/while/Const_4", "op": "Const", "attr": {"dtype": {"type": "DT_FLOAT"}, "value": {"tensor": {"dtype": "DT_FLOAT", "tensorShape": {}}}}}, {"name": "__inference_sequential_2_conv_lstm1d_3_while_body_2504_frozen_12869/sequential_2/conv_lstm1d_3/while/Const_5", "op": "Const", "attr": {"value": {"tensor": {"dtype": "DT_FLOAT", "tensorShape": {}}}, "dtype": {"type": "DT_FLOAT"}}}, {"name": "__inference_sequential_2_conv_lstm1d_3_while_body_2504_frozen_12869/sequential_2/conv_lstm1d_3/while/clip_by_value_2/Minimum/y", "op": "Const", "attr": {"dtype": {"type": "DT_FLOAT"}, "value": {"tensor": {"dtype": "DT_FLOAT", "tensorShape": {}}}}}, {"name": "__inference_sequential_2_conv_lstm1d_3_while_body_2504_frozen_12869/sequential_2/conv_lstm1d_3/while/clip_by_value_2/y", "op": "Const", "attr": {"value": {"tensor": {"dtype": "DT_FLOAT", "tensorShape": {}}}, "dtype": {"type": "DT_FLOAT"}}}, {"name": "__inference_sequential_2_conv_lstm1d_3_while_body_2504_frozen_12869/sequential_2/conv_lstm1d_3/while/convolution_1/ExpandDims/dim", "op": "Const", "attr": {"value": {"tensor": {"dtype": "DT_INT32", "tensorShape": {}}}, "dtype": {"type": "DT_INT32"}}}, {"name": "__inference_sequential_2_conv_lstm1d_3_while_body_2504_frozen_12869/sequential_2/conv_lstm1d_3/while/convolution_1/ExpandDims_1/dim", "op": "Const", "attr": {"dtype": {"type": "DT_INT32"}, "value": {"tensor": {"dtype": "DT_INT32", "tensorShape": {}}}}}, {"name": "__inference_sequential_2_conv_lstm1d_3_while_body_2504_frozen_12869/sequential_2/conv_lstm1d_3/while/convolution_5/ExpandDims/dim", "op": "Const", "attr": {"value": {"tensor": {"dtype": "DT_INT32", "tensorShape": {}}}, "dtype": {"type": "DT_INT32"}}}, {"name": "__inference_sequential_2_conv_lstm1d_3_while_body_2504_frozen_12869/sequential_2/conv_lstm1d_3/while/convolution_5/ExpandDims_1/dim", "op": "Const", "attr": {"dtype": {"type": "DT_INT32"}, "value": {"tensor": {"dtype": "DT_INT32", "tensorShape": {}}}}}, {"name": "__inference_sequential_2_conv_lstm1d_3_while_body_2504_frozen_12869/sequential_2/conv_lstm1d_3/while/Const_2", "op": "Const", "attr": {"value": {"tensor": {"dtype": "DT_FLOAT", "tensorShape": {}}}, "dtype": {"type": "DT_FLOAT"}}}, {"name": "__inference_sequential_2_conv_lstm1d_3_while_body_2504_frozen_12869/sequential_2/conv_lstm1d_3/while/Const_3", "op": "Const", "attr": {"dtype": {"type": "DT_FLOAT"}, "value": {"tensor": {"dtype": "DT_FLOAT", "tensorShape": {}}}}}, {"name": "__inference_sequential_2_conv_lstm1d_3_while_body_2504_frozen_12869/sequential_2/conv_lstm1d_3/while/clip_by_value_1/Minimum/y", "op": "Const", "attr": {"value": {"tensor": {"dtype": "DT_FLOAT", "tensorShape": {}}}, "dtype": {"type": "DT_FLOAT"}}}, {"name": "__inference_sequential_2_conv_lstm1d_3_while_body_2504_frozen_12869/sequential_2/conv_lstm1d_3/while/clip_by_value_1/y", "op": "Const", "attr": {"dtype": {"type": "DT_FLOAT"}, "value": {"tensor": {"dtype": "DT_FLOAT", "tensorShape": {}}}}}, {"name": "__inference_sequential_2_conv_lstm1d_3_while_body_2504_frozen_12869/sequential_2/conv_lstm1d_3/while/convolution/ExpandDims/dim", "op": "Const", "attr": {"value": {"tensor": {"dtype": "DT_INT32", "tensorShape": {}}}, "dtype": {"type": "DT_INT32"}}}, {"name": "__inference_sequential_2_conv_lstm1d_3_while_body_2504_frozen_12869/sequential_2/conv_lstm1d_3/while/convolution/ExpandDims_1/dim", "op": "Const", "attr": {"value": {"tensor": {"dtype": "DT_INT32", "tensorShape": {}}}, "dtype": {"type": "DT_INT32"}}}, {"name": "__inference_sequential_2_conv_lstm1d_3_while_body_2504_frozen_12869/sequential_2/conv_lstm1d_3/while/convolution_4/ExpandDims/dim", "op": "Const", "attr": {"value": {"tensor": {"dtype": "DT_INT32", "tensorShape": {}}}, "dtype": {"type": "DT_INT32"}}}, {"name": "__inference_sequential_2_conv_lstm1d_3_while_body_2504_frozen_12869/sequential_2/conv_lstm1d_3/while/convolution_4/ExpandDims_1/dim", "op": "Const", "attr": {"dtype": {"type": "DT_INT32"}, "value": {"tensor": {"dtype": "DT_INT32", "tensorShape": {}}}}}, {"name": "__inference_sequential_2_conv_lstm1d_3_while_body_2504_frozen_12869/sequential_2/conv_lstm1d_3/while/Const", "op": "Const", "attr": {"dtype": {"type": "DT_FLOAT"}, "value": {"tensor": {"dtype": "DT_FLOAT", "tensorShape": {}}}}}, {"name": "__inference_sequential_2_conv_lstm1d_3_while_body_2504_frozen_12869/sequential_2/conv_lstm1d_3/while/Const_1", "op": "Const", "attr": {"dtype": {"type": "DT_FLOAT"}, "value": {"tensor": {"dtype": "DT_FLOAT", "tensorShape": {}}}}}, {"name": "__inference_sequential_2_conv_lstm1d_3_while_body_2504_frozen_12869/sequential_2/conv_lstm1d_3/while/clip_by_value/Minimum/y", "op": "Const", "attr": {"dtype": {"type": "DT_FLOAT"}, "value": {"tensor": {"dtype": "DT_FLOAT", "tensorShape": {}}}}}, {"name": "__inference_sequential_2_conv_lstm1d_3_while_body_2504_frozen_12869/sequential_2/conv_lstm1d_3/while/clip_by_value/y", "op": "Const", "attr": {"dtype": {"type": "DT_FLOAT"}, "value": {"tensor": {"dtype": "DT_FLOAT", "tensorShape": {}}}}}, {"name": "__inference_sequential_2_conv_lstm1d_3_while_body_2504_frozen_12869/sequential_2/conv_lstm1d_3/while/TensorArrayV2Read/TensorListGetItem/element_shape", "op": "Const", "attr": {"value": {"tensor": {"dtype": "DT_INT32", "tensorShape": {"dim": [{"size": "3"}]}}}, "dtype": {"type": "DT_INT32"}}}, {"name": "__inference_sequential_2_conv_lstm1d_3_while_body_2504_frozen_12869/sequential_2/conv_lstm1d_3/while/convolution_2/ExpandDims/dim", "op": "Const", "attr": {"dtype": {"type": "DT_INT32"}, "value": {"tensor": {"dtype": "DT_INT32", "tensorShape": {}}}}}, {"name": "__inference_sequential_2_conv_lstm1d_3_while_body_2504_frozen_12869/sequential_2/conv_lstm1d_3/while/split/split_dim", "op": "Const", "attr": {"value": {"tensor": {"dtype": "DT_INT32", "tensorShape": {}}}, "dtype": {"type": "DT_INT32"}}}, {"name": "__inference_sequential_2_conv_lstm1d_3_while_body_2504_frozen_12869/sequential_2/conv_lstm1d_3/while/convolution_2/ExpandDims_1/dim", "op": "Const", "attr": {"dtype": {"type": "DT_INT32"}, "value": {"tensor": {"dtype": "DT_INT32", "tensorShape": {}}}}}, {"name": "__inference_sequential_2_conv_lstm1d_3_while_body_2504_frozen_12869/sequential_2/conv_lstm1d_3/while/split_2/split_dim", "op": "Const", "attr": {"value": {"tensor": {"dtype": "DT_INT32", "tensorShape": {}}}, "dtype": {"type": "DT_INT32"}}}, {"name": "__inference_sequential_2_conv_lstm1d_3_while_body_2504_frozen_12869/sequential_2/conv_lstm1d_3/while/ones_like/Const", "op": "Const", "attr": {"value": {"tensor": {"dtype": "DT_FLOAT", "tensorShape": {}}}, "dtype": {"type": "DT_FLOAT"}}}, {"name": "__inference_sequential_2_conv_lstm1d_3_while_body_2504_frozen_12869/sequential_2/conv_lstm1d_3/while/convolution_6/ExpandDims/dim", "op": "Const", "attr": {"value": {"tensor": {"dtype": "DT_INT32", "tensorShape": {}}}, "dtype": {"type": "DT_INT32"}}}, {"name": "__inference_sequential_2_conv_lstm1d_3_while_body_2504_frozen_12869/sequential_2/conv_lstm1d_3/while/split_1/split_dim", "op": "Const", "attr": {"value": {"tensor": {"dtype": "DT_INT32", "tensorShape": {}}}, "dtype": {"type": "DT_INT32"}}}, {"name": "__inference_sequential_2_conv_lstm1d_3_while_body_2504_frozen_12869/sequential_2/conv_lstm1d_3/while/convolution_6/ExpandDims_1/dim", "op": "Const", "attr": {"dtype": {"type": "DT_INT32"}, "value": {"tensor": {"dtype": "DT_INT32", "tensorShape": {}}}}}, {"name": "__inference_sequential_2_conv_lstm1d_3_while_body_2504_frozen_12869/sequential_2/conv_lstm1d_3/while/add_9/y", "op": "Const", "attr": {"dtype": {"type": "DT_INT32"}, "value": {"tensor": {"dtype": "DT_INT32", "tensorShape": {}}}}}, {"name": "sequential_2/conv_lstm1d_3/while/ones_like/Shape", "op": "Shape", "input": ["sequential_2_conv_lstm1d_3_while_placeholder_2"], "attr": {"T": {"type": "DT_FLOAT"}, "out_type": {"type": "DT_INT32"}}}, {"name": "sequential_2/conv_lstm1d_3/while/split/ReadVariableOp", "op": "Identity", "input": ["sequential_2_conv_lstm1d_3_while_split_readvariableop_resource_0"], "attr": {"T": {"type": "DT_FLOAT"}}}, {"name": "sequential_2/conv_lstm1d_3/while/split_1/ReadVariableOp", "op": "Identity", "input": ["sequential_2_conv_lstm1d_3_while_split_1_readvariableop_resource_0"], "attr": {"T": {"type": "DT_FLOAT"}}}, {"name": "sequential_2/conv_lstm1d_3/while/split_2/ReadVariableOp", "op": "Identity", "input": ["sequential_2_conv_lstm1d_3_while_split_2_readvariableop_resource_0"], "attr": {"T": {"type": "DT_FLOAT"}}}, {"name": "sequential_2/conv_lstm1d_3/while/add_8", "op": "AddV2", "input": ["sequential_2_conv_lstm1d_3_while_placeholder", "__inference_sequential_2_conv_lstm1d_3_while_body_2504_frozen_12869/sequential_2/conv_lstm1d_3/while/add_8/y:output:0"], "attr": {"T": {"type": "DT_INT32"}}}, {"name": "sequential_2/conv_lstm1d_3/while/TensorArrayV2Read/TensorListGetItem", "op": "TensorListGetItem", "input": ["sequential_2_conv_lstm1d_3_while_tensorarrayv2read_tensorlistgetitem_sequential_2_conv_lstm1d_3_tensorarrayunstack_tensorlistfromtensor_0", "sequential_2_conv_lstm1d_3_while_placeholder", "__inference_sequential_2_conv_lstm1d_3_while_body_2504_frozen_12869/sequential_2/conv_lstm1d_3/while/TensorArrayV2Read/TensorListGetItem/element_shape:output:0"], "attr": {"element_dtype": {"type": "DT_FLOAT"}}}, {"name": "sequential_2/conv_lstm1d_3/while/add_9", "op": "AddV2", "input": ["sequential_2_conv_lstm1d_3_while_sequential_2_conv_lstm1d_3_while_loop_counter", "__inference_sequential_2_conv_lstm1d_3_while_body_2504_frozen_12869/sequential_2/conv_lstm1d_3/while/add_9/y:output:0"], "attr": {"T": {"type": "DT_INT32"}}}, {"name": "sequential_2/conv_lstm1d_3/while/ones_like", "op": "Fill", "input": ["sequential_2/conv_lstm1d_3/while/ones_like/Shape:output:0", "__inference_sequential_2_conv_lstm1d_3_while_body_2504_frozen_12869/sequential_2/conv_lstm1d_3/while/ones_like/Const:output:0"], "attr": {"index_type": {"type": "DT_INT32"}, "T": {"type": "DT_FLOAT"}}}, {"name": "sequential_2/conv_lstm1d_3/while/split", "op": "Split", "input": ["__inference_sequential_2_conv_lstm1d_3_while_body_2504_frozen_12869/sequential_2/conv_lstm1d_3/while/split/split_dim:output:0", "sequential_2/conv_lstm1d_3/while/split/ReadVariableOp:output:0"], "attr": {"num_split": {"i": "4"}, "T": {"type": "DT_FLOAT"}}}, {"name": "sequential_2/conv_lstm1d_3/while/split_1", "op": "Split", "input": ["__inference_sequential_2_conv_lstm1d_3_while_body_2504_frozen_12869/sequential_2/conv_lstm1d_3/while/split_1/split_dim:output:0", "sequential_2/conv_lstm1d_3/while/split_1/ReadVariableOp:output:0"], "attr": {"num_split": {"i": "4"}, "T": {"type": "DT_FLOAT"}}}, {"name": "sequential_2/conv_lstm1d_3/while/NoOp", "op": "NoOp", "input": ["^sequential_2/conv_lstm1d_3/while/split/ReadVariableOp", "^sequential_2/conv_lstm1d_3/while/split_1/ReadVariableOp", "^sequential_2/conv_lstm1d_3/while/split_2/ReadVariableOp"], "attr": {"_acd_function_control_output": {"b": true}}}, {"name": "sequential_2/conv_lstm1d_3/while/split_2", "op": "Split", "input": ["__inference_sequential_2_conv_lstm1d_3_while_body_2504_frozen_12869/sequential_2/conv_lstm1d_3/while/split_2/split_dim:output:0", "sequential_2/conv_lstm1d_3/while/split_2/ReadVariableOp:output:0"], "attr": {"T": {"type": "DT_FLOAT"}, "num_split": {"i": "4"}}}, {"name": "sequential_2/conv_lstm1d_3/while/convolution_3/ExpandDims", "op": "ExpandDims", "input": ["sequential_2/conv_lstm1d_3/while/TensorArrayV2Read/TensorListGetItem:item:0", "__inference_sequential_2_conv_lstm1d_3_while_body_2504_frozen_12869/sequential_2/conv_lstm1d_3/while/convolution_3/ExpandDims/dim:output:0"], "attr": {"T": {"type": "DT_FLOAT"}, "Tdim": {"type": "DT_INT32"}}}, {"name": "sequential_2/conv_lstm1d_3/while/convolution_1/ExpandDims", "op": "ExpandDims", "input": ["sequential_2/conv_lstm1d_3/while/TensorArrayV2Read/TensorListGetItem:item:0", "__inference_sequential_2_conv_lstm1d_3_while_body_2504_frozen_12869/sequential_2/conv_lstm1d_3/while/convolution_1/ExpandDims/dim:output:0"], "attr": {"Tdim": {"type": "DT_INT32"}, "T": {"type": "DT_FLOAT"}}}, {"name": "sequential_2/conv_lstm1d_3/while/convolution/ExpandDims", "op": "ExpandDims", "input": ["sequential_2/conv_lstm1d_3/while/TensorArrayV2Read/TensorListGetItem:item:0", "__inference_sequential_2_conv_lstm1d_3_while_body_2504_frozen_12869/sequential_2/conv_lstm1d_3/while/convolution/ExpandDims/dim:output:0"], "attr": {"T": {"type": "DT_FLOAT"}, "Tdim": {"type": "DT_INT32"}}}, {"name": "sequential_2/conv_lstm1d_3/while/convolution_2/ExpandDims", "op": "ExpandDims", "input": ["sequential_2/conv_lstm1d_3/while/TensorArrayV2Read/TensorListGetItem:item:0", "__inference_sequential_2_conv_lstm1d_3_while_body_2504_frozen_12869/sequential_2/conv_lstm1d_3/while/convolution_2/ExpandDims/dim:output:0"], "attr": {"Tdim": {"type": "DT_INT32"}, "T": {"type": "DT_FLOAT"}}}, {"name": "sequential_2/conv_lstm1d_3/while/mul_3", "op": "Mul", "input": ["sequential_2_conv_lstm1d_3_while_placeholder_2", "sequential_2/conv_lstm1d_3/while/ones_like:output:0"], "attr": {"T": {"type": "DT_FLOAT"}}}, {"name": "sequential_2/conv_lstm1d_3/while/mul_1", "op": "Mul", "input": ["sequential_2_conv_lstm1d_3_while_placeholder_2", "sequential_2/conv_lstm1d_3/while/ones_like:output:0"], "attr": {"T": {"type": "DT_FLOAT"}}}, {"name": "sequential_2/conv_lstm1d_3/while/mul", "op": "Mul", "input": ["sequential_2_conv_lstm1d_3_while_placeholder_2", "sequential_2/conv_lstm1d_3/while/ones_like:output:0"], "attr": {"T": {"type": "DT_FLOAT"}}}, {"name": "sequential_2/conv_lstm1d_3/while/mul_2", "op": "Mul", "input": ["sequential_2_conv_lstm1d_3_while_placeholder_2", "sequential_2/conv_lstm1d_3/while/ones_like:output:0"], "attr": {"T": {"type": "DT_FLOAT"}}}, {"name": "sequential_2/conv_lstm1d_3/while/convolution/ExpandDims_1", "op": "ExpandDims", "input": ["sequential_2/conv_lstm1d_3/while/split:output:0", "__inference_sequential_2_conv_lstm1d_3_while_body_2504_frozen_12869/sequential_2/conv_lstm1d_3/while/convolution/ExpandDims_1/dim:output:0"], "attr": {"T": {"type": "DT_FLOAT"}, "Tdim": {"type": "DT_INT32"}}}, {"name": "sequential_2/conv_lstm1d_3/while/convolution_1/ExpandDims_1", "op": "ExpandDims", "input": ["sequential_2/conv_lstm1d_3/while/split:output:1", "__inference_sequential_2_conv_lstm1d_3_while_body_2504_frozen_12869/sequential_2/conv_lstm1d_3/while/convolution_1/ExpandDims_1/dim:output:0"], "attr": {"T": {"type": "DT_FLOAT"}, "Tdim": {"type": "DT_INT32"}}}, {"name": "sequential_2/conv_lstm1d_3/while/convolution_3/ExpandDims_1", "op": "ExpandDims", "input": ["sequential_2/conv_lstm1d_3/while/split:output:3", "__inference_sequential_2_conv_lstm1d_3_while_body_2504_frozen_12869/sequential_2/conv_lstm1d_3/while/convolution_3/ExpandDims_1/dim:output:0"], "attr": {"T": {"type": "DT_FLOAT"}, "Tdim": {"type": "DT_INT32"}}}, {"name": "sequential_2/conv_lstm1d_3/while/convolution_2/ExpandDims_1", "op": "ExpandDims", "input": ["sequential_2/conv_lstm1d_3/while/split:output:2", "__inference_sequential_2_conv_lstm1d_3_while_body_2504_frozen_12869/sequential_2/conv_lstm1d_3/while/convolution_2/ExpandDims_1/dim:output:0"], "attr": {"Tdim": {"type": "DT_INT32"}, "T": {"type": "DT_FLOAT"}}}, {"name": "sequential_2/conv_lstm1d_3/while/convolution_4/ExpandDims_1", "op": "ExpandDims", "input": ["sequential_2/conv_lstm1d_3/while/split_1:output:0", "__inference_sequential_2_conv_lstm1d_3_while_body_2504_frozen_12869/sequential_2/conv_lstm1d_3/while/convolution_4/ExpandDims_1/dim:output:0"], "attr": {"T": {"type": "DT_FLOAT"}, "Tdim": {"type": "DT_INT32"}}}, {"name": "sequential_2/conv_lstm1d_3/while/convolution_5/ExpandDims_1", "op": "ExpandDims", "input": ["sequential_2/conv_lstm1d_3/while/split_1:output:1", "__inference_sequential_2_conv_lstm1d_3_while_body_2504_frozen_12869/sequential_2/conv_lstm1d_3/while/convolution_5/ExpandDims_1/dim:output:0"], "attr": {"Tdim": {"type": "DT_INT32"}, "T": {"type": "DT_FLOAT"}}}, {"name": "sequential_2/conv_lstm1d_3/while/convolution_7/ExpandDims_1", "op": "ExpandDims", "input": ["sequential_2/conv_lstm1d_3/while/split_1:output:3", "__inference_sequential_2_conv_lstm1d_3_while_body_2504_frozen_12869/sequential_2/conv_lstm1d_3/while/convolution_7/ExpandDims_1/dim:output:0"], "attr": {"Tdim": {"type": "DT_INT32"}, "T": {"type": "DT_FLOAT"}}}, {"name": "sequential_2/conv_lstm1d_3/while/convolution_6/ExpandDims_1", "op": "ExpandDims", "input": ["sequential_2/conv_lstm1d_3/while/split_1:output:2", "__inference_sequential_2_conv_lstm1d_3_while_body_2504_frozen_12869/sequential_2/conv_lstm1d_3/while/convolution_6/ExpandDims_1/dim:output:0"], "attr": {"T": {"type": "DT_FLOAT"}, "Tdim": {"type": "DT_INT32"}}}, {"name": "sequential_2/conv_lstm1d_3/while/Identity_1", "op": "Identity", "input": ["sequential_2_conv_lstm1d_3_while_sequential_2_conv_lstm1d_3_while_maximum_iterations", "^sequential_2/conv_lstm1d_3/while/NoOp"], "attr": {"T": {"type": "DT_INT32"}}}, {"name": "sequential_2/conv_lstm1d_3/while/Identity_2", "op": "Identity", "input": ["sequential_2/conv_lstm1d_3/while/add_8:z:0", "^sequential_2/conv_lstm1d_3/while/NoOp"], "attr": {"T": {"type": "DT_INT32"}}}, {"name": "sequential_2/conv_lstm1d_3/while/Identity", "op": "Identity", "input": ["sequential_2/conv_lstm1d_3/while/add_9:z:0", "^sequential_2/conv_lstm1d_3/while/NoOp"], "attr": {"T": {"type": "DT_INT32"}}}, {"name": "sequential_2/conv_lstm1d_3/while/convolution_7/ExpandDims", "op": "ExpandDims", "input": ["sequential_2/conv_lstm1d_3/while/mul_3:z:0", "__inference_sequential_2_conv_lstm1d_3_while_body_2504_frozen_12869/sequential_2/conv_lstm1d_3/while/convolution_7/ExpandDims/dim:output:0"], "attr": {"T": {"type": "DT_FLOAT"}, "Tdim": {"type": "DT_INT32"}}}, {"name": "sequential_2/conv_lstm1d_3/while/convolution_5/ExpandDims", "op": "ExpandDims", "input": ["sequential_2/conv_lstm1d_3/while/mul_1:z:0", "__inference_sequential_2_conv_lstm1d_3_while_body_2504_frozen_12869/sequential_2/conv_lstm1d_3/while/convolution_5/ExpandDims/dim:output:0"], "attr": {"T": {"type": "DT_FLOAT"}, "Tdim": {"type": "DT_INT32"}}}, {"name": "sequential_2/conv_lstm1d_3/while/convolution_4/ExpandDims", "op": "ExpandDims", "input": ["sequential_2/conv_lstm1d_3/while/mul:z:0", "__inference_sequential_2_conv_lstm1d_3_while_body_2504_frozen_12869/sequential_2/conv_lstm1d_3/while/convolution_4/ExpandDims/dim:output:0"], "attr": {"T": {"type": "DT_FLOAT"}, "Tdim": {"type": "DT_INT32"}}}, {"name": "sequential_2/conv_lstm1d_3/while/convolution_6/ExpandDims", "op": "ExpandDims", "input": ["sequential_2/conv_lstm1d_3/while/mul_2:z:0", "__inference_sequential_2_conv_lstm1d_3_while_body_2504_frozen_12869/sequential_2/conv_lstm1d_3/while/convolution_6/ExpandDims/dim:output:0"], "attr": {"Tdim": {"type": "DT_INT32"}, "T": {"type": "DT_FLOAT"}}}, {"name": "sequential_2/conv_lstm1d_3/while/convolution", "op": "Conv2D", "input": ["sequential_2/conv_lstm1d_3/while/convolution/ExpandDims:output:0", "sequential_2/conv_lstm1d_3/while/convolution/ExpandDims_1:output:0"], "attr": {"T": {"type": "DT_FLOAT"}, "data_format": {"s": "TkhXQw=="}, "dilations": {"list": {"i": ["1", "1", "1", "1"]}}, "explicit_paddings": {"list": {}}, "use_cudnn_on_gpu": {"b": true}, "strides": {"list": {"i": ["1", "1", "1", "1"]}}, "padding": {"s": "VkFMSUQ="}}}, {"name": "sequential_2/conv_lstm1d_3/while/convolution_1", "op": "Conv2D", "input": ["sequential_2/conv_lstm1d_3/while/convolution_1/ExpandDims:output:0", "sequential_2/conv_lstm1d_3/while/convolution_1/ExpandDims_1:output:0"], "attr": {"strides": {"list": {"i": ["1", "1", "1", "1"]}}, "T": {"type": "DT_FLOAT"}, "explicit_paddings": {"list": {}}, "padding": {"s": "VkFMSUQ="}, "dilations": {"list": {"i": ["1", "1", "1", "1"]}}, "data_format": {"s": "TkhXQw=="}, "use_cudnn_on_gpu": {"b": true}}}, {"name": "sequential_2/conv_lstm1d_3/while/convolution_3", "op": "Conv2D", "input": ["sequential_2/conv_lstm1d_3/while/convolution_3/ExpandDims:output:0", "sequential_2/conv_lstm1d_3/while/convolution_3/ExpandDims_1:output:0"], "attr": {"strides": {"list": {"i": ["1", "1", "1", "1"]}}, "T": {"type": "DT_FLOAT"}, "data_format": {"s": "TkhXQw=="}, "dilations": {"list": {"i": ["1", "1", "1", "1"]}}, "explicit_paddings": {"list": {}}, "use_cudnn_on_gpu": {"b": true}, "padding": {"s": "VkFMSUQ="}}}, {"name": "sequential_2/conv_lstm1d_3/while/convolution_2", "op": "Conv2D", "input": ["sequential_2/conv_lstm1d_3/while/convolution_2/ExpandDims:output:0", "sequential_2/conv_lstm1d_3/while/convolution_2/ExpandDims_1:output:0"], "attr": {"padding": {"s": "VkFMSUQ="}, "explicit_paddings": {"list": {}}, "strides": {"list": {"i": ["1", "1", "1", "1"]}}, "dilations": {"list": {"i": ["1", "1", "1", "1"]}}, "data_format": {"s": "TkhXQw=="}, "use_cudnn_on_gpu": {"b": true}, "T": {"type": "DT_FLOAT"}}}, {"name": "sequential_2/conv_lstm1d_3/while/convolution_7", "op": "Conv2D", "input": ["sequential_2/conv_lstm1d_3/while/convolution_7/ExpandDims:output:0", "sequential_2/conv_lstm1d_3/while/convolution_7/ExpandDims_1:output:0"], "attr": {"explicit_paddings": {"list": {}}, "strides": {"list": {"i": ["1", "1", "1", "1"]}}, "T": {"type": "DT_FLOAT"}, "padding": {"s": "U0FNRQ=="}, "data_format": {"s": "TkhXQw=="}, "use_cudnn_on_gpu": {"b": true}, "dilations": {"list": {"i": ["1", "1", "1", "1"]}}}}, {"name": "sequential_2/conv_lstm1d_3/while/convolution_5", "op": "Conv2D", "input": ["sequential_2/conv_lstm1d_3/while/convolution_5/ExpandDims:output:0", "sequential_2/conv_lstm1d_3/while/convolution_5/ExpandDims_1:output:0"], "attr": {"dilations": {"list": {"i": ["1", "1", "1", "1"]}}, "use_cudnn_on_gpu": {"b": true}, "T": {"type": "DT_FLOAT"}, "strides": {"list": {"i": ["1", "1", "1", "1"]}}, "data_format": {"s": "TkhXQw=="}, "explicit_paddings": {"list": {}}, "padding": {"s": "U0FNRQ=="}}}, {"name": "sequential_2/conv_lstm1d_3/while/convolution_4", "op": "Conv2D", "input": ["sequential_2/conv_lstm1d_3/while/convolution_4/ExpandDims:output:0", "sequential_2/conv_lstm1d_3/while/convolution_4/ExpandDims_1:output:0"], "attr": {"data_format": {"s": "TkhXQw=="}, "strides": {"list": {"i": ["1", "1", "1", "1"]}}, "padding": {"s": "U0FNRQ=="}, "dilations": {"list": {"i": ["1", "1", "1", "1"]}}, "explicit_paddings": {"list": {}}, "T": {"type": "DT_FLOAT"}, "use_cudnn_on_gpu": {"b": true}}}, {"name": "sequential_2/conv_lstm1d_3/while/convolution_6", "op": "Conv2D", "input": ["sequential_2/conv_lstm1d_3/while/convolution_6/ExpandDims:output:0", "sequential_2/conv_lstm1d_3/while/convolution_6/ExpandDims_1:output:0"], "attr": {"strides": {"list": {"i": ["1", "1", "1", "1"]}}, "use_cudnn_on_gpu": {"b": true}, "dilations": {"list": {"i": ["1", "1", "1", "1"]}}, "padding": {"s": "U0FNRQ=="}, "explicit_paddings": {"list": {}}, "data_format": {"s": "TkhXQw=="}, "T": {"type": "DT_FLOAT"}}}, {"name": "sequential_2/conv_lstm1d_3/while/convolution/Squeeze", "op": "Squeeze", "input": ["sequential_2/conv_lstm1d_3/while/convolution:output:0"], "attr": {"T": {"type": "DT_FLOAT"}, "squeeze_dims": {"list": {"i": ["-3"]}}}}, {"name": "sequential_2/conv_lstm1d_3/while/convolution_1/Squeeze", "op": "Squeeze", "input": ["sequential_2/conv_lstm1d_3/while/convolution_1:output:0"], "attr": {"squeeze_dims": {"list": {"i": ["-3"]}}, "T": {"type": "DT_FLOAT"}}}, {"name": "sequential_2/conv_lstm1d_3/while/convolution_3/Squeeze", "op": "Squeeze", "input": ["sequential_2/conv_lstm1d_3/while/convolution_3:output:0"], "attr": {"T": {"type": "DT_FLOAT"}, "squeeze_dims": {"list": {"i": ["-3"]}}}}, {"name": "sequential_2/conv_lstm1d_3/while/convolution_2/Squeeze", "op": "Squeeze", "input": ["sequential_2/conv_lstm1d_3/while/convolution_2:output:0"], "attr": {"T": {"type": "DT_FLOAT"}, "squeeze_dims": {"list": {"i": ["-3"]}}}}, {"name": "sequential_2/conv_lstm1d_3/while/convolution_7/Squeeze", "op": "Squeeze", "input": ["sequential_2/conv_lstm1d_3/while/convolution_7:output:0"], "attr": {"T": {"type": "DT_FLOAT"}, "squeeze_dims": {"list": {"i": ["-3"]}}}}, {"name": "sequential_2/conv_lstm1d_3/while/convolution_5/Squeeze", "op": "Squeeze", "input": ["sequential_2/conv_lstm1d_3/while/convolution_5:output:0"], "attr": {"T": {"type": "DT_FLOAT"}, "squeeze_dims": {"list": {"i": ["-3"]}}}}, {"name": "sequential_2/conv_lstm1d_3/while/convolution_4/Squeeze", "op": "Squeeze", "input": ["sequential_2/conv_lstm1d_3/while/convolution_4:output:0"], "attr": {"T": {"type": "DT_FLOAT"}, "squeeze_dims": {"list": {"i": ["-3"]}}}}, {"name": "sequential_2/conv_lstm1d_3/while/convolution_6/Squeeze", "op": "Squeeze", "input": ["sequential_2/conv_lstm1d_3/while/convolution_6:output:0"], "attr": {"T": {"type": "DT_FLOAT"}, "squeeze_dims": {"list": {"i": ["-3"]}}}}, {"name": "sequential_2/conv_lstm1d_3/while/BiasAdd", "op": "BiasAdd", "input": ["sequential_2/conv_lstm1d_3/while/convolution/Squeeze:output:0", "sequential_2/conv_lstm1d_3/while/split_2:output:0"], "attr": {"T": {"type": "DT_FLOAT"}, "data_format": {"s": "TkhXQw=="}}}, {"name": "sequential_2/conv_lstm1d_3/while/BiasAdd_1", "op": "BiasAdd", "input": ["sequential_2/conv_lstm1d_3/while/convolution_1/Squeeze:output:0", "sequential_2/conv_lstm1d_3/while/split_2:output:1"], "attr": {"T": {"type": "DT_FLOAT"}, "data_format": {"s": "TkhXQw=="}}}, {"name": "sequential_2/conv_lstm1d_3/while/BiasAdd_3", "op": "BiasAdd", "input": ["sequential_2/conv_lstm1d_3/while/convolution_3/Squeeze:output:0", "sequential_2/conv_lstm1d_3/while/split_2:output:3"], "attr": {"data_format": {"s": "TkhXQw=="}, "T": {"type": "DT_FLOAT"}}}, {"name": "sequential_2/conv_lstm1d_3/while/BiasAdd_2", "op": "BiasAdd", "input": ["sequential_2/conv_lstm1d_3/while/convolution_2/Squeeze:output:0", "sequential_2/conv_lstm1d_3/while/split_2:output:2"], "attr": {"data_format": {"s": "TkhXQw=="}, "T": {"type": "DT_FLOAT"}}}, {"name": "sequential_2/conv_lstm1d_3/while/add", "op": "AddV2", "input": ["sequential_2/conv_lstm1d_3/while/BiasAdd:output:0", "sequential_2/conv_lstm1d_3/while/convolution_4/Squeeze:output:0"], "attr": {"T": {"type": "DT_FLOAT"}}}, {"name": "sequential_2/conv_lstm1d_3/while/add_2", "op": "AddV2", "input": ["sequential_2/conv_lstm1d_3/while/BiasAdd_1:output:0", "sequential_2/conv_lstm1d_3/while/convolution_5/Squeeze:output:0"], "attr": {"T": {"type": "DT_FLOAT"}}}, {"name": "sequential_2/conv_lstm1d_3/while/add_6", "op": "AddV2", "input": ["sequential_2/conv_lstm1d_3/while/BiasAdd_3:output:0", "sequential_2/conv_lstm1d_3/while/convolution_7/Squeeze:output:0"], "attr": {"T": {"type": "DT_FLOAT"}}}, {"name": "sequential_2/conv_lstm1d_3/while/add_4", "op": "AddV2", "input": ["sequential_2/conv_lstm1d_3/while/BiasAdd_2:output:0", "sequential_2/conv_lstm1d_3/while/convolution_6/Squeeze:output:0"], "attr": {"T": {"type": "DT_FLOAT"}}}, {"name": "sequential_2/conv_lstm1d_3/while/Mul_4", "op": "Mul", "input": ["sequential_2/conv_lstm1d_3/while/add:z:0", "__inference_sequential_2_conv_lstm1d_3_while_body_2504_frozen_12869/sequential_2/conv_lstm1d_3/while/Const:output:0"], "attr": {"T": {"type": "DT_FLOAT"}}}, {"name": "sequential_2/conv_lstm1d_3/while/Mul_5", "op": "Mul", "input": ["sequential_2/conv_lstm1d_3/while/add_2:z:0", "__inference_sequential_2_conv_lstm1d_3_while_body_2504_frozen_12869/sequential_2/conv_lstm1d_3/while/Const_2:output:0"], "attr": {"T": {"type": "DT_FLOAT"}}}, {"name": "sequential_2/conv_lstm1d_3/while/Mul_8", "op": "Mul", "input": ["sequential_2/conv_lstm1d_3/while/add_6:z:0", "__inference_sequential_2_conv_lstm1d_3_while_body_2504_frozen_12869/sequential_2/conv_lstm1d_3/while/Const_4:output:0"], "attr": {"T": {"type": "DT_FLOAT"}}}, {"name": "sequential_2/conv_lstm1d_3/while/Tanh", "op": "Tanh", "input": ["sequential_2/conv_lstm1d_3/while/add_4:z:0"], "attr": {"T": {"type": "DT_FLOAT"}}}, {"name": "sequential_2/conv_lstm1d_3/while/Add_1", "op": "AddV2", "input": ["sequential_2/conv_lstm1d_3/while/Mul_4:z:0", "__inference_sequential_2_conv_lstm1d_3_while_body_2504_frozen_12869/sequential_2/conv_lstm1d_3/while/Const_1:output:0"], "attr": {"T": {"type": "DT_FLOAT"}}}, {"name": "sequential_2/conv_lstm1d_3/while/Add_3", "op": "AddV2", "input": ["sequential_2/conv_lstm1d_3/while/Mul_5:z:0", "__inference_sequential_2_conv_lstm1d_3_while_body_2504_frozen_12869/sequential_2/conv_lstm1d_3/while/Const_3:output:0"], "attr": {"T": {"type": "DT_FLOAT"}}}, {"name": "sequential_2/conv_lstm1d_3/while/Add_7", "op": "AddV2", "input": ["sequential_2/conv_lstm1d_3/while/Mul_8:z:0", "__inference_sequential_2_conv_lstm1d_3_while_body_2504_frozen_12869/sequential_2/conv_lstm1d_3/while/Const_5:output:0"], "attr": {"T": {"type": "DT_FLOAT"}}}, {"name": "sequential_2/conv_lstm1d_3/while/clip_by_value/Minimum", "op": "Minimum", "input": ["sequential_2/conv_lstm1d_3/while/Add_1:z:0", "__inference_sequential_2_conv_lstm1d_3_while_body_2504_frozen_12869/sequential_2/conv_lstm1d_3/while/clip_by_value/Minimum/y:output:0"], "attr": {"T": {"type": "DT_FLOAT"}}}, {"name": "sequential_2/conv_lstm1d_3/while/clip_by_value_1/Minimum", "op": "Minimum", "input": ["sequential_2/conv_lstm1d_3/while/Add_3:z:0", "__inference_sequential_2_conv_lstm1d_3_while_body_2504_frozen_12869/sequential_2/conv_lstm1d_3/while/clip_by_value_1/Minimum/y:output:0"], "attr": {"T": {"type": "DT_FLOAT"}}}, {"name": "sequential_2/conv_lstm1d_3/while/clip_by_value_2/Minimum", "op": "Minimum", "input": ["sequential_2/conv_lstm1d_3/while/Add_7:z:0", "__inference_sequential_2_conv_lstm1d_3_while_body_2504_frozen_12869/sequential_2/conv_lstm1d_3/while/clip_by_value_2/Minimum/y:output:0"], "attr": {"T": {"type": "DT_FLOAT"}}}, {"name": "sequential_2/conv_lstm1d_3/while/clip_by_value", "op": "Maximum", "input": ["sequential_2/conv_lstm1d_3/while/clip_by_value/Minimum:z:0", "__inference_sequential_2_conv_lstm1d_3_while_body_2504_frozen_12869/sequential_2/conv_lstm1d_3/while/clip_by_value/y:output:0"], "attr": {"T": {"type": "DT_FLOAT"}}}, {"name": "sequential_2/conv_lstm1d_3/while/clip_by_value_1", "op": "Maximum", "input": ["sequential_2/conv_lstm1d_3/while/clip_by_value_1/Minimum:z:0", "__inference_sequential_2_conv_lstm1d_3_while_body_2504_frozen_12869/sequential_2/conv_lstm1d_3/while/clip_by_value_1/y:output:0"], "attr": {"T": {"type": "DT_FLOAT"}}}, {"name": "sequential_2/conv_lstm1d_3/while/clip_by_value_2", "op": "Maximum", "input": ["sequential_2/conv_lstm1d_3/while/clip_by_value_2/Minimum:z:0", "__inference_sequential_2_conv_lstm1d_3_while_body_2504_frozen_12869/sequential_2/conv_lstm1d_3/while/clip_by_value_2/y:output:0"], "attr": {"T": {"type": "DT_FLOAT"}}}, {"name": "sequential_2/conv_lstm1d_3/while/mul_7", "op": "Mul", "input": ["sequential_2/conv_lstm1d_3/while/clip_by_value:z:0", "sequential_2/conv_lstm1d_3/while/Tanh:y:0"], "attr": {"T": {"type": "DT_FLOAT"}}}, {"name": "sequential_2/conv_lstm1d_3/while/mul_6", "op": "Mul", "input": ["sequential_2/conv_lstm1d_3/while/clip_by_value_1:z:0", "sequential_2_conv_lstm1d_3_while_placeholder_3"], "attr": {"T": {"type": "DT_FLOAT"}}}, {"name": "sequential_2/conv_lstm1d_3/while/add_5", "op": "AddV2", "input": ["sequential_2/conv_lstm1d_3/while/mul_6:z:0", "sequential_2/conv_lstm1d_3/while/mul_7:z:0"], "attr": {"T": {"type": "DT_FLOAT"}}}, {"name": "sequential_2/conv_lstm1d_3/while/Tanh_1", "op": "Tanh", "input": ["sequential_2/conv_lstm1d_3/while/add_5:z:0"], "attr": {"T": {"type": "DT_FLOAT"}}}, {"name": "sequential_2/conv_lstm1d_3/while/Identity_5", "op": "Identity", "input": ["sequential_2/conv_lstm1d_3/while/add_5:z:0", "^sequential_2/conv_lstm1d_3/while/NoOp"], "attr": {"T": {"type": "DT_FLOAT"}}}, {"name": "sequential_2/conv_lstm1d_3/while/mul_9", "op": "Mul", "input": ["sequential_2/conv_lstm1d_3/while/clip_by_value_2:z:0", "sequential_2/conv_lstm1d_3/while/Tanh_1:y:0"], "attr": {"T": {"type": "DT_FLOAT"}}}, {"name": "sequential_2/conv_lstm1d_3/while/TensorArrayV2Write/TensorListSetItem", "op": "TensorListSetItem", "input": ["sequential_2_conv_lstm1d_3_while_placeholder_1", "sequential_2_conv_lstm1d_3_while_placeholder", "sequential_2/conv_lstm1d_3/while/mul_9:z:0"], "attr": {"element_dtype": {"type": "DT_FLOAT"}}, "experimentalType": {"typeId": "TFT_PRODUCT", "args": [{"typeId": "TFT_ARRAY", "args": [{"typeId": "TFT_TENSOR", "args": [{"typeId": "TFT_FLOAT"}]}]}]}}, {"name": "sequential_2/conv_lstm1d_3/while/Identity_4", "op": "Identity", "input": ["sequential_2/conv_lstm1d_3/while/mul_9:z:0", "^sequential_2/conv_lstm1d_3/while/NoOp"], "attr": {"T": {"type": "DT_FLOAT"}}}, {"name": "sequential_2/conv_lstm1d_3/while/Identity_3", "op": "Identity", "input": ["sequential_2/conv_lstm1d_3/while/TensorArrayV2Write/TensorListSetItem:output_handle:0", "^sequential_2/conv_lstm1d_3/while/NoOp"], "attr": {"T": {"type": "DT_VARIANT"}}}], "ret": {"sequential_2_conv_lstm1d_3_while_split_readvariableop_resource": "sequential_2_conv_lstm1d_3_while_split_readvariableop_resource_0", "sequential_2_conv_lstm1d_3_while_identity_1": "sequential_2/conv_lstm1d_3/while/Identity_1:output:0", "sequential_2_conv_lstm1d_3_while_identity_2": "sequential_2/conv_lstm1d_3/while/Identity_2:output:0", "sequential_2_conv_lstm1d_3_while_identity_4": "sequential_2/conv_lstm1d_3/while/Identity_4:output:0", "sequential_2_conv_lstm1d_3_while_split_1_readvariableop_resource": "sequential_2_conv_lstm1d_3_while_split_1_readvariableop_resource_0", "sequential_2_conv_lstm1d_3_while_identity": "sequential_2/conv_lstm1d_3/while/Identity:output:0", "sequential_2_conv_lstm1d_3_while_tensorarrayv2read_tensorlistgetitem_sequential_2_conv_lstm1d_3_tensorarrayunstack_tensorlistfromtensor": "sequential_2_conv_lstm1d_3_while_tensorarrayv2read_tensorlistgetitem_sequential_2_conv_lstm1d_3_tensorarrayunstack_tensorlistfromtensor_0", "sequential_2_conv_lstm1d_3_while_sequential_2_conv_lstm1d_3_strided_slice": "sequential_2_conv_lstm1d_3_while_sequential_2_conv_lstm1d_3_strided_slice_0", "sequential_2_conv_lstm1d_3_while_identity_3": "sequential_2/conv_lstm1d_3/while/Identity_3:output:0", "sequential_2_conv_lstm1d_3_while_split_2_readvariableop_resource": "sequential_2_conv_lstm1d_3_while_split_2_readvariableop_resource_0", "sequential_2_conv_lstm1d_3_while_identity_5": "sequential_2/conv_lstm1d_3/while/Identity_5:output:0"}, "attr": {"_construction_context": {"s": "a0VhZ2VyUnVudGltZQ=="}}, "controlRet": {"sequential_2/conv_lstm1d_3/while/split_1/ReadVariableOp": "sequential_2/conv_lstm1d_3/while/split_1/ReadVariableOp", "sequential_2/conv_lstm1d_3/while/split/ReadVariableOp": "sequential_2/conv_lstm1d_3/while/split/ReadVariableOp", "sequential_2/conv_lstm1d_3/while/split_2/ReadVariableOp": "sequential_2/conv_lstm1d_3/while/split_2/ReadVariableOp"}, "argAttr": {"5": {"attr": {"_output_shapes": {"list": {"shape": [{"dim": [{"size": "-1"}, {"size": "1660"}, {"size": "4"}]}]}}}}, "7": {"attr": {"_output_shapes": {"list": {"shape": [{}]}}}}, "0": {"attr": {"_output_shapes": {"list": {"shape": [{}]}}}}, "2": {"attr": {"_output_shapes": {"list": {"shape": [{}]}}}}, "1": {"attr": {"_output_shapes": {"list": {"shape": [{}]}}}}, "4": {"attr": {"_output_shapes": {"list": {"shape": [{"dim": [{"size": "-1"}, {"size": "1660"}, {"size": "4"}]}]}}}}, "6": {"attr": {"_output_shapes": {"list": {"shape": [{}]}}}}, "3": {"attr": {"_output_shapes": {"list": {"shape": [{}]}}}}}}, {"signature": {"name": "__inference_sequential_2_conv_lstm1d_3_while_cond_2503_frozen_12864", "inputArg": [{"name": "sequential_2_conv_lstm1d_3_while_sequential_2_conv_lstm1d_3_while_loop_counter", "type": "DT_INT32"}, {"name": "sequential_2_conv_lstm1d_3_while_sequential_2_conv_lstm1d_3_while_maximum_iterations", "type": "DT_INT32"}, {"name": "sequential_2_conv_lstm1d_3_while_placeholder", "type": "DT_INT32"}, {"name": "sequential_2_conv_lstm1d_3_while_placeholder_1", "type": "DT_VARIANT"}, {"name": "sequential_2_conv_lstm1d_3_while_placeholder_2", "type": "DT_FLOAT"}, {"name": "sequential_2_conv_lstm1d_3_while_placeholder_3", "type": "DT_FLOAT"}, {"name": "sequential_2_conv_lstm1d_3_while_less_sequential_2_conv_lstm1d_3_strided_slice", "type": "DT_INT32"}, {"name": "sequential_2_conv_lstm1d_3_while_sequential_2_conv_lstm1d_3_while_cond_2503___redundant_placeholder0", "type": "DT_VARIANT"}, {"name": "sequential_2_conv_lstm1d_3_while_sequential_2_conv_lstm1d_3_while_cond_2503___redundant_placeholder1", "type": "DT_FLOAT"}, {"name": "sequential_2_conv_lstm1d_3_while_sequential_2_conv_lstm1d_3_while_cond_2503___redundant_placeholder2", "type": "DT_FLOAT"}, {"name": "sequential_2_conv_lstm1d_3_while_sequential_2_conv_lstm1d_3_while_cond_2503___redundant_placeholder3", "type": "DT_FLOAT"}], "outputArg": [{"name": "sequential_2_conv_lstm1d_3_while_identity", "type": "DT_BOOL"}]}, "nodeDef": [{"name": "sequential_2/conv_lstm1d_3/while/Less", "op": "Less", "input": ["sequential_2_conv_lstm1d_3_while_placeholder", "sequential_2_conv_lstm1d_3_while_less_sequential_2_conv_lstm1d_3_strided_slice"], "attr": {"T": {"type": "DT_INT32"}}}], "ret": {"sequential_2_conv_lstm1d_3_while_identity": "sequential_2/conv_lstm1d_3/while/Less:z:0"}, "attr": {"_construction_context": {"s": "a0VhZ2VyUnVudGltZQ=="}}, "argAttr": {"0": {"attr": {"_output_shapes": {"list": {"shape": [{}]}}}}, "5": {"attr": {"_output_shapes": {"list": {"shape": [{"dim": [{"size": "-1"}, {"size": "1660"}, {"size": "4"}]}]}}}}, "3": {"attr": {"_output_shapes": {"list": {"shape": [{}]}}}}, "1": {"attr": {"_output_shapes": {"list": {"shape": [{}]}}}}, "6": {"attr": {"_output_shapes": {"list": {"shape": [{}]}}}}, "4": {"attr": {"_output_shapes": {"list": {"shape": [{"dim": [{"size": "-1"}, {"size": "1660"}, {"size": "4"}]}]}}}}, "2": {"attr": {"_output_shapes": {"list": {"shape": [{}]}}}}, "7": {"attr": {"_output_shapes": {"list": {"shape": [{"unknownRank": true}]}}}}}}, {"signature": {"name": "__inference_sequential_2_conv_lstm1d_4_while_body_2827_frozen_12866", "inputArg": [{"name": "sequential_2_conv_lstm1d_4_while_sequential_2_conv_lstm1d_4_while_loop_counter", "type": "DT_INT32"}, {"name": "sequential_2_conv_lstm1d_4_while_sequential_2_conv_lstm1d_4_while_maximum_iterations", "type": "DT_INT32"}, {"name": "sequential_2_conv_lstm1d_4_while_placeholder", "type": "DT_INT32"}, {"name": "sequential_2_conv_lstm1d_4_while_placeholder_1", "type": "DT_VARIANT"}, {"name": "sequential_2_conv_lstm1d_4_while_placeholder_2", "type": "DT_FLOAT"}, {"name": "sequential_2_conv_lstm1d_4_while_placeholder_3", "type": "DT_FLOAT"}, {"name": "sequential_2_conv_lstm1d_4_while_sequential_2_conv_lstm1d_4_strided_slice_0", "type": "DT_INT32"}, {"name": "sequential_2_conv_lstm1d_4_while_tensorarrayv2read_tensorlistgetitem_sequential_2_conv_lstm1d_4_tensorarrayunstack_tensorlistfromtensor_0", "type": "DT_VARIANT"}, {"name": "sequential_2_conv_lstm1d_4_while_split_readvariableop_resource_0", "type": "DT_FLOAT"}, {"name": "sequential_2_conv_lstm1d_4_while_split_1_readvariableop_resource_0", "type": "DT_FLOAT"}, {"name": "sequential_2_conv_lstm1d_4_while_split_2_readvariableop_resource_0", "type": "DT_FLOAT"}], "outputArg": [{"name": "sequential_2_conv_lstm1d_4_while_identity", "type": "DT_INT32"}, {"name": "sequential_2_conv_lstm1d_4_while_identity_1", "type": "DT_INT32"}, {"name": "sequential_2_conv_lstm1d_4_while_identity_2", "type": "DT_INT32"}, {"name": "sequential_2_conv_lstm1d_4_while_identity_3", "type": "DT_VARIANT"}, {"name": "sequential_2_conv_lstm1d_4_while_identity_4", "type": "DT_FLOAT"}, {"name": "sequential_2_conv_lstm1d_4_while_identity_5", "type": "DT_FLOAT"}, {"name": "sequential_2_conv_lstm1d_4_while_sequential_2_conv_lstm1d_4_strided_slice", "type": "DT_INT32"}, {"name": "sequential_2_conv_lstm1d_4_while_tensorarrayv2read_tensorlistgetitem_sequential_2_conv_lstm1d_4_tensorarrayunstack_tensorlistfromtensor", "type": "DT_VARIANT"}, {"name": "sequential_2_conv_lstm1d_4_while_split_readvariableop_resource", "type": "DT_FLOAT"}, {"name": "sequential_2_conv_lstm1d_4_while_split_1_readvariableop_resource", "type": "DT_FLOAT"}, {"name": "sequential_2_conv_lstm1d_4_while_split_2_readvariableop_resource", "type": "DT_FLOAT"}], "isStateful": true, "controlOutput": ["sequential_2/conv_lstm1d_4/while/split/ReadVariableOp", "sequential_2/conv_lstm1d_4/while/split_1/ReadVariableOp", "sequential_2/conv_lstm1d_4/while/split_2/ReadVariableOp"]}, "nodeDef": [{"name": "__inference_sequential_2_conv_lstm1d_4_while_body_2827_frozen_12866/sequential_2/conv_lstm1d_4/while/add_8/y", "op": "Const", "attr": {"dtype": {"type": "DT_INT32"}, "value": {"tensor": {"dtype": "DT_INT32", "tensorShape": {}}}}}, {"name": "__inference_sequential_2_conv_lstm1d_4_while_body_2827_frozen_12866/sequential_2/conv_lstm1d_4/while/convolution_3/ExpandDims/dim", "op": "Const", "attr": {"dtype": {"type": "DT_INT32"}, "value": {"tensor": {"dtype": "DT_INT32", "tensorShape": {}}}}}, {"name": "__inference_sequential_2_conv_lstm1d_4_while_body_2827_frozen_12866/sequential_2/conv_lstm1d_4/while/convolution_3/ExpandDims_1/dim", "op": "Const", "attr": {"dtype": {"type": "DT_INT32"}, "value": {"tensor": {"dtype": "DT_INT32", "tensorShape": {}}}}}, {"name": "__inference_sequential_2_conv_lstm1d_4_while_body_2827_frozen_12866/sequential_2/conv_lstm1d_4/while/convolution_7/ExpandDims/dim", "op": "Const", "attr": {"value": {"tensor": {"dtype": "DT_INT32", "tensorShape": {}}}, "dtype": {"type": "DT_INT32"}}}, {"name": "__inference_sequential_2_conv_lstm1d_4_while_body_2827_frozen_12866/sequential_2/conv_lstm1d_4/while/convolution_7/ExpandDims_1/dim", "op": "Const", "attr": {"dtype": {"type": "DT_INT32"}, "value": {"tensor": {"dtype": "DT_INT32", "tensorShape": {}}}}}, {"name": "__inference_sequential_2_conv_lstm1d_4_while_body_2827_frozen_12866/sequential_2/conv_lstm1d_4/while/Const_4", "op": "Const", "attr": {"value": {"tensor": {"dtype": "DT_FLOAT", "tensorShape": {}}}, "dtype": {"type": "DT_FLOAT"}}}, {"name": "__inference_sequential_2_conv_lstm1d_4_while_body_2827_frozen_12866/sequential_2/conv_lstm1d_4/while/Const_5", "op": "Const", "attr": {"value": {"tensor": {"dtype": "DT_FLOAT", "tensorShape": {}}}, "dtype": {"type": "DT_FLOAT"}}}, {"name": "__inference_sequential_2_conv_lstm1d_4_while_body_2827_frozen_12866/sequential_2/conv_lstm1d_4/while/clip_by_value_2/Minimum/y", "op": "Const", "attr": {"value": {"tensor": {"dtype": "DT_FLOAT", "tensorShape": {}}}, "dtype": {"type": "DT_FLOAT"}}}, {"name": "__inference_sequential_2_conv_lstm1d_4_while_body_2827_frozen_12866/sequential_2/conv_lstm1d_4/while/clip_by_value_2/y", "op": "Const", "attr": {"value": {"tensor": {"dtype": "DT_FLOAT", "tensorShape": {}}}, "dtype": {"type": "DT_FLOAT"}}}, {"name": "__inference_sequential_2_conv_lstm1d_4_while_body_2827_frozen_12866/sequential_2/conv_lstm1d_4/while/convolution_1/ExpandDims/dim", "op": "Const", "attr": {"dtype": {"type": "DT_INT32"}, "value": {"tensor": {"dtype": "DT_INT32", "tensorShape": {}}}}}, {"name": "__inference_sequential_2_conv_lstm1d_4_while_body_2827_frozen_12866/sequential_2/conv_lstm1d_4/while/convolution_1/ExpandDims_1/dim", "op": "Const", "attr": {"dtype": {"type": "DT_INT32"}, "value": {"tensor": {"dtype": "DT_INT32", "tensorShape": {}}}}}, {"name": "__inference_sequential_2_conv_lstm1d_4_while_body_2827_frozen_12866/sequential_2/conv_lstm1d_4/while/convolution_5/ExpandDims/dim", "op": "Const", "attr": {"dtype": {"type": "DT_INT32"}, "value": {"tensor": {"dtype": "DT_INT32", "tensorShape": {}}}}}, {"name": "__inference_sequential_2_conv_lstm1d_4_while_body_2827_frozen_12866/sequential_2/conv_lstm1d_4/while/convolution_5/ExpandDims_1/dim", "op": "Const", "attr": {"value": {"tensor": {"dtype": "DT_INT32", "tensorShape": {}}}, "dtype": {"type": "DT_INT32"}}}, {"name": "__inference_sequential_2_conv_lstm1d_4_while_body_2827_frozen_12866/sequential_2/conv_lstm1d_4/while/Const_2", "op": "Const", "attr": {"dtype": {"type": "DT_FLOAT"}, "value": {"tensor": {"dtype": "DT_FLOAT", "tensorShape": {}}}}}, {"name": "__inference_sequential_2_conv_lstm1d_4_while_body_2827_frozen_12866/sequential_2/conv_lstm1d_4/while/Const_3", "op": "Const", "attr": {"dtype": {"type": "DT_FLOAT"}, "value": {"tensor": {"dtype": "DT_FLOAT", "tensorShape": {}}}}}, {"name": "__inference_sequential_2_conv_lstm1d_4_while_body_2827_frozen_12866/sequential_2/conv_lstm1d_4/while/clip_by_value_1/Minimum/y", "op": "Const", "attr": {"dtype": {"type": "DT_FLOAT"}, "value": {"tensor": {"dtype": "DT_FLOAT", "tensorShape": {}}}}}, {"name": "__inference_sequential_2_conv_lstm1d_4_while_body_2827_frozen_12866/sequential_2/conv_lstm1d_4/while/clip_by_value_1/y", "op": "Const", "attr": {"value": {"tensor": {"dtype": "DT_FLOAT", "tensorShape": {}}}, "dtype": {"type": "DT_FLOAT"}}}, {"name": "__inference_sequential_2_conv_lstm1d_4_while_body_2827_frozen_12866/sequential_2/conv_lstm1d_4/while/convolution/ExpandDims/dim", "op": "Const", "attr": {"dtype": {"type": "DT_INT32"}, "value": {"tensor": {"dtype": "DT_INT32", "tensorShape": {}}}}}, {"name": "__inference_sequential_2_conv_lstm1d_4_while_body_2827_frozen_12866/sequential_2/conv_lstm1d_4/while/convolution/ExpandDims_1/dim", "op": "Const", "attr": {"value": {"tensor": {"dtype": "DT_INT32", "tensorShape": {}}}, "dtype": {"type": "DT_INT32"}}}, {"name": "__inference_sequential_2_conv_lstm1d_4_while_body_2827_frozen_12866/sequential_2/conv_lstm1d_4/while/convolution_4/ExpandDims/dim", "op": "Const", "attr": {"value": {"tensor": {"dtype": "DT_INT32", "tensorShape": {}}}, "dtype": {"type": "DT_INT32"}}}, {"name": "__inference_sequential_2_conv_lstm1d_4_while_body_2827_frozen_12866/sequential_2/conv_lstm1d_4/while/convolution_4/ExpandDims_1/dim", "op": "Const", "attr": {"value": {"tensor": {"dtype": "DT_INT32", "tensorShape": {}}}, "dtype": {"type": "DT_INT32"}}}, {"name": "__inference_sequential_2_conv_lstm1d_4_while_body_2827_frozen_12866/sequential_2/conv_lstm1d_4/while/Const", "op": "Const", "attr": {"value": {"tensor": {"dtype": "DT_FLOAT", "tensorShape": {}}}, "dtype": {"type": "DT_FLOAT"}}}, {"name": "__inference_sequential_2_conv_lstm1d_4_while_body_2827_frozen_12866/sequential_2/conv_lstm1d_4/while/Const_1", "op": "Const", "attr": {"dtype": {"type": "DT_FLOAT"}, "value": {"tensor": {"dtype": "DT_FLOAT", "tensorShape": {}}}}}, {"name": "__inference_sequential_2_conv_lstm1d_4_while_body_2827_frozen_12866/sequential_2/conv_lstm1d_4/while/clip_by_value/Minimum/y", "op": "Const", "attr": {"dtype": {"type": "DT_FLOAT"}, "value": {"tensor": {"dtype": "DT_FLOAT", "tensorShape": {}}}}}, {"name": "__inference_sequential_2_conv_lstm1d_4_while_body_2827_frozen_12866/sequential_2/conv_lstm1d_4/while/clip_by_value/y", "op": "Const", "attr": {"value": {"tensor": {"dtype": "DT_FLOAT", "tensorShape": {}}}, "dtype": {"type": "DT_FLOAT"}}}, {"name": "__inference_sequential_2_conv_lstm1d_4_while_body_2827_frozen_12866/sequential_2/conv_lstm1d_4/while/TensorArrayV2Read/TensorListGetItem/element_shape", "op": "Const", "attr": {"dtype": {"type": "DT_INT32"}, "value": {"tensor": {"dtype": "DT_INT32", "tensorShape": {"dim": [{"size": "3"}]}}}}}, {"name": "__inference_sequential_2_conv_lstm1d_4_while_body_2827_frozen_12866/sequential_2/conv_lstm1d_4/while/convolution_2/ExpandDims/dim", "op": "Const", "attr": {"value": {"tensor": {"dtype": "DT_INT32", "tensorShape": {}}}, "dtype": {"type": "DT_INT32"}}}, {"name": "__inference_sequential_2_conv_lstm1d_4_while_body_2827_frozen_12866/sequential_2/conv_lstm1d_4/while/split/split_dim", "op": "Const", "attr": {"dtype": {"type": "DT_INT32"}, "value": {"tensor": {"dtype": "DT_INT32", "tensorShape": {}}}}}, {"name": "__inference_sequential_2_conv_lstm1d_4_while_body_2827_frozen_12866/sequential_2/conv_lstm1d_4/while/convolution_2/ExpandDims_1/dim", "op": "Const", "attr": {"dtype": {"type": "DT_INT32"}, "value": {"tensor": {"dtype": "DT_INT32", "tensorShape": {}}}}}, {"name": "__inference_sequential_2_conv_lstm1d_4_while_body_2827_frozen_12866/sequential_2/conv_lstm1d_4/while/split_2/split_dim", "op": "Const", "attr": {"value": {"tensor": {"dtype": "DT_INT32", "tensorShape": {}}}, "dtype": {"type": "DT_INT32"}}}, {"name": "__inference_sequential_2_conv_lstm1d_4_while_body_2827_frozen_12866/sequential_2/conv_lstm1d_4/while/ones_like/Const", "op": "Const", "attr": {"value": {"tensor": {"dtype": "DT_FLOAT", "tensorShape": {}}}, "dtype": {"type": "DT_FLOAT"}}}, {"name": "__inference_sequential_2_conv_lstm1d_4_while_body_2827_frozen_12866/sequential_2/conv_lstm1d_4/while/convolution_6/ExpandDims/dim", "op": "Const", "attr": {"dtype": {"type": "DT_INT32"}, "value": {"tensor": {"dtype": "DT_INT32", "tensorShape": {}}}}}, {"name": "__inference_sequential_2_conv_lstm1d_4_while_body_2827_frozen_12866/sequential_2/conv_lstm1d_4/while/split_1/split_dim", "op": "Const", "attr": {"value": {"tensor": {"dtype": "DT_INT32", "tensorShape": {}}}, "dtype": {"type": "DT_INT32"}}}, {"name": "__inference_sequential_2_conv_lstm1d_4_while_body_2827_frozen_12866/sequential_2/conv_lstm1d_4/while/convolution_6/ExpandDims_1/dim", "op": "Const", "attr": {"value": {"tensor": {"dtype": "DT_INT32", "tensorShape": {}}}, "dtype": {"type": "DT_INT32"}}}, {"name": "__inference_sequential_2_conv_lstm1d_4_while_body_2827_frozen_12866/sequential_2/conv_lstm1d_4/while/add_9/y", "op": "Const", "attr": {"value": {"tensor": {"dtype": "DT_INT32", "tensorShape": {}}}, "dtype": {"type": "DT_INT32"}}}, {"name": "sequential_2/conv_lstm1d_4/while/ones_like/Shape", "op": "Shape", "input": ["sequential_2_conv_lstm1d_4_while_placeholder_2"], "attr": {"T": {"type": "DT_FLOAT"}, "out_type": {"type": "DT_INT32"}}}, {"name": "sequential_2/conv_lstm1d_4/while/split/ReadVariableOp", "op": "Identity", "input": ["sequential_2_conv_lstm1d_4_while_split_readvariableop_resource_0"], "attr": {"T": {"type": "DT_FLOAT"}}}, {"name": "sequential_2/conv_lstm1d_4/while/split_1/ReadVariableOp", "op": "Identity", "input": ["sequential_2_conv_lstm1d_4_while_split_1_readvariableop_resource_0"], "attr": {"T": {"type": "DT_FLOAT"}}}, {"name": "sequential_2/conv_lstm1d_4/while/split_2/ReadVariableOp", "op": "Identity", "input": ["sequential_2_conv_lstm1d_4_while_split_2_readvariableop_resource_0"], "attr": {"T": {"type": "DT_FLOAT"}}}, {"name": "sequential_2/conv_lstm1d_4/while/add_8", "op": "AddV2", "input": ["sequential_2_conv_lstm1d_4_while_placeholder", "__inference_sequential_2_conv_lstm1d_4_while_body_2827_frozen_12866/sequential_2/conv_lstm1d_4/while/add_8/y:output:0"], "attr": {"T": {"type": "DT_INT32"}}}, {"name": "sequential_2/conv_lstm1d_4/while/TensorArrayV2Read/TensorListGetItem", "op": "TensorListGetItem", "input": ["sequential_2_conv_lstm1d_4_while_tensorarrayv2read_tensorlistgetitem_sequential_2_conv_lstm1d_4_tensorarrayunstack_tensorlistfromtensor_0", "sequential_2_conv_lstm1d_4_while_placeholder", "__inference_sequential_2_conv_lstm1d_4_while_body_2827_frozen_12866/sequential_2/conv_lstm1d_4/while/TensorArrayV2Read/TensorListGetItem/element_shape:output:0"], "attr": {"element_dtype": {"type": "DT_FLOAT"}}}, {"name": "sequential_2/conv_lstm1d_4/while/add_9", "op": "AddV2", "input": ["sequential_2_conv_lstm1d_4_while_sequential_2_conv_lstm1d_4_while_loop_counter", "__inference_sequential_2_conv_lstm1d_4_while_body_2827_frozen_12866/sequential_2/conv_lstm1d_4/while/add_9/y:output:0"], "attr": {"T": {"type": "DT_INT32"}}}, {"name": "sequential_2/conv_lstm1d_4/while/ones_like", "op": "Fill", "input": ["sequential_2/conv_lstm1d_4/while/ones_like/Shape:output:0", "__inference_sequential_2_conv_lstm1d_4_while_body_2827_frozen_12866/sequential_2/conv_lstm1d_4/while/ones_like/Const:output:0"], "attr": {"index_type": {"type": "DT_INT32"}, "T": {"type": "DT_FLOAT"}}}, {"name": "sequential_2/conv_lstm1d_4/while/split", "op": "Split", "input": ["__inference_sequential_2_conv_lstm1d_4_while_body_2827_frozen_12866/sequential_2/conv_lstm1d_4/while/split/split_dim:output:0", "sequential_2/conv_lstm1d_4/while/split/ReadVariableOp:output:0"], "attr": {"num_split": {"i": "4"}, "T": {"type": "DT_FLOAT"}}}, {"name": "sequential_2/conv_lstm1d_4/while/split_1", "op": "Split", "input": ["__inference_sequential_2_conv_lstm1d_4_while_body_2827_frozen_12866/sequential_2/conv_lstm1d_4/while/split_1/split_dim:output:0", "sequential_2/conv_lstm1d_4/while/split_1/ReadVariableOp:output:0"], "attr": {"num_split": {"i": "4"}, "T": {"type": "DT_FLOAT"}}}, {"name": "sequential_2/conv_lstm1d_4/while/NoOp", "op": "NoOp", "input": ["^sequential_2/conv_lstm1d_4/while/split/ReadVariableOp", "^sequential_2/conv_lstm1d_4/while/split_1/ReadVariableOp", "^sequential_2/conv_lstm1d_4/while/split_2/ReadVariableOp"], "attr": {"_acd_function_control_output": {"b": true}}}, {"name": "sequential_2/conv_lstm1d_4/while/split_2", "op": "Split", "input": ["__inference_sequential_2_conv_lstm1d_4_while_body_2827_frozen_12866/sequential_2/conv_lstm1d_4/while/split_2/split_dim:output:0", "sequential_2/conv_lstm1d_4/while/split_2/ReadVariableOp:output:0"], "attr": {"num_split": {"i": "4"}, "T": {"type": "DT_FLOAT"}}}, {"name": "sequential_2/conv_lstm1d_4/while/convolution_3/ExpandDims", "op": "ExpandDims", "input": ["sequential_2/conv_lstm1d_4/while/TensorArrayV2Read/TensorListGetItem:item:0", "__inference_sequential_2_conv_lstm1d_4_while_body_2827_frozen_12866/sequential_2/conv_lstm1d_4/while/convolution_3/ExpandDims/dim:output:0"], "attr": {"T": {"type": "DT_FLOAT"}, "Tdim": {"type": "DT_INT32"}}}, {"name": "sequential_2/conv_lstm1d_4/while/convolution_1/ExpandDims", "op": "ExpandDims", "input": ["sequential_2/conv_lstm1d_4/while/TensorArrayV2Read/TensorListGetItem:item:0", "__inference_sequential_2_conv_lstm1d_4_while_body_2827_frozen_12866/sequential_2/conv_lstm1d_4/while/convolution_1/ExpandDims/dim:output:0"], "attr": {"Tdim": {"type": "DT_INT32"}, "T": {"type": "DT_FLOAT"}}}, {"name": "sequential_2/conv_lstm1d_4/while/convolution/ExpandDims", "op": "ExpandDims", "input": ["sequential_2/conv_lstm1d_4/while/TensorArrayV2Read/TensorListGetItem:item:0", "__inference_sequential_2_conv_lstm1d_4_while_body_2827_frozen_12866/sequential_2/conv_lstm1d_4/while/convolution/ExpandDims/dim:output:0"], "attr": {"Tdim": {"type": "DT_INT32"}, "T": {"type": "DT_FLOAT"}}}, {"name": "sequential_2/conv_lstm1d_4/while/convolution_2/ExpandDims", "op": "ExpandDims", "input": ["sequential_2/conv_lstm1d_4/while/TensorArrayV2Read/TensorListGetItem:item:0", "__inference_sequential_2_conv_lstm1d_4_while_body_2827_frozen_12866/sequential_2/conv_lstm1d_4/while/convolution_2/ExpandDims/dim:output:0"], "attr": {"T": {"type": "DT_FLOAT"}, "Tdim": {"type": "DT_INT32"}}}, {"name": "sequential_2/conv_lstm1d_4/while/mul_3", "op": "Mul", "input": ["sequential_2_conv_lstm1d_4_while_placeholder_2", "sequential_2/conv_lstm1d_4/while/ones_like:output:0"], "attr": {"T": {"type": "DT_FLOAT"}}}, {"name": "sequential_2/conv_lstm1d_4/while/mul_1", "op": "Mul", "input": ["sequential_2_conv_lstm1d_4_while_placeholder_2", "sequential_2/conv_lstm1d_4/while/ones_like:output:0"], "attr": {"T": {"type": "DT_FLOAT"}}}, {"name": "sequential_2/conv_lstm1d_4/while/mul", "op": "Mul", "input": ["sequential_2_conv_lstm1d_4_while_placeholder_2", "sequential_2/conv_lstm1d_4/while/ones_like:output:0"], "attr": {"T": {"type": "DT_FLOAT"}}}, {"name": "sequential_2/conv_lstm1d_4/while/mul_2", "op": "Mul", "input": ["sequential_2_conv_lstm1d_4_while_placeholder_2", "sequential_2/conv_lstm1d_4/while/ones_like:output:0"], "attr": {"T": {"type": "DT_FLOAT"}}}, {"name": "sequential_2/conv_lstm1d_4/while/convolution/ExpandDims_1", "op": "ExpandDims", "input": ["sequential_2/conv_lstm1d_4/while/split:output:0", "__inference_sequential_2_conv_lstm1d_4_while_body_2827_frozen_12866/sequential_2/conv_lstm1d_4/while/convolution/ExpandDims_1/dim:output:0"], "attr": {"T": {"type": "DT_FLOAT"}, "Tdim": {"type": "DT_INT32"}}}, {"name": "sequential_2/conv_lstm1d_4/while/convolution_1/ExpandDims_1", "op": "ExpandDims", "input": ["sequential_2/conv_lstm1d_4/while/split:output:1", "__inference_sequential_2_conv_lstm1d_4_while_body_2827_frozen_12866/sequential_2/conv_lstm1d_4/while/convolution_1/ExpandDims_1/dim:output:0"], "attr": {"Tdim": {"type": "DT_INT32"}, "T": {"type": "DT_FLOAT"}}}, {"name": "sequential_2/conv_lstm1d_4/while/convolution_3/ExpandDims_1", "op": "ExpandDims", "input": ["sequential_2/conv_lstm1d_4/while/split:output:3", "__inference_sequential_2_conv_lstm1d_4_while_body_2827_frozen_12866/sequential_2/conv_lstm1d_4/while/convolution_3/ExpandDims_1/dim:output:0"], "attr": {"Tdim": {"type": "DT_INT32"}, "T": {"type": "DT_FLOAT"}}}, {"name": "sequential_2/conv_lstm1d_4/while/convolution_2/ExpandDims_1", "op": "ExpandDims", "input": ["sequential_2/conv_lstm1d_4/while/split:output:2", "__inference_sequential_2_conv_lstm1d_4_while_body_2827_frozen_12866/sequential_2/conv_lstm1d_4/while/convolution_2/ExpandDims_1/dim:output:0"], "attr": {"T": {"type": "DT_FLOAT"}, "Tdim": {"type": "DT_INT32"}}}, {"name": "sequential_2/conv_lstm1d_4/while/convolution_4/ExpandDims_1", "op": "ExpandDims", "input": ["sequential_2/conv_lstm1d_4/while/split_1:output:0", "__inference_sequential_2_conv_lstm1d_4_while_body_2827_frozen_12866/sequential_2/conv_lstm1d_4/while/convolution_4/ExpandDims_1/dim:output:0"], "attr": {"Tdim": {"type": "DT_INT32"}, "T": {"type": "DT_FLOAT"}}}, {"name": "sequential_2/conv_lstm1d_4/while/convolution_5/ExpandDims_1", "op": "ExpandDims", "input": ["sequential_2/conv_lstm1d_4/while/split_1:output:1", "__inference_sequential_2_conv_lstm1d_4_while_body_2827_frozen_12866/sequential_2/conv_lstm1d_4/while/convolution_5/ExpandDims_1/dim:output:0"], "attr": {"T": {"type": "DT_FLOAT"}, "Tdim": {"type": "DT_INT32"}}}, {"name": "sequential_2/conv_lstm1d_4/while/convolution_7/ExpandDims_1", "op": "ExpandDims", "input": ["sequential_2/conv_lstm1d_4/while/split_1:output:3", "__inference_sequential_2_conv_lstm1d_4_while_body_2827_frozen_12866/sequential_2/conv_lstm1d_4/while/convolution_7/ExpandDims_1/dim:output:0"], "attr": {"Tdim": {"type": "DT_INT32"}, "T": {"type": "DT_FLOAT"}}}, {"name": "sequential_2/conv_lstm1d_4/while/convolution_6/ExpandDims_1", "op": "ExpandDims", "input": ["sequential_2/conv_lstm1d_4/while/split_1:output:2", "__inference_sequential_2_conv_lstm1d_4_while_body_2827_frozen_12866/sequential_2/conv_lstm1d_4/while/convolution_6/ExpandDims_1/dim:output:0"], "attr": {"T": {"type": "DT_FLOAT"}, "Tdim": {"type": "DT_INT32"}}}, {"name": "sequential_2/conv_lstm1d_4/while/Identity_1", "op": "Identity", "input": ["sequential_2_conv_lstm1d_4_while_sequential_2_conv_lstm1d_4_while_maximum_iterations", "^sequential_2/conv_lstm1d_4/while/NoOp"], "attr": {"T": {"type": "DT_INT32"}}}, {"name": "sequential_2/conv_lstm1d_4/while/Identity_2", "op": "Identity", "input": ["sequential_2/conv_lstm1d_4/while/add_8:z:0", "^sequential_2/conv_lstm1d_4/while/NoOp"], "attr": {"T": {"type": "DT_INT32"}}}, {"name": "sequential_2/conv_lstm1d_4/while/Identity", "op": "Identity", "input": ["sequential_2/conv_lstm1d_4/while/add_9:z:0", "^sequential_2/conv_lstm1d_4/while/NoOp"], "attr": {"T": {"type": "DT_INT32"}}}, {"name": "sequential_2/conv_lstm1d_4/while/convolution_7/ExpandDims", "op": "ExpandDims", "input": ["sequential_2/conv_lstm1d_4/while/mul_3:z:0", "__inference_sequential_2_conv_lstm1d_4_while_body_2827_frozen_12866/sequential_2/conv_lstm1d_4/while/convolution_7/ExpandDims/dim:output:0"], "attr": {"T": {"type": "DT_FLOAT"}, "Tdim": {"type": "DT_INT32"}}}, {"name": "sequential_2/conv_lstm1d_4/while/convolution_5/ExpandDims", "op": "ExpandDims", "input": ["sequential_2/conv_lstm1d_4/while/mul_1:z:0", "__inference_sequential_2_conv_lstm1d_4_while_body_2827_frozen_12866/sequential_2/conv_lstm1d_4/while/convolution_5/ExpandDims/dim:output:0"], "attr": {"Tdim": {"type": "DT_INT32"}, "T": {"type": "DT_FLOAT"}}}, {"name": "sequential_2/conv_lstm1d_4/while/convolution_4/ExpandDims", "op": "ExpandDims", "input": ["sequential_2/conv_lstm1d_4/while/mul:z:0", "__inference_sequential_2_conv_lstm1d_4_while_body_2827_frozen_12866/sequential_2/conv_lstm1d_4/while/convolution_4/ExpandDims/dim:output:0"], "attr": {"Tdim": {"type": "DT_INT32"}, "T": {"type": "DT_FLOAT"}}}, {"name": "sequential_2/conv_lstm1d_4/while/convolution_6/ExpandDims", "op": "ExpandDims", "input": ["sequential_2/conv_lstm1d_4/while/mul_2:z:0", "__inference_sequential_2_conv_lstm1d_4_while_body_2827_frozen_12866/sequential_2/conv_lstm1d_4/while/convolution_6/ExpandDims/dim:output:0"], "attr": {"Tdim": {"type": "DT_INT32"}, "T": {"type": "DT_FLOAT"}}}, {"name": "sequential_2/conv_lstm1d_4/while/convolution", "op": "Conv2D", "input": ["sequential_2/conv_lstm1d_4/while/convolution/ExpandDims:output:0", "sequential_2/conv_lstm1d_4/while/convolution/ExpandDims_1:output:0"], "attr": {"use_cudnn_on_gpu": {"b": true}, "explicit_paddings": {"list": {}}, "strides": {"list": {"i": ["1", "1", "1", "1"]}}, "data_format": {"s": "TkhXQw=="}, "padding": {"s": "VkFMSUQ="}, "T": {"type": "DT_FLOAT"}, "dilations": {"list": {"i": ["1", "1", "1", "1"]}}}}, {"name": "sequential_2/conv_lstm1d_4/while/convolution_1", "op": "Conv2D", "input": ["sequential_2/conv_lstm1d_4/while/convolution_1/ExpandDims:output:0", "sequential_2/conv_lstm1d_4/while/convolution_1/ExpandDims_1:output:0"], "attr": {"use_cudnn_on_gpu": {"b": true}, "strides": {"list": {"i": ["1", "1", "1", "1"]}}, "dilations": {"list": {"i": ["1", "1", "1", "1"]}}, "data_format": {"s": "TkhXQw=="}, "padding": {"s": "VkFMSUQ="}, "explicit_paddings": {"list": {}}, "T": {"type": "DT_FLOAT"}}}, {"name": "sequential_2/conv_lstm1d_4/while/convolution_3", "op": "Conv2D", "input": ["sequential_2/conv_lstm1d_4/while/convolution_3/ExpandDims:output:0", "sequential_2/conv_lstm1d_4/while/convolution_3/ExpandDims_1:output:0"], "attr": {"padding": {"s": "VkFMSUQ="}, "explicit_paddings": {"list": {}}, "strides": {"list": {"i": ["1", "1", "1", "1"]}}, "dilations": {"list": {"i": ["1", "1", "1", "1"]}}, "use_cudnn_on_gpu": {"b": true}, "data_format": {"s": "TkhXQw=="}, "T": {"type": "DT_FLOAT"}}}, {"name": "sequential_2/conv_lstm1d_4/while/convolution_2", "op": "Conv2D", "input": ["sequential_2/conv_lstm1d_4/while/convolution_2/ExpandDims:output:0", "sequential_2/conv_lstm1d_4/while/convolution_2/ExpandDims_1:output:0"], "attr": {"use_cudnn_on_gpu": {"b": true}, "dilations": {"list": {"i": ["1", "1", "1", "1"]}}, "data_format": {"s": "TkhXQw=="}, "padding": {"s": "VkFMSUQ="}, "T": {"type": "DT_FLOAT"}, "strides": {"list": {"i": ["1", "1", "1", "1"]}}, "explicit_paddings": {"list": {}}}}, {"name": "sequential_2/conv_lstm1d_4/while/convolution_7", "op": "Conv2D", "input": ["sequential_2/conv_lstm1d_4/while/convolution_7/ExpandDims:output:0", "sequential_2/conv_lstm1d_4/while/convolution_7/ExpandDims_1:output:0"], "attr": {"data_format": {"s": "TkhXQw=="}, "use_cudnn_on_gpu": {"b": true}, "padding": {"s": "U0FNRQ=="}, "T": {"type": "DT_FLOAT"}, "explicit_paddings": {"list": {}}, "dilations": {"list": {"i": ["1", "1", "1", "1"]}}, "strides": {"list": {"i": ["1", "1", "1", "1"]}}}}, {"name": "sequential_2/conv_lstm1d_4/while/convolution_5", "op": "Conv2D", "input": ["sequential_2/conv_lstm1d_4/while/convolution_5/ExpandDims:output:0", "sequential_2/conv_lstm1d_4/while/convolution_5/ExpandDims_1:output:0"], "attr": {"T": {"type": "DT_FLOAT"}, "explicit_paddings": {"list": {}}, "padding": {"s": "U0FNRQ=="}, "use_cudnn_on_gpu": {"b": true}, "dilations": {"list": {"i": ["1", "1", "1", "1"]}}, "data_format": {"s": "TkhXQw=="}, "strides": {"list": {"i": ["1", "1", "1", "1"]}}}}, {"name": "sequential_2/conv_lstm1d_4/while/convolution_4", "op": "Conv2D", "input": ["sequential_2/conv_lstm1d_4/while/convolution_4/ExpandDims:output:0", "sequential_2/conv_lstm1d_4/while/convolution_4/ExpandDims_1:output:0"], "attr": {"data_format": {"s": "TkhXQw=="}, "T": {"type": "DT_FLOAT"}, "strides": {"list": {"i": ["1", "1", "1", "1"]}}, "padding": {"s": "U0FNRQ=="}, "dilations": {"list": {"i": ["1", "1", "1", "1"]}}, "use_cudnn_on_gpu": {"b": true}, "explicit_paddings": {"list": {}}}}, {"name": "sequential_2/conv_lstm1d_4/while/convolution_6", "op": "Conv2D", "input": ["sequential_2/conv_lstm1d_4/while/convolution_6/ExpandDims:output:0", "sequential_2/conv_lstm1d_4/while/convolution_6/ExpandDims_1:output:0"], "attr": {"T": {"type": "DT_FLOAT"}, "strides": {"list": {"i": ["1", "1", "1", "1"]}}, "dilations": {"list": {"i": ["1", "1", "1", "1"]}}, "data_format": {"s": "TkhXQw=="}, "use_cudnn_on_gpu": {"b": true}, "padding": {"s": "U0FNRQ=="}, "explicit_paddings": {"list": {}}}}, {"name": "sequential_2/conv_lstm1d_4/while/convolution/Squeeze", "op": "Squeeze", "input": ["sequential_2/conv_lstm1d_4/while/convolution:output:0"], "attr": {"T": {"type": "DT_FLOAT"}, "squeeze_dims": {"list": {"i": ["-3"]}}}}, {"name": "sequential_2/conv_lstm1d_4/while/convolution_1/Squeeze", "op": "Squeeze", "input": ["sequential_2/conv_lstm1d_4/while/convolution_1:output:0"], "attr": {"squeeze_dims": {"list": {"i": ["-3"]}}, "T": {"type": "DT_FLOAT"}}}, {"name": "sequential_2/conv_lstm1d_4/while/convolution_3/Squeeze", "op": "Squeeze", "input": ["sequential_2/conv_lstm1d_4/while/convolution_3:output:0"], "attr": {"squeeze_dims": {"list": {"i": ["-3"]}}, "T": {"type": "DT_FLOAT"}}}, {"name": "sequential_2/conv_lstm1d_4/while/convolution_2/Squeeze", "op": "Squeeze", "input": ["sequential_2/conv_lstm1d_4/while/convolution_2:output:0"], "attr": {"T": {"type": "DT_FLOAT"}, "squeeze_dims": {"list": {"i": ["-3"]}}}}, {"name": "sequential_2/conv_lstm1d_4/while/convolution_7/Squeeze", "op": "Squeeze", "input": ["sequential_2/conv_lstm1d_4/while/convolution_7:output:0"], "attr": {"T": {"type": "DT_FLOAT"}, "squeeze_dims": {"list": {"i": ["-3"]}}}}, {"name": "sequential_2/conv_lstm1d_4/while/convolution_5/Squeeze", "op": "Squeeze", "input": ["sequential_2/conv_lstm1d_4/while/convolution_5:output:0"], "attr": {"squeeze_dims": {"list": {"i": ["-3"]}}, "T": {"type": "DT_FLOAT"}}}, {"name": "sequential_2/conv_lstm1d_4/while/convolution_4/Squeeze", "op": "Squeeze", "input": ["sequential_2/conv_lstm1d_4/while/convolution_4:output:0"], "attr": {"T": {"type": "DT_FLOAT"}, "squeeze_dims": {"list": {"i": ["-3"]}}}}, {"name": "sequential_2/conv_lstm1d_4/while/convolution_6/Squeeze", "op": "Squeeze", "input": ["sequential_2/conv_lstm1d_4/while/convolution_6:output:0"], "attr": {"T": {"type": "DT_FLOAT"}, "squeeze_dims": {"list": {"i": ["-3"]}}}}, {"name": "sequential_2/conv_lstm1d_4/while/BiasAdd", "op": "BiasAdd", "input": ["sequential_2/conv_lstm1d_4/while/convolution/Squeeze:output:0", "sequential_2/conv_lstm1d_4/while/split_2:output:0"], "attr": {"T": {"type": "DT_FLOAT"}, "data_format": {"s": "TkhXQw=="}}}, {"name": "sequential_2/conv_lstm1d_4/while/BiasAdd_1", "op": "BiasAdd", "input": ["sequential_2/conv_lstm1d_4/while/convolution_1/Squeeze:output:0", "sequential_2/conv_lstm1d_4/while/split_2:output:1"], "attr": {"data_format": {"s": "TkhXQw=="}, "T": {"type": "DT_FLOAT"}}}, {"name": "sequential_2/conv_lstm1d_4/while/BiasAdd_3", "op": "BiasAdd", "input": ["sequential_2/conv_lstm1d_4/while/convolution_3/Squeeze:output:0", "sequential_2/conv_lstm1d_4/while/split_2:output:3"], "attr": {"T": {"type": "DT_FLOAT"}, "data_format": {"s": "TkhXQw=="}}}, {"name": "sequential_2/conv_lstm1d_4/while/BiasAdd_2", "op": "BiasAdd", "input": ["sequential_2/conv_lstm1d_4/while/convolution_2/Squeeze:output:0", "sequential_2/conv_lstm1d_4/while/split_2:output:2"], "attr": {"data_format": {"s": "TkhXQw=="}, "T": {"type": "DT_FLOAT"}}}, {"name": "sequential_2/conv_lstm1d_4/while/add", "op": "AddV2", "input": ["sequential_2/conv_lstm1d_4/while/BiasAdd:output:0", "sequential_2/conv_lstm1d_4/while/convolution_4/Squeeze:output:0"], "attr": {"T": {"type": "DT_FLOAT"}}}, {"name": "sequential_2/conv_lstm1d_4/while/add_2", "op": "AddV2", "input": ["sequential_2/conv_lstm1d_4/while/BiasAdd_1:output:0", "sequential_2/conv_lstm1d_4/while/convolution_5/Squeeze:output:0"], "attr": {"T": {"type": "DT_FLOAT"}}}, {"name": "sequential_2/conv_lstm1d_4/while/add_6", "op": "AddV2", "input": ["sequential_2/conv_lstm1d_4/while/BiasAdd_3:output:0", "sequential_2/conv_lstm1d_4/while/convolution_7/Squeeze:output:0"], "attr": {"T": {"type": "DT_FLOAT"}}}, {"name": "sequential_2/conv_lstm1d_4/while/add_4", "op": "AddV2", "input": ["sequential_2/conv_lstm1d_4/while/BiasAdd_2:output:0", "sequential_2/conv_lstm1d_4/while/convolution_6/Squeeze:output:0"], "attr": {"T": {"type": "DT_FLOAT"}}}, {"name": "sequential_2/conv_lstm1d_4/while/Mul_4", "op": "Mul", "input": ["sequential_2/conv_lstm1d_4/while/add:z:0", "__inference_sequential_2_conv_lstm1d_4_while_body_2827_frozen_12866/sequential_2/conv_lstm1d_4/while/Const:output:0"], "attr": {"T": {"type": "DT_FLOAT"}}}, {"name": "sequential_2/conv_lstm1d_4/while/Mul_5", "op": "Mul", "input": ["sequential_2/conv_lstm1d_4/while/add_2:z:0", "__inference_sequential_2_conv_lstm1d_4_while_body_2827_frozen_12866/sequential_2/conv_lstm1d_4/while/Const_2:output:0"], "attr": {"T": {"type": "DT_FLOAT"}}}, {"name": "sequential_2/conv_lstm1d_4/while/Mul_8", "op": "Mul", "input": ["sequential_2/conv_lstm1d_4/while/add_6:z:0", "__inference_sequential_2_conv_lstm1d_4_while_body_2827_frozen_12866/sequential_2/conv_lstm1d_4/while/Const_4:output:0"], "attr": {"T": {"type": "DT_FLOAT"}}}, {"name": "sequential_2/conv_lstm1d_4/while/Tanh", "op": "Tanh", "input": ["sequential_2/conv_lstm1d_4/while/add_4:z:0"], "attr": {"T": {"type": "DT_FLOAT"}}}, {"name": "sequential_2/conv_lstm1d_4/while/Add_1", "op": "AddV2", "input": ["sequential_2/conv_lstm1d_4/while/Mul_4:z:0", "__inference_sequential_2_conv_lstm1d_4_while_body_2827_frozen_12866/sequential_2/conv_lstm1d_4/while/Const_1:output:0"], "attr": {"T": {"type": "DT_FLOAT"}}}, {"name": "sequential_2/conv_lstm1d_4/while/Add_3", "op": "AddV2", "input": ["sequential_2/conv_lstm1d_4/while/Mul_5:z:0", "__inference_sequential_2_conv_lstm1d_4_while_body_2827_frozen_12866/sequential_2/conv_lstm1d_4/while/Const_3:output:0"], "attr": {"T": {"type": "DT_FLOAT"}}}, {"name": "sequential_2/conv_lstm1d_4/while/Add_7", "op": "AddV2", "input": ["sequential_2/conv_lstm1d_4/while/Mul_8:z:0", "__inference_sequential_2_conv_lstm1d_4_while_body_2827_frozen_12866/sequential_2/conv_lstm1d_4/while/Const_5:output:0"], "attr": {"T": {"type": "DT_FLOAT"}}}, {"name": "sequential_2/conv_lstm1d_4/while/clip_by_value/Minimum", "op": "Minimum", "input": ["sequential_2/conv_lstm1d_4/while/Add_1:z:0", "__inference_sequential_2_conv_lstm1d_4_while_body_2827_frozen_12866/sequential_2/conv_lstm1d_4/while/clip_by_value/Minimum/y:output:0"], "attr": {"T": {"type": "DT_FLOAT"}}}, {"name": "sequential_2/conv_lstm1d_4/while/clip_by_value_1/Minimum", "op": "Minimum", "input": ["sequential_2/conv_lstm1d_4/while/Add_3:z:0", "__inference_sequential_2_conv_lstm1d_4_while_body_2827_frozen_12866/sequential_2/conv_lstm1d_4/while/clip_by_value_1/Minimum/y:output:0"], "attr": {"T": {"type": "DT_FLOAT"}}}, {"name": "sequential_2/conv_lstm1d_4/while/clip_by_value_2/Minimum", "op": "Minimum", "input": ["sequential_2/conv_lstm1d_4/while/Add_7:z:0", "__inference_sequential_2_conv_lstm1d_4_while_body_2827_frozen_12866/sequential_2/conv_lstm1d_4/while/clip_by_value_2/Minimum/y:output:0"], "attr": {"T": {"type": "DT_FLOAT"}}}, {"name": "sequential_2/conv_lstm1d_4/while/clip_by_value", "op": "Maximum", "input": ["sequential_2/conv_lstm1d_4/while/clip_by_value/Minimum:z:0", "__inference_sequential_2_conv_lstm1d_4_while_body_2827_frozen_12866/sequential_2/conv_lstm1d_4/while/clip_by_value/y:output:0"], "attr": {"T": {"type": "DT_FLOAT"}}}, {"name": "sequential_2/conv_lstm1d_4/while/clip_by_value_1", "op": "Maximum", "input": ["sequential_2/conv_lstm1d_4/while/clip_by_value_1/Minimum:z:0", "__inference_sequential_2_conv_lstm1d_4_while_body_2827_frozen_12866/sequential_2/conv_lstm1d_4/while/clip_by_value_1/y:output:0"], "attr": {"T": {"type": "DT_FLOAT"}}}, {"name": "sequential_2/conv_lstm1d_4/while/clip_by_value_2", "op": "Maximum", "input": ["sequential_2/conv_lstm1d_4/while/clip_by_value_2/Minimum:z:0", "__inference_sequential_2_conv_lstm1d_4_while_body_2827_frozen_12866/sequential_2/conv_lstm1d_4/while/clip_by_value_2/y:output:0"], "attr": {"T": {"type": "DT_FLOAT"}}}, {"name": "sequential_2/conv_lstm1d_4/while/mul_7", "op": "Mul", "input": ["sequential_2/conv_lstm1d_4/while/clip_by_value:z:0", "sequential_2/conv_lstm1d_4/while/Tanh:y:0"], "attr": {"T": {"type": "DT_FLOAT"}}}, {"name": "sequential_2/conv_lstm1d_4/while/mul_6", "op": "Mul", "input": ["sequential_2/conv_lstm1d_4/while/clip_by_value_1:z:0", "sequential_2_conv_lstm1d_4_while_placeholder_3"], "attr": {"T": {"type": "DT_FLOAT"}}}, {"name": "sequential_2/conv_lstm1d_4/while/add_5", "op": "AddV2", "input": ["sequential_2/conv_lstm1d_4/while/mul_6:z:0", "sequential_2/conv_lstm1d_4/while/mul_7:z:0"], "attr": {"T": {"type": "DT_FLOAT"}}}, {"name": "sequential_2/conv_lstm1d_4/while/Tanh_1", "op": "Tanh", "input": ["sequential_2/conv_lstm1d_4/while/add_5:z:0"], "attr": {"T": {"type": "DT_FLOAT"}}}, {"name": "sequential_2/conv_lstm1d_4/while/Identity_5", "op": "Identity", "input": ["sequential_2/conv_lstm1d_4/while/add_5:z:0", "^sequential_2/conv_lstm1d_4/while/NoOp"], "attr": {"T": {"type": "DT_FLOAT"}}}, {"name": "sequential_2/conv_lstm1d_4/while/mul_9", "op": "Mul", "input": ["sequential_2/conv_lstm1d_4/while/clip_by_value_2:z:0", "sequential_2/conv_lstm1d_4/while/Tanh_1:y:0"], "attr": {"T": {"type": "DT_FLOAT"}}}, {"name": "sequential_2/conv_lstm1d_4/while/TensorArrayV2Write/TensorListSetItem", "op": "TensorListSetItem", "input": ["sequential_2_conv_lstm1d_4_while_placeholder_1", "sequential_2_conv_lstm1d_4_while_placeholder", "sequential_2/conv_lstm1d_4/while/mul_9:z:0"], "attr": {"element_dtype": {"type": "DT_FLOAT"}}, "experimentalType": {"typeId": "TFT_PRODUCT", "args": [{"typeId": "TFT_ARRAY", "args": [{"typeId": "TFT_TENSOR", "args": [{"typeId": "TFT_FLOAT"}]}]}]}}, {"name": "sequential_2/conv_lstm1d_4/while/Identity_4", "op": "Identity", "input": ["sequential_2/conv_lstm1d_4/while/mul_9:z:0", "^sequential_2/conv_lstm1d_4/while/NoOp"], "attr": {"T": {"type": "DT_FLOAT"}}}, {"name": "sequential_2/conv_lstm1d_4/while/Identity_3", "op": "Identity", "input": ["sequential_2/conv_lstm1d_4/while/TensorArrayV2Write/TensorListSetItem:output_handle:0", "^sequential_2/conv_lstm1d_4/while/NoOp"], "attr": {"T": {"type": "DT_VARIANT"}}}], "ret": {"sequential_2_conv_lstm1d_4_while_identity_5": "sequential_2/conv_lstm1d_4/while/Identity_5:output:0", "sequential_2_conv_lstm1d_4_while_identity_4": "sequential_2/conv_lstm1d_4/while/Identity_4:output:0", "sequential_2_conv_lstm1d_4_while_identity_2": "sequential_2/conv_lstm1d_4/while/Identity_2:output:0", "sequential_2_conv_lstm1d_4_while_identity_3": "sequential_2/conv_lstm1d_4/while/Identity_3:output:0", "sequential_2_conv_lstm1d_4_while_split_2_readvariableop_resource": "sequential_2_conv_lstm1d_4_while_split_2_readvariableop_resource_0", "sequential_2_conv_lstm1d_4_while_split_1_readvariableop_resource": "sequential_2_conv_lstm1d_4_while_split_1_readvariableop_resource_0", "sequential_2_conv_lstm1d_4_while_split_readvariableop_resource": "sequential_2_conv_lstm1d_4_while_split_readvariableop_resource_0", "sequential_2_conv_lstm1d_4_while_tensorarrayv2read_tensorlistgetitem_sequential_2_conv_lstm1d_4_tensorarrayunstack_tensorlistfromtensor": "sequential_2_conv_lstm1d_4_while_tensorarrayv2read_tensorlistgetitem_sequential_2_conv_lstm1d_4_tensorarrayunstack_tensorlistfromtensor_0", "sequential_2_conv_lstm1d_4_while_identity": "sequential_2/conv_lstm1d_4/while/Identity:output:0", "sequential_2_conv_lstm1d_4_while_sequential_2_conv_lstm1d_4_strided_slice": "sequential_2_conv_lstm1d_4_while_sequential_2_conv_lstm1d_4_strided_slice_0", "sequential_2_conv_lstm1d_4_while_identity_1": "sequential_2/conv_lstm1d_4/while/Identity_1:output:0"}, "attr": {"_construction_context": {"s": "a0VhZ2VyUnVudGltZQ=="}}, "controlRet": {"sequential_2/conv_lstm1d_4/while/split_1/ReadVariableOp": "sequential_2/conv_lstm1d_4/while/split_1/ReadVariableOp", "sequential_2/conv_lstm1d_4/while/split/ReadVariableOp": "sequential_2/conv_lstm1d_4/while/split/ReadVariableOp", "sequential_2/conv_lstm1d_4/while/split_2/ReadVariableOp": "sequential_2/conv_lstm1d_4/while/split_2/ReadVariableOp"}, "argAttr": {"1": {"attr": {"_output_shapes": {"list": {"shape": [{}]}}}}, "4": {"attr": {"_output_shapes": {"list": {"shape": [{"dim": [{"size": "-1"}, {"size": "828"}, {"size": "8"}]}]}}}}, "6": {"attr": {"_output_shapes": {"list": {"shape": [{}]}}}}, "3": {"attr": {"_output_shapes": {"list": {"shape": [{}]}}}}, "5": {"attr": {"_output_shapes": {"list": {"shape": [{"dim": [{"size": "-1"}, {"size": "828"}, {"size": "8"}]}]}}}}, "7": {"attr": {"_output_shapes": {"list": {"shape": [{}]}}}}, "0": {"attr": {"_output_shapes": {"list": {"shape": [{}]}}}}, "2": {"attr": {"_output_shapes": {"list": {"shape": [{}]}}}}}}]}, "versions": {"producer": 1286, "minConsumer": 12}}, "weightsManifest": [{"paths": ["group1-shard1of1.bin"], "weights": [{"name": "StatefulPartitionedCall/sequential_2/conv_lstm1d_5/while/loop_counter", "shape": [], "dtype": "int32"}, {"name": "StatefulPartitionedCall/sequential_2/conv_lstm1d_5/while/maximum_iterations", "shape": [], "dtype": "int32"}, {"name": "StatefulPartitionedCall/sequential_2/conv_lstm1d_5/time", "shape": [], "dtype": "int32"}, {"name": "StatefulPartitionedCall/sequential_2/conv_lstm1d_5/TensorArrayV2_1/element_shape", "shape": [3], "dtype": "int32"}, {"name": "StatefulPartitionedCall/sequential_2/conv_lstm1d_5/Sum/reduction_indices", "shape": [], "dtype": "int32"}, {"name": "StatefulPartitionedCall/sequential_2/conv_lstm1d_5/convolution/ExpandDims/dim", "shape": [], "dtype": "int32"}, {"name": "StatefulPartitionedCall/sequential_2/conv_lstm1d_5/convolution/ExpandDims_1", "shape": [1, 3, 8, 14], "dtype": "float32"}, {"name": "StatefulPartitionedCall/sequential_2/conv_lstm1d_5/strided_slice/stack", "shape": [1], "dtype": "int32"}, {"name": "StatefulPartitionedCall/sequential_2/conv_lstm1d_5/strided_slice/stack_1", "shape": [1], "dtype": "int32"}, {"name": "StatefulPartitionedCall/sequential_2/conv_lstm1d_5/strided_slice/stack_2", "shape": [1], "dtype": "int32"}, {"name": "StatefulPartitionedCall/sequential_2/conv_lstm1d_4/while/loop_counter", "shape": [], "dtype": "int32"}, {"name": "StatefulPartitionedCall/sequential_2/conv_lstm1d_4/while/maximum_iterations", "shape": [], "dtype": "int32"}, {"name": "StatefulPartitionedCall/sequential_2/conv_lstm1d_4/time", "shape": [], "dtype": "int32"}, {"name": "StatefulPartitionedCall/sequential_2/conv_lstm1d_4/TensorArrayV2_1/element_shape", "shape": [3], "dtype": "int32"}, {"name": "StatefulPartitionedCall/sequential_2/conv_lstm1d_4/Sum/reduction_indices", "shape": [], "dtype": "int32"}, {"name": "StatefulPartitionedCall/sequential_2/conv_lstm1d_4/convolution/ExpandDims/dim", "shape": [], "dtype": "int32"}, {"name": "StatefulPartitionedCall/sequential_2/conv_lstm1d_4/convolution/ExpandDims_1", "shape": [1, 3, 4, 8], "dtype": "float32"}, {"name": "StatefulPartitionedCall/sequential_2/conv_lstm1d_4/strided_slice/stack", "shape": [1], "dtype": "int32"}, {"name": "StatefulPartitionedCall/sequential_2/conv_lstm1d_4/strided_slice/stack_1", "shape": [1], "dtype": "int32"}, {"name": "StatefulPartitionedCall/sequential_2/conv_lstm1d_4/strided_slice/stack_2", "shape": [1], "dtype": "int32"}, {"name": "StatefulPartitionedCall/sequential_2/conv_lstm1d_3/while/loop_counter", "shape": [], "dtype": "int32"}, {"name": "StatefulPartitionedCall/sequential_2/conv_lstm1d_3/while/maximum_iterations", "shape": [], "dtype": "int32"}, {"name": "StatefulPartitionedCall/sequential_2/conv_lstm1d_3/time", "shape": [], "dtype": "int32"}, {"name": "StatefulPartitionedCall/sequential_2/conv_lstm1d_3/TensorArrayV2_1/element_shape", "shape": [3], "dtype": "int32"}, {"name": "StatefulPartitionedCall/sequential_2/conv_lstm1d_3/Sum/reduction_indices", "shape": [], "dtype": "int32"}, {"name": "StatefulPartitionedCall/sequential_2/conv_lstm1d_3/convolution/ExpandDims/dim", "shape": [], "dtype": "int32"}, {"name": "StatefulPartitionedCall/sequential_2/conv_lstm1d_3/convolution/ExpandDims_1", "shape": [1, 3, 1, 4], "dtype": "float32"}, {"name": "StatefulPartitionedCall/sequential_2/conv_lstm1d_3/strided_slice/stack", "shape": [1], "dtype": "int32"}, {"name": "StatefulPartitionedCall/sequential_2/conv_lstm1d_3/strided_slice/stack_1", "shape": [1], "dtype": "int32"}, {"name": "StatefulPartitionedCall/sequential_2/conv_lstm1d_3/strided_slice/stack_2", "shape": [1], "dtype": "int32"}, {"name": "StatefulPartitionedCall/sequential_2/conv_lstm1d_3/transpose/perm", "shape": [4], "dtype": "int32"}, {"name": "StatefulPartitionedCall/sequential_2/conv_lstm1d_3/TensorArrayUnstack/TensorListFromTensor/element_shape", "shape": [3], "dtype": "int32"}, {"name": "unknown", "shape": [3, 1, 16], "dtype": "float32"}, {"name": "unknown_0", "shape": [3, 4, 16], "dtype": "float32"}, {"name": "unknown_1", "shape": [16], "dtype": "float32"}, {"name": "StatefulPartitionedCall/sequential_2/conv_lstm1d_3/TensorArrayV2Stack/TensorListStack/element_shape", "shape": [3], "dtype": "int32"}, {"name": "StatefulPartitionedCall/sequential_2/conv_lstm1d_3/transpose_1/perm", "shape": [4], "dtype": "int32"}, {"name": "StatefulPartitionedCall/sequential_2/time_distributed_5/Reshape_1/shape", "shape": [4], "dtype": "int32"}, {"name": "StatefulPartitionedCall/sequential_2/conv_lstm1d_4/transpose/perm", "shape": [4], "dtype": "int32"}, {"name": "StatefulPartitionedCall/sequential_2/conv_lstm1d_4/TensorArrayUnstack/TensorListFromTensor/element_shape", "shape": [3], "dtype": "int32"}, {"name": "unknown_2", "shape": [3, 4, 32], "dtype": "float32"}, {"name": "unknown_3", "shape": [3, 8, 32], "dtype": "float32"}, {"name": "unknown_4", "shape": [32], "dtype": "float32"}, {"name": "StatefulPartitionedCall/sequential_2/conv_lstm1d_4/TensorArrayV2Stack/TensorListStack/element_shape", "shape": [3], "dtype": "int32"}, {"name": "StatefulPartitionedCall/sequential_2/conv_lstm1d_4/transpose_1/perm", "shape": [4], "dtype": "int32"}, {"name": "StatefulPartitionedCall/sequential_2/time_distributed_6/Reshape_1/shape", "shape": [4], "dtype": "int32"}, {"name": "StatefulPartitionedCall/sequential_2/conv_lstm1d_5/transpose/perm", "shape": [4], "dtype": "int32"}, {"name": "StatefulPartitionedCall/sequential_2/conv_lstm1d_5/TensorArrayUnstack/TensorListFromTensor/element_shape", "shape": [3], "dtype": "int32"}, {"name": "unknown_5", "shape": [3, 8, 56], "dtype": "float32"}, {"name": "unknown_6", "shape": [3, 14, 56], "dtype": "float32"}, {"name": "unknown_7", "shape": [56], "dtype": "float32"}, {"name": "StatefulPartitionedCall/sequential_2/conv_lstm1d_5/TensorArrayV2Stack/TensorListStack/element_shape", "shape": [3], "dtype": "int32"}, {"name": "StatefulPartitionedCall/sequential_2/conv_lstm1d_5/transpose_1/perm", "shape": [4], "dtype": "int32"}, {"name": "StatefulPartitionedCall/sequential_2/flatten_2/Const", "shape": [2], "dtype": "int32"}, {"name": "StatefulPartitionedCall/sequential_2/dense_3/MatMul/ReadVariableOp", "shape": [86520, 9], "dtype": "float32"}, {"name": "StatefulPartitionedCall/sequential_2/dense_3/BiasAdd/ReadVariableOp", "shape": [9], "dtype": "float32"}, {"name": "__inference_sequential_2_conv_lstm1d_5_while_body_3150_frozen_12868/sequential_2/conv_lstm1d_5/while/add_8/y", "shape": [], "dtype": "int32"}, {"name": "__inference_sequential_2_conv_lstm1d_5_while_body_3150_frozen_12868/sequential_2/conv_lstm1d_5/while/convolution_3/ExpandDims/dim", "shape": [], "dtype": "int32"}, {"name": "__inference_sequential_2_conv_lstm1d_5_while_body_3150_frozen_12868/sequential_2/conv_lstm1d_5/while/convolution_3/ExpandDims_1/dim", "shape": [], "dtype": "int32"}, {"name": "__inference_sequential_2_conv_lstm1d_5_while_body_3150_frozen_12868/sequential_2/conv_lstm1d_5/while/convolution_7/ExpandDims/dim", "shape": [], "dtype": "int32"}, {"name": "__inference_sequential_2_conv_lstm1d_5_while_body_3150_frozen_12868/sequential_2/conv_lstm1d_5/while/convolution_7/ExpandDims_1/dim", "shape": [], "dtype": "int32"}, {"name": "__inference_sequential_2_conv_lstm1d_5_while_body_3150_frozen_12868/sequential_2/conv_lstm1d_5/while/Const_4", "shape": [], "dtype": "float32"}, {"name": "__inference_sequential_2_conv_lstm1d_5_while_body_3150_frozen_12868/sequential_2/conv_lstm1d_5/while/Const_5", "shape": [], "dtype": "float32"}, {"name": "__inference_sequential_2_conv_lstm1d_5_while_body_3150_frozen_12868/sequential_2/conv_lstm1d_5/while/clip_by_value_2/Minimum/y", "shape": [], "dtype": "float32"}, {"name": "__inference_sequential_2_conv_lstm1d_5_while_body_3150_frozen_12868/sequential_2/conv_lstm1d_5/while/clip_by_value_2/y", "shape": [], "dtype": "float32"}, {"name": "__inference_sequential_2_conv_lstm1d_5_while_body_3150_frozen_12868/sequential_2/conv_lstm1d_5/while/convolution_1/ExpandDims/dim", "shape": [], "dtype": "int32"}, {"name": "__inference_sequential_2_conv_lstm1d_5_while_body_3150_frozen_12868/sequential_2/conv_lstm1d_5/while/convolution_1/ExpandDims_1/dim", "shape": [], "dtype": "int32"}, {"name": "__inference_sequential_2_conv_lstm1d_5_while_body_3150_frozen_12868/sequential_2/conv_lstm1d_5/while/convolution_5/ExpandDims/dim", "shape": [], "dtype": "int32"}, {"name": "__inference_sequential_2_conv_lstm1d_5_while_body_3150_frozen_12868/sequential_2/conv_lstm1d_5/while/convolution_5/ExpandDims_1/dim", "shape": [], "dtype": "int32"}, {"name": "__inference_sequential_2_conv_lstm1d_5_while_body_3150_frozen_12868/sequential_2/conv_lstm1d_5/while/Const_2", "shape": [], "dtype": "float32"}, {"name": "__inference_sequential_2_conv_lstm1d_5_while_body_3150_frozen_12868/sequential_2/conv_lstm1d_5/while/Const_3", "shape": [], "dtype": "float32"}, {"name": "__inference_sequential_2_conv_lstm1d_5_while_body_3150_frozen_12868/sequential_2/conv_lstm1d_5/while/clip_by_value_1/Minimum/y", "shape": [], "dtype": "float32"}, {"name": "__inference_sequential_2_conv_lstm1d_5_while_body_3150_frozen_12868/sequential_2/conv_lstm1d_5/while/clip_by_value_1/y", "shape": [], "dtype": "float32"}, {"name": "__inference_sequential_2_conv_lstm1d_5_while_body_3150_frozen_12868/sequential_2/conv_lstm1d_5/while/convolution/ExpandDims/dim", "shape": [], "dtype": "int32"}, {"name": "__inference_sequential_2_conv_lstm1d_5_while_body_3150_frozen_12868/sequential_2/conv_lstm1d_5/while/convolution/ExpandDims_1/dim", "shape": [], "dtype": "int32"}, {"name": "__inference_sequential_2_conv_lstm1d_5_while_body_3150_frozen_12868/sequential_2/conv_lstm1d_5/while/convolution_4/ExpandDims/dim", "shape": [], "dtype": "int32"}, {"name": "__inference_sequential_2_conv_lstm1d_5_while_body_3150_frozen_12868/sequential_2/conv_lstm1d_5/while/convolution_4/ExpandDims_1/dim", "shape": [], "dtype": "int32"}, {"name": "__inference_sequential_2_conv_lstm1d_5_while_body_3150_frozen_12868/sequential_2/conv_lstm1d_5/while/Const", "shape": [], "dtype": "float32"}, {"name": "__inference_sequential_2_conv_lstm1d_5_while_body_3150_frozen_12868/sequential_2/conv_lstm1d_5/while/Const_1", "shape": [], "dtype": "float32"}, {"name": "__inference_sequential_2_conv_lstm1d_5_while_body_3150_frozen_12868/sequential_2/conv_lstm1d_5/while/clip_by_value/Minimum/y", "shape": [], "dtype": "float32"}, {"name": "__inference_sequential_2_conv_lstm1d_5_while_body_3150_frozen_12868/sequential_2/conv_lstm1d_5/while/clip_by_value/y", "shape": [], "dtype": "float32"}, {"name": "__inference_sequential_2_conv_lstm1d_5_while_body_3150_frozen_12868/sequential_2/conv_lstm1d_5/while/TensorArrayV2Read/TensorListGetItem/element_shape", "shape": [3], "dtype": "int32"}, {"name": "__inference_sequential_2_conv_lstm1d_5_while_body_3150_frozen_12868/sequential_2/conv_lstm1d_5/while/convolution_2/ExpandDims/dim", "shape": [], "dtype": "int32"}, {"name": "__inference_sequential_2_conv_lstm1d_5_while_body_3150_frozen_12868/sequential_2/conv_lstm1d_5/while/split/split_dim", "shape": [], "dtype": "int32"}, {"name": "__inference_sequential_2_conv_lstm1d_5_while_body_3150_frozen_12868/sequential_2/conv_lstm1d_5/while/convolution_2/ExpandDims_1/dim", "shape": [], "dtype": "int32"}, {"name": "__inference_sequential_2_conv_lstm1d_5_while_body_3150_frozen_12868/sequential_2/conv_lstm1d_5/while/split_2/split_dim", "shape": [], "dtype": "int32"}, {"name": "__inference_sequential_2_conv_lstm1d_5_while_body_3150_frozen_12868/sequential_2/conv_lstm1d_5/while/ones_like/Const", "shape": [], "dtype": "float32"}, {"name": "__inference_sequential_2_conv_lstm1d_5_while_body_3150_frozen_12868/sequential_2/conv_lstm1d_5/while/convolution_6/ExpandDims/dim", "shape": [], "dtype": "int32"}, {"name": "__inference_sequential_2_conv_lstm1d_5_while_body_3150_frozen_12868/sequential_2/conv_lstm1d_5/while/split_1/split_dim", "shape": [], "dtype": "int32"}, {"name": "__inference_sequential_2_conv_lstm1d_5_while_body_3150_frozen_12868/sequential_2/conv_lstm1d_5/while/convolution_6/ExpandDims_1/dim", "shape": [], "dtype": "int32"}, {"name": "__inference_sequential_2_conv_lstm1d_5_while_body_3150_frozen_12868/sequential_2/conv_lstm1d_5/while/add_9/y", "shape": [], "dtype": "int32"}, {"name": "__inference_sequential_2_conv_lstm1d_3_while_body_2504_frozen_12869/sequential_2/conv_lstm1d_3/while/add_8/y", "shape": [], "dtype": "int32"}, {"name": "__inference_sequential_2_conv_lstm1d_3_while_body_2504_frozen_12869/sequential_2/conv_lstm1d_3/while/convolution_3/ExpandDims/dim", "shape": [], "dtype": "int32"}, {"name": "__inference_sequential_2_conv_lstm1d_3_while_body_2504_frozen_12869/sequential_2/conv_lstm1d_3/while/convolution_3/ExpandDims_1/dim", "shape": [], "dtype": "int32"}, {"name": "__inference_sequential_2_conv_lstm1d_3_while_body_2504_frozen_12869/sequential_2/conv_lstm1d_3/while/convolution_7/ExpandDims/dim", "shape": [], "dtype": "int32"}, {"name": "__inference_sequential_2_conv_lstm1d_3_while_body_2504_frozen_12869/sequential_2/conv_lstm1d_3/while/convolution_7/ExpandDims_1/dim", "shape": [], "dtype": "int32"}, {"name": "__inference_sequential_2_conv_lstm1d_3_while_body_2504_frozen_12869/sequential_2/conv_lstm1d_3/while/Const_4", "shape": [], "dtype": "float32"}, {"name": "__inference_sequential_2_conv_lstm1d_3_while_body_2504_frozen_12869/sequential_2/conv_lstm1d_3/while/Const_5", "shape": [], "dtype": "float32"}, {"name": "__inference_sequential_2_conv_lstm1d_3_while_body_2504_frozen_12869/sequential_2/conv_lstm1d_3/while/clip_by_value_2/Minimum/y", "shape": [], "dtype": "float32"}, {"name": "__inference_sequential_2_conv_lstm1d_3_while_body_2504_frozen_12869/sequential_2/conv_lstm1d_3/while/clip_by_value_2/y", "shape": [], "dtype": "float32"}, {"name": "__inference_sequential_2_conv_lstm1d_3_while_body_2504_frozen_12869/sequential_2/conv_lstm1d_3/while/convolution_1/ExpandDims/dim", "shape": [], "dtype": "int32"}, {"name": "__inference_sequential_2_conv_lstm1d_3_while_body_2504_frozen_12869/sequential_2/conv_lstm1d_3/while/convolution_1/ExpandDims_1/dim", "shape": [], "dtype": "int32"}, {"name": "__inference_sequential_2_conv_lstm1d_3_while_body_2504_frozen_12869/sequential_2/conv_lstm1d_3/while/convolution_5/ExpandDims/dim", "shape": [], "dtype": "int32"}, {"name": "__inference_sequential_2_conv_lstm1d_3_while_body_2504_frozen_12869/sequential_2/conv_lstm1d_3/while/convolution_5/ExpandDims_1/dim", "shape": [], "dtype": "int32"}, {"name": "__inference_sequential_2_conv_lstm1d_3_while_body_2504_frozen_12869/sequential_2/conv_lstm1d_3/while/Const_2", "shape": [], "dtype": "float32"}, {"name": "__inference_sequential_2_conv_lstm1d_3_while_body_2504_frozen_12869/sequential_2/conv_lstm1d_3/while/Const_3", "shape": [], "dtype": "float32"}, {"name": "__inference_sequential_2_conv_lstm1d_3_while_body_2504_frozen_12869/sequential_2/conv_lstm1d_3/while/clip_by_value_1/Minimum/y", "shape": [], "dtype": "float32"}, {"name": "__inference_sequential_2_conv_lstm1d_3_while_body_2504_frozen_12869/sequential_2/conv_lstm1d_3/while/clip_by_value_1/y", "shape": [], "dtype": "float32"}, {"name": "__inference_sequential_2_conv_lstm1d_3_while_body_2504_frozen_12869/sequential_2/conv_lstm1d_3/while/convolution/ExpandDims/dim", "shape": [], "dtype": "int32"}, {"name": "__inference_sequential_2_conv_lstm1d_3_while_body_2504_frozen_12869/sequential_2/conv_lstm1d_3/while/convolution/ExpandDims_1/dim", "shape": [], "dtype": "int32"}, {"name": "__inference_sequential_2_conv_lstm1d_3_while_body_2504_frozen_12869/sequential_2/conv_lstm1d_3/while/convolution_4/ExpandDims/dim", "shape": [], "dtype": "int32"}, {"name": "__inference_sequential_2_conv_lstm1d_3_while_body_2504_frozen_12869/sequential_2/conv_lstm1d_3/while/convolution_4/ExpandDims_1/dim", "shape": [], "dtype": "int32"}, {"name": "__inference_sequential_2_conv_lstm1d_3_while_body_2504_frozen_12869/sequential_2/conv_lstm1d_3/while/Const", "shape": [], "dtype": "float32"}, {"name": "__inference_sequential_2_conv_lstm1d_3_while_body_2504_frozen_12869/sequential_2/conv_lstm1d_3/while/Const_1", "shape": [], "dtype": "float32"}, {"name": "__inference_sequential_2_conv_lstm1d_3_while_body_2504_frozen_12869/sequential_2/conv_lstm1d_3/while/clip_by_value/Minimum/y", "shape": [], "dtype": "float32"}, {"name": "__inference_sequential_2_conv_lstm1d_3_while_body_2504_frozen_12869/sequential_2/conv_lstm1d_3/while/clip_by_value/y", "shape": [], "dtype": "float32"}, {"name": "__inference_sequential_2_conv_lstm1d_3_while_body_2504_frozen_12869/sequential_2/conv_lstm1d_3/while/TensorArrayV2Read/TensorListGetItem/element_shape", "shape": [3], "dtype": "int32"}, {"name": "__inference_sequential_2_conv_lstm1d_3_while_body_2504_frozen_12869/sequential_2/conv_lstm1d_3/while/convolution_2/ExpandDims/dim", "shape": [], "dtype": "int32"}, {"name": "__inference_sequential_2_conv_lstm1d_3_while_body_2504_frozen_12869/sequential_2/conv_lstm1d_3/while/split/split_dim", "shape": [], "dtype": "int32"}, {"name": "__inference_sequential_2_conv_lstm1d_3_while_body_2504_frozen_12869/sequential_2/conv_lstm1d_3/while/convolution_2/ExpandDims_1/dim", "shape": [], "dtype": "int32"}, {"name": "__inference_sequential_2_conv_lstm1d_3_while_body_2504_frozen_12869/sequential_2/conv_lstm1d_3/while/split_2/split_dim", "shape": [], "dtype": "int32"}, {"name": "__inference_sequential_2_conv_lstm1d_3_while_body_2504_frozen_12869/sequential_2/conv_lstm1d_3/while/ones_like/Const", "shape": [], "dtype": "float32"}, {"name": "__inference_sequential_2_conv_lstm1d_3_while_body_2504_frozen_12869/sequential_2/conv_lstm1d_3/while/convolution_6/ExpandDims/dim", "shape": [], "dtype": "int32"}, {"name": "__inference_sequential_2_conv_lstm1d_3_while_body_2504_frozen_12869/sequential_2/conv_lstm1d_3/while/split_1/split_dim", "shape": [], "dtype": "int32"}, {"name": "__inference_sequential_2_conv_lstm1d_3_while_body_2504_frozen_12869/sequential_2/conv_lstm1d_3/while/convolution_6/ExpandDims_1/dim", "shape": [], "dtype": "int32"}, {"name": "__inference_sequential_2_conv_lstm1d_3_while_body_2504_frozen_12869/sequential_2/conv_lstm1d_3/while/add_9/y", "shape": [], "dtype": "int32"}, {"name": "__inference_sequential_2_conv_lstm1d_4_while_body_2827_frozen_12866/sequential_2/conv_lstm1d_4/while/add_8/y", "shape": [], "dtype": "int32"}, {"name": "__inference_sequential_2_conv_lstm1d_4_while_body_2827_frozen_12866/sequential_2/conv_lstm1d_4/while/convolution_3/ExpandDims/dim", "shape": [], "dtype": "int32"}, {"name": "__inference_sequential_2_conv_lstm1d_4_while_body_2827_frozen_12866/sequential_2/conv_lstm1d_4/while/convolution_3/ExpandDims_1/dim", "shape": [], "dtype": "int32"}, {"name": "__inference_sequential_2_conv_lstm1d_4_while_body_2827_frozen_12866/sequential_2/conv_lstm1d_4/while/convolution_7/ExpandDims/dim", "shape": [], "dtype": "int32"}, {"name": "__inference_sequential_2_conv_lstm1d_4_while_body_2827_frozen_12866/sequential_2/conv_lstm1d_4/while/convolution_7/ExpandDims_1/dim", "shape": [], "dtype": "int32"}, {"name": "__inference_sequential_2_conv_lstm1d_4_while_body_2827_frozen_12866/sequential_2/conv_lstm1d_4/while/Const_4", "shape": [], "dtype": "float32"}, {"name": "__inference_sequential_2_conv_lstm1d_4_while_body_2827_frozen_12866/sequential_2/conv_lstm1d_4/while/Const_5", "shape": [], "dtype": "float32"}, {"name": "__inference_sequential_2_conv_lstm1d_4_while_body_2827_frozen_12866/sequential_2/conv_lstm1d_4/while/clip_by_value_2/Minimum/y", "shape": [], "dtype": "float32"}, {"name": "__inference_sequential_2_conv_lstm1d_4_while_body_2827_frozen_12866/sequential_2/conv_lstm1d_4/while/clip_by_value_2/y", "shape": [], "dtype": "float32"}, {"name": "__inference_sequential_2_conv_lstm1d_4_while_body_2827_frozen_12866/sequential_2/conv_lstm1d_4/while/convolution_1/ExpandDims/dim", "shape": [], "dtype": "int32"}, {"name": "__inference_sequential_2_conv_lstm1d_4_while_body_2827_frozen_12866/sequential_2/conv_lstm1d_4/while/convolution_1/ExpandDims_1/dim", "shape": [], "dtype": "int32"}, {"name": "__inference_sequential_2_conv_lstm1d_4_while_body_2827_frozen_12866/sequential_2/conv_lstm1d_4/while/convolution_5/ExpandDims/dim", "shape": [], "dtype": "int32"}, {"name": "__inference_sequential_2_conv_lstm1d_4_while_body_2827_frozen_12866/sequential_2/conv_lstm1d_4/while/convolution_5/ExpandDims_1/dim", "shape": [], "dtype": "int32"}, {"name": "__inference_sequential_2_conv_lstm1d_4_while_body_2827_frozen_12866/sequential_2/conv_lstm1d_4/while/Const_2", "shape": [], "dtype": "float32"}, {"name": "__inference_sequential_2_conv_lstm1d_4_while_body_2827_frozen_12866/sequential_2/conv_lstm1d_4/while/Const_3", "shape": [], "dtype": "float32"}, {"name": "__inference_sequential_2_conv_lstm1d_4_while_body_2827_frozen_12866/sequential_2/conv_lstm1d_4/while/clip_by_value_1/Minimum/y", "shape": [], "dtype": "float32"}, {"name": "__inference_sequential_2_conv_lstm1d_4_while_body_2827_frozen_12866/sequential_2/conv_lstm1d_4/while/clip_by_value_1/y", "shape": [], "dtype": "float32"}, {"name": "__inference_sequential_2_conv_lstm1d_4_while_body_2827_frozen_12866/sequential_2/conv_lstm1d_4/while/convolution/ExpandDims/dim", "shape": [], "dtype": "int32"}, {"name": "__inference_sequential_2_conv_lstm1d_4_while_body_2827_frozen_12866/sequential_2/conv_lstm1d_4/while/convolution/ExpandDims_1/dim", "shape": [], "dtype": "int32"}, {"name": "__inference_sequential_2_conv_lstm1d_4_while_body_2827_frozen_12866/sequential_2/conv_lstm1d_4/while/convolution_4/ExpandDims/dim", "shape": [], "dtype": "int32"}, {"name": "__inference_sequential_2_conv_lstm1d_4_while_body_2827_frozen_12866/sequential_2/conv_lstm1d_4/while/convolution_4/ExpandDims_1/dim", "shape": [], "dtype": "int32"}, {"name": "__inference_sequential_2_conv_lstm1d_4_while_body_2827_frozen_12866/sequential_2/conv_lstm1d_4/while/Const", "shape": [], "dtype": "float32"}, {"name": "__inference_sequential_2_conv_lstm1d_4_while_body_2827_frozen_12866/sequential_2/conv_lstm1d_4/while/Const_1", "shape": [], "dtype": "float32"}, {"name": "__inference_sequential_2_conv_lstm1d_4_while_body_2827_frozen_12866/sequential_2/conv_lstm1d_4/while/clip_by_value/Minimum/y", "shape": [], "dtype": "float32"}, {"name": "__inference_sequential_2_conv_lstm1d_4_while_body_2827_frozen_12866/sequential_2/conv_lstm1d_4/while/clip_by_value/y", "shape": [], "dtype": "float32"}, {"name": "__inference_sequential_2_conv_lstm1d_4_while_body_2827_frozen_12866/sequential_2/conv_lstm1d_4/while/TensorArrayV2Read/TensorListGetItem/element_shape", "shape": [3], "dtype": "int32"}, {"name": "__inference_sequential_2_conv_lstm1d_4_while_body_2827_frozen_12866/sequential_2/conv_lstm1d_4/while/convolution_2/ExpandDims/dim", "shape": [], "dtype": "int32"}, {"name": "__inference_sequential_2_conv_lstm1d_4_while_body_2827_frozen_12866/sequential_2/conv_lstm1d_4/while/split/split_dim", "shape": [], "dtype": "int32"}, {"name": "__inference_sequential_2_conv_lstm1d_4_while_body_2827_frozen_12866/sequential_2/conv_lstm1d_4/while/convolution_2/ExpandDims_1/dim", "shape": [], "dtype": "int32"}, {"name": "__inference_sequential_2_conv_lstm1d_4_while_body_2827_frozen_12866/sequential_2/conv_lstm1d_4/while/split_2/split_dim", "shape": [], "dtype": "int32"}, {"name": "__inference_sequential_2_conv_lstm1d_4_while_body_2827_frozen_12866/sequential_2/conv_lstm1d_4/while/ones_like/Const", "shape": [], "dtype": "float32"}, {"name": "__inference_sequential_2_conv_lstm1d_4_while_body_2827_frozen_12866/sequential_2/conv_lstm1d_4/while/convolution_6/ExpandDims/dim", "shape": [], "dtype": "int32"}, {"name": "__inference_sequential_2_conv_lstm1d_4_while_body_2827_frozen_12866/sequential_2/conv_lstm1d_4/while/split_1/split_dim", "shape": [], "dtype": "int32"}, {"name": "__inference_sequential_2_conv_lstm1d_4_while_body_2827_frozen_12866/sequential_2/conv_lstm1d_4/while/convolution_6/ExpandDims_1/dim", "shape": [], "dtype": "int32"}, {"name": "__inference_sequential_2_conv_lstm1d_4_while_body_2827_frozen_12866/sequential_2/conv_lstm1d_4/while/add_9/y", "shape": [], "dtype": "int32"}]}]}